best_models/pinn_dp0/pinn_model.pt (torch, 276772 bytes, 8 tensors)

linear.0.weight f8 [128, 3]
00000000: 62fc dc30 aab3 abbf 5b9c e6b5 1abc bfbf
00000010: a897 f6fb 0799 c43f f4fe 64a2 3d41 c4bf
00000020: ca24 9dd6 d7e3 b9bf 14a8 7af8 0da4 90bf
00000030: 9137 d737 5c54 7c3f ca1a 90ed f8ef c2bf
00000040: 565e 1125 ae99 d0bf 00a8 c1be a5dd c73f
00000050: 18e7 cb6a a56d c63f 74d8 1639 212e bcbf
00000060: a790 9051 067a d2bf 8fc7 01c6 5d74 c13f
00000070: f256 d15f e34e b3bf 9151 056c 8cd3 bbbf
00000080: 7864 278f 391e c3bf 15e8 b7e8 e9c8 ccbf
00000090: 2330 dcad 317c c6bf bf80 04c5 ef49 c33f
000000a0: 800a 6bbe e485 c6bf bb13 4caf 1a6e b0bf
000000b0: b764 e849 4022 bb3f ad4a 2e4b fd34 c4bf
000000c0: d272 dc2c 4663 9cbf ab35 7565 3cce ae3f
000000d0: c681 6089 a153 96bf e0db bdb2 2290 b3bf
000000e0: 5381 826f a42f c33f 3ed4 64bb 3523 b83f
000000f0: 8195 cbf1 b0ea ba3f 6956 38c9 9a19 5bbf
00000100: 2c74 37fa 1074 c73f 5063 d7b4 5916 babf
00000110: 6eec 20d0 6af3 bf3f 9b55 f78a f321 ce3f
00000120: 3f11 71c5 acc6 c2bf 4144 d40b 814b ab3f
00000130: cefb 395b 1f32 83bf f3e8 86ba 4f28 c93f
00000140: 2f91 a4fc 1d4c bb3f 8c14 9ead ae63 c4bf
00000150: 3b4b 33be 7918 c33f 54b5 2c06 cd21 a8bf
00000160: 91e3 b6c7 f3c5 bc3f 664f 062e 96ad bc3f
00000170: 41c4 44cb 187e 9dbf 7ffa 31aa 1f98 babf
00000180: 0ef5 5538 0b22 b2bf f669 6dcd a38b b13f
00000190: 3922 2d31 f71f c7bf dc36 2041 d373 97bf
000001a0: 5a4a e230 c5ae 85bf 10e3 4199 9c1a c0bf
000001b0: bdbe ceaa 430c dabf d6b9 5367 404d b5bf
000001c0: a4a6 ecc7 b531 bf3f 6bde 9aa5 b94e c2bf
000001d0: 38aa 3077 6b85 c63f 9903 79a0 2aeb cbbf
000001e0: f3c2 db13 fee2 c4bf 6fc5 bf3c adea afbf
000001f0: d3b9 364c 30c0 c63f d258 0ecf 71b4 d03f
00000200: 3b88 501a 3b53 bbbf f790 eaa9 c001 a13f
00000210: 5b8b 3d90 027d c33f 12d8 3772 532c b83f
00000220: 7a75 f522 ca30 c5bf 616d e7be 1056 c13f
00000230: 53fc 5d25 327b bbbf d00a a784 acd1 b33f
00000240: 257c 7030 fe1e d2bf 3b61 7482 5631 bdbf
00000250: 486e 7d0a 8b4b b03f de21 15c5 a20f 923f
00000260: 7897 71f6 e8f6 c4bf 9533 fd74 3b8e b1bf
00000270: 5c07 5df6 c90b d73f a7c1 3be2 b11a 9dbf
00000280: 6479 85b4 2e58 cbbf 43ab 9c93 3705 ce3f
00000290: dd40 654e 126f c53f 4571 fab7 5137 cabf
000002a0: a7dc 1e9b 23ab c5bf d81b 3acb 2961 8fbf
000002b0: 1a72 0c82 789e 963f 6e4b b18a 5c8b c63f
000002c0: a6ac 8f22 94b7 c63f a950 5cd1 106a 96bf
000002d0: b7d2 6a38 8ccb ac3f 4c83 8731 46e6 cb3f
000002e0: 66df e3f9 b0e7 bfbf e2e7 8ac6 016d b73f
000002f0: 99a0 5d05 9103 d1bf 229b 5343 b0db c43f
00000300: bf99 c155 2550 c0bf 725c d64a 8148 c9bf
00000310: bd9f 8ab2 e6d6 c33f 75b2 ecc0 8e3c c5bf
00000320: d726 b34f f4bb c2bf 47c0 0dc7 0346 c3bf
00000330: 6a73 535c bc30 dbbf 5256 63d9 39e2 ba3f
00000340: faae e51b 45f1 c53f 817e ef8d d4c6 b3bf
00000350: 5a08 b180 283c 8ebf 3ecb c13f d6df c7bf
00000360: bcc0 e183 c4eb c9bf f45a 5a73 56bc b7bf
00000370: 5c56 4ab1 cafd 85bf eeaa 8430 ecc4 a83f
00000380: 3f57 43d4 e6ea c73f 03ab 5833 4532 c33f
00000390: 4078 faea 28de aa3f da61 f4c8 062c acbf
000003a0: 4e2b b6c2 2e6e c2bf bdbe dcb2 e1ed c23f
000003b0: 32ce 355c 7af3 c43f 74b2 d13a f669 90bf
000003c0: 2b37 75d6 6f38 a53f 2415 a813 6313 1f3f
000003d0: 0919 6e66 ab11 c4bf 1b74 1f8d ef41 d73f
000003e0: 0848 671f dfcc bd3f 8bf7 bf39 258c c23f
000003f0: 8aee fdcb 69d1 b13f bc5f a2e3 5047 abbf
00000400: 8e06 9f39 4b76 cdbf b8bf da80 4963 b73f
00000410: 53d5 466e 9532 a63f 56cf 7d53 b94a babf
00000420: 56e2 f142 e014 d73f bd18 a65e 5715 bdbf
00000430: 74b2 9e3a 61cb c23f f3ea 37da dccb c93f
00000440: 076b 5b7a 5961 c83f ae70 8286 fbe9 b3bf
00000450: 73b6 39e1 ab9a 7bbf 23d3 1526 08ba b1bf
00000460: 595b 8600 c03a c1bf 446f 6919 caa8 a6bf
00000470: 9520 57eb ade6 c9bf 17bd a107 1c4b b0bf
00000480: 9b61 c9f7 409b c4bf 4e9b bdfc e85b c7bf
00000490: 2b83 e56e bf33 cd3f 6bd0 3e79 a358 d43f
000004a0: a0bd 517e 13be cf3f b853 68a7 180a 913f
000004b0: 12c0 f3eb db31 c1bf 6b58 1d0e 56df c1bf
000004c0: 2f91 70d2 4095 a7bf 8133 1b2e e49e d83f
000004d0: e86b cb67 0fa0 b03f a3f5 707e 8caf ab3f
000004e0: 68c7 df6e 3601 bc3f 6acb 522e 1c74 c93f
000004f0: 6d07 43ce f7c7 b43f ea4d b6bb 0385 883f
00000500: 2424 dc9d 9c81 b73f d8d9 ec83 410c b2bf
00000510: 7a97 bb12 c305 babf 7db7 e0ad 024f a83f
00000520: d240 41c6 9d7d b4bf e5ed 8aad 3030 ca3f
00000530: c4fa b3f1 0afb 8e3f a91b ffda b8bc a23f
00000540: dd27 e1f6 32cd a9bf a432 a2b4 a494 c2bf
00000550: de22 c402 fe2f aebf 8b2e ce54 aa63 cabf
00000560: 51fe 373f 9a06 b4bf 7b6f 4626 491f cebf
00000570: 1a5b f41a 1706 c6bf a43b 871d 4b56 8dbf
00000580: 576c f02c 3ec0 c4bf a3ca 3f4c 4091 d1bf
00000590: e4d7 8aa0 83ce c93f d373 a50a c1da 88bf
000005a0: 16e9 4464 6986 e03f abd7 6a5e 3983 c83f
000005b0: 9708 8084 cf96 d13f 6f0d dad8 107c b83f
000005c0: 0e26 dc97 12cd abbf 7396 621a 30ba c03f
000005d0: 701c 56ad a6f5 c63f 540a bab3 401c c7bf
000005e0: c483 5f03 c211 c43f 24d9 0d53 7580 923f
000005f0: 2116 88b1 03b2 c63f d941 2b48 8221 c63f
00000600: 026d 32a1 8c79 bc3f da58 0434 05f6 a3bf
00000610: cd0d ef97 b31e a2bf 8f1b 9a4a f848 a43f
00000620: 353f 6e2e b77e 953f 5d70 7fa3 36ad a5bf
00000630: 6acc 0de7 79f2 c53f ccb8 96b7 4558 babf
00000640: 7a69 5e66 1a4d bfbf 386d 4db3 adde d43f
00000650: 1caf eaed 1a34 b93f 096b 583c e9d2 b53f
00000660: 100b e4e5 5be2 c73f 81c8 8e9d 0aaa c9bf
00000670: 8cb0 5875 a98c b5bf 1e55 0afa 7e93 c23f
00000680: 9e83 b098 eb9e c3bf 93eb ee18 c656 b23f
00000690: 22ae ec02 03be bebf 96e4 4676 7605 cbbf
000006a0: 6741 4d20 3dc1 cabf d46a a5e7 013a b63f
000006b0: ecbc 7364 e313 a0bf 1cd7 b832 a8f6 bc3f
000006c0: 5633 a333 f9f9 91bf bf59 a8b1 a7dc c93f
000006d0: 20b0 54a1 e7e2 c5bf 8e73 2054 7751 abbf
000006e0: f0ae d1fb 4b78 a5bf 3f5b 60b3 15a9 8bbf
000006f0: baa3 20ba 8f43 bcbf 0193 310e d539 b9bf
00000700: fc7e 3d97 8a35 c13f f196 b40a f7fd c13f
00000710: 315a f070 31cb b13f adf7 31bf 1ee0 a5bf
00000720: 95d9 2cbb 7b50 87bf f83a 0505 02cc 98bf
00000730: 7784 0653 6921 bf3f cc56 f14e e1c5 c0bf
00000740: 92fa 6675 17fb c33f f8ca 6148 cf4e ce3f
00000750: b965 b51c 22c8 c8bf 047a 84a0 028f 86bf
00000760: ab73 fc9f d07a c23f 1219 6e88 7474 82bf
00000770: 971f 3496 fe8b b53f 10f5 51a9 5135 bcbf
00000780: c3ac 5442 0f8a a83f 26a9 74d8 f3be c6bf
00000790: ac93 c96a 087f 82bf 2d93 fd12 4f3f bb3f
000007a0: b965 ddbb a35a cfbf aaaa a858 b338 c63f
000007b0: de55 4cc3 b76f 9c3f 8d22 58e6 2942 b8bf
000007c0: 90d4 0cae 456d 9fbf 0649 2dc1 c66e bcbf
000007d0: 695b 8173 8110 bf3f ec57 9fdb ba69 b23f
000007e0: 7ce8 4ead 4126 d4bf 750e ccee 32f2 a53f
000007f0: a1e1 4ef9 7eac c9bf 4c8d 152d ec3f a23f
-0.054105108704327845 -0.12396399441659993 0.16092014124768395 -0.15824098996562663 -0.10113286008449332 -0.0162508185300468 0.006916389681874594 -0.1479483756995335
-0.25937989826113517 0.18645164312630413 0.1752211352793942 -0.11007888454227716 -0.28869779553702773 0.13636371773060005 -0.07542248811054345 -0.10869672429300282
-0.14935988893447294 -0.2248813997574081 -0.1756651019026104 0.150693865966792 -0.17596110627899364 -0.0641800573321935 0.1059913807333882 -0.157867109021557
-0.027722450721841714 0.06016720522402904 -0.021803401956391764 -0.07641808379945259 0.14989142842115175 0.09428726029439446 0.10514360335544916 -0.0016540538389383747
0.1832295629273245 -0.10190354027817006 0.12480800229325137 0.23541111264664213 -0.14668807640749468 0.053310425466527984 -0.009372944804679675 0.19654270751727373
0.10663020532644361 -0.15929206349770586 0.14918443476798324 -0.047132880214443645 0.11239551187362752 0.11202372192047746 -0.028801333815128286 -0.10388372330815264
-0.07083196759591123 0.06853698506657921 -0.1806630125158948 -0.02290277562138142 -0.010587254099197075 -0.12581212504644457 -0.4069985549967717 -0.0832100155127827
0.12185226565329771 -0.14302750192813404 0.1759466487868211 -0.21811421237546538 -0.16317726106310423 -0.06233731619421234 0.17774013253570206 0.26101346226040534
-0.10673875229306955 0.033216496221287466 0.152252502851378 0.09442636049774958 -0.16555144030546015 0.13543900796399114 -0.10734856998713953 0.07741811979853286
-0.2831416581192932 -0.11403408703734368 0.06365269666769635 0.017637770918811906 -0.1637850955332245 -0.06857654195955683 0.3600945382969394 -0.028422145302955972
-0.21362861456413917 0.23453421313873876 0.16745213344484614 -0.20481320842089637 -0.16928525041814632 -0.01532204295587107 0.022088892877137757 0.1761279751977684
0.1774773758655545 -0.0218889835151265 0.056240445982813574 0.21796491068291812 -0.1246290788729972 0.0915070638392588 -0.26584268115994686 0.1629543617957206
-0.1274458569270802 -0.1975251784722079 0.15499576299521137 -0.1659105722441329 -0.14636091128914216 -0.1505741807882279 -0.42484959617814033 0.10501443440747352
0.17142547475975062 -0.0772526594660068 -0.014763180186609205 -0.18651846039900905 -0.20250755729239767 -0.09271755520090236 -0.01073797563121131 0.048377400324474226
0.1868561302605318 0.14997162825724084 0.05247619503391876 -0.055023395567505864 -0.14398750789072284 0.147884571395016 0.16368035795641017 -0.01602921232226824
0.04144620411771734 0.00011854450432487569 -0.1567892313143562 0.3633993986275656 0.11640734211621873 0.14490189857309263 0.0696016428973342 -0.05327847269762695
-0.23017254174742557 0.09135875125752946 0.04335467311049492 -0.10270269668927531 0.360649171233978 -0.11360689221155247 0.1468316589574844 0.20153389601895064
0.19047087168186058 -0.077789039935342 -0.006739303021829113 -0.06924487047019716 -0.1346054079592374 -0.04425651130870148 -0.2023522757647284 -0.06364607988665615
-0.1609879693885546 -0.1824923738560877 0.22814171709890138 0.31791006889694157 0.24798816364225917 0.016640076844925494 -0.1343340780363183 -0.13962817849341333
-0.04606058663219625 0.38469795706333093 0.06494232448623871 0.05407370608780162 0.10939350325477692 0.1988558984936291 0.08117626939477214 0.011972455183047754
0.09182146886827575 -0.0704995104868894 -0.10165042121260895 0.04747780201465355 -0.08004175272185712 0.20459564660801202 0.015127263547126353 0.0365960852937442
-0.05039366973558377 -0.14516123600005415 -0.058959901654878286 -0.2061665453041893 -0.07822574656892668 -0.2353297650232625 -0.17206085983408387 -0.014324747885351936
-0.16211678690237605 -0.2744904274579005 0.20161481226904165 -0.0121359902738564 0.5164076765425161 0.1915046416303857 0.27482974948373723 0.095643094007803
-0.05429895499953484 0.13068200386367188 0.17937167609872828 -0.1805497052738071 0.15679192700102196 0.018068154520244253 0.1773075692037063 0.1728976108920637
0.11122969565842669 -0.038986361121872995 -0.035390484139067625 0.03961921606701601 0.02099119397058687 -0.042337138612965154 0.17146228582314232 -0.10290942890307803
-0.12227025031316954 0.3260912180901019 0.09845131214632058 0.08524949763561208 0.1865954277528421 -0.20050175374268878 -0.0841775809755651 0.1451262207889749
-0.15328736262838744 0.07163656338427264 -0.12008684941673001 -0.21110420966377735 -0.2090221793864757 0.08682262330459461 -0.03140173531743948 0.1131386874993407
-0.017555135513976104 0.20204635786713074 -0.17098708512765004 -0.0533559122270396 -0.0419334168335278 -0.013506097351677957 -0.1104059056675756 -0.09853870007061617
0.13444645294929802 0.1405628969452475 0.06950673110291274 -0.04272552570272068 -0.011383978509553564 -0.024215728336737435 0.12160356785763492 -0.1310388217413475
0.1561002085927226 0.23678008112218385 -0.19360758210932064 -0.011014957927327103 0.14437301456282844 -0.009011183179393121 0.08416739623146295 -0.11018858321945779
0.04792831120206522 -0.17770240849615354 -0.009031358488934625 0.10643476689945137 -0.24495360062682695 0.17360536412282573 0.027769919676833392 -0.09475957749976711
-0.030690277813125777 -0.11106531349404145 0.12134560651734962 0.0719258104503237 -0.31483499455101316 0.04286345639232262 -0.2005766599011283 0.035643940452042416

linear.0.bias f8 [128]
00000000: bdab a474 edbb a3bf fca1 207a ea46 c2bf
00000010: 3413 d5b3 d906 c63f 2eb7 72a7 0a7b b53f
00000020: 1534 ca05 31b1 c0bf 0892 c7fe d590 babf
00000030: bd8f 3d2a 3739 80bf 022e 8fcb 621d c3bf
00000040: 7499 b22f 6e9f b93f 837a 903a 8e30 7d3f
00000050: c8b8 b9d1 e347 b13f f48a 39a5 b1ff 9e3f
00000060: 628f d18f f49a 843f 5f41 e91f 25ec cc3f
00000070: 8e9b 0cc6 c53b b53f 804b 8b4d d2ff a23f
00000080: 664a 98e6 a567 bd3f b44a e410 f8d8 c6bf
00000090: e569 c4d5 a649 d4bf 8ccc 7714 992b c73f
000000a0: 0716 761d 7998 c3bf ea7d 6441 e181 b73f
000000b0: 690a faea 721c a83f 0fb9 26d9 05b8 bb3f
000000c0: f895 afbf 0dc7 c9bf 50e7 560a 5314 c23f
000000d0: b676 e705 7030 d03f cdb9 5e81 5866 cb3f
000000e0: 5d18 5391 cf36 abbf 4d7f a757 d325 bb3f
000000f0: 1305 c55e 4f49 9bbf 0217 acc9 b38b a33f
00000100: 6a5e a226 5394 b1bf dee2 bfe4 9f2a bebf
00000110: 8d4d 87a4 b08e d3bf d220 b49a da2b ac3f
00000120: ae3b ac61 b22b babf aad7 2e44 5415 7fbf
00000130: 9595 9d4e e0ba 723f 0931 0613 a206 ac3f
00000140: 6429 c76f 3cba c33f 422e 4c27 a63a c33f
00000150: 952e c641 7a6b 91bf 1b53 3bd9 8cc1 813f
00000160: b045 7c0d 5d41 d23f bddf 440a bfb0 a13f
00000170: 00d2 0c55 f983 a2bf 52eb 420b 40b5 993f
00000180: 0e7e 56f8 c62c b0bf f82c aaad af85 c13f
00000190: 2f56 bbe8 4e19 9f3f 144e 9f66 35cb bf3f
000001a0: 65aa a53b 0b66 9abf 22c9 8415 1088 a93f
000001b0: 74c5 c814 cd81 a13f 6213 b010 32d0 cc3f
000001c0: 0269 7176 cc71 9dbf c45c fe6a 6416 b6bf
000001d0: 2ae2 ade3 b83f c3bf fda4 e6dc 8f0b d0bf
000001e0: 1b2a 1134 9d5b cc3f e23f 0113 83c6 b13f
000001f0: 9565 662a c7f4 bf3f a41f 9e95 7521 b0bf
00000200: 506c 9870 2b65 a73f 16f5 7d62 8641 babf
00000210: e33d 25a7 eed4 95bf 874a 3252 cd56 c13f
00000220: 95b9 cc8e cc83 cd3f 9291 68cc 5f1e c43f
00000230: 2862 1d6b 98f9 a73f 0dae 3366 b5ce b8bf
00000240: ef14 1ec4 6ea4 9cbf dd53 32f7 eaa4 a73f
00000250: 91e0 babf 0462 a33f 121a b512 431a 85bf
00000260: aae9 d57f a270 b73f 4882 d409 25ff 75bf
00000270: 4808 bad5 3042 acbf d506 7f57 5baa b53f
00000280: 3835 5b4c ee8a b4bf 73dd 96de 1468 b63f
00000290: 379b 10e4 eb3f a8bf af8f 8a98 c217 a7bf
000002a0: 89f7 c347 a4ff b7bf 525c e595 39d0 b23f
000002b0: 55da 9d88 244c 91bf d29f 60d9 18ad b93f
000002c0: a0ea 5842 3497 c83f a2f5 ae9b 4545 b1bf
000002d0: 7998 09c3 dabd c6bf e96c 2376 9f36 abbf
000002e0: c7d1 9539 fea3 cb3f 199d 6db1 7f4e 923f
000002f0: 507f 826e 7443 c3bf 26f4 f6f5 680e 55bf
00000300: f0e3 3b0c 239f bd3f f2b0 28bb bb97 cc3f
00000310: efe9 29d6 8146 b43f 64e4 2e43 78ac bb3f
00000320: 8a34 3464 7841 bd3f f1d7 8529 b263 c53f
00000330: 3aab 0d27 8d48 a63f 4895 0eb4 097e b33f
00000340: 6385 9bd1 c811 af3f e872 41cc d41a a63f
00000350: 32ed 9778 97fd b63f 4c25 5066 1cac 9f3f
00000360: 6b84 5757 734b a83f 3c7a 0387 ba58 bb3f
00000370: b646 41f3 232a ab3f 653a ab70 32b6 c13f
00000380: 637d c458 0d5d 90bf 4234 3a8d 6217 83bf
00000390: 9b9d f9fd bdce be3f 411a 2862 a05f b13f
000003a0: 9423 6d16 afcc 9f3f e80f 52e9 5110 88bf
000003b0: 1d4c 04df 508a 8cbf 5f23 8584 5a04 c13f
000003c0: 7b9f b923 3f75 ac3f 54d7 3adb 3b70 babf
000003d0: 2fe5 6ce9 646d c8bf 9c4a 0ea7 8c39 8e3f
000003e0: 3a46 09f9 60f4 863f d5ae c8f0 30ad b0bf
000003f0: 81e8 ed6a 2f96 a53f 241a 822f 6d8b 8e3f
-0.0385431485068106 -0.14278918231254056 0.17208405762553414 0.08390871608818593 -0.13040745527942535 -0.1037725207348289 -0.007921629883362752 -0.1493342870656847
0.10008896507733828 0.00712638433563362 0.06750320310831903 0.03027226992561345 0.010061178816790754 0.2259565740410023 0.08294330678164227 0.03710801312049394
0.11486279372938099 -0.17849636864464957 -0.31699534297663795 0.18101800441181515 -0.15309060991801024 0.09182556005952561 0.047092047866517835 0.10827671577019181
-0.20138713702833377 0.14124525074822225 0.25295639587953234 0.21406084362884173 -0.053152548303430726 0.10604592218396398 -0.026646843108442186 0.03817521893328825
-0.06866950696200438 -0.11783789953905052 -0.3055841070865533 0.05502207888099665 -0.10222926029767507 -0.007588700452222522 0.004572750281885436 0.05473810655812101
0.15412097413929893 0.1502273265726775 -0.017011556877646845 0.00866994893969202 0.2852394706433996 0.03455159187654953 -0.036163131363000645 0.02510547703489447
-0.06318324625907953 0.1368922803852468 0.0303699807689865 0.1241944671194733 -0.025779891505786873 0.049866201998513895 0.03419342879022738 0.225103624485338
-0.02875442002218965 -0.08627917873524199 -0.15038214795255672 -0.2507056863056077 0.2215458397134434 0.06943530286775926 0.12482876572757669 -0.0630105486180797
0.045693738455348965 -0.10256233124342304 -0.0213200845258238 0.1354614878988125 0.23058468792573864 0.15717694741136917 0.04682613666108565 -0.09690412278330758
-0.027971010894835165 0.04618009822403455 0.03785719719366044 -0.010303997047810962 0.09156242009149787 -0.005370278054471607 -0.055192495431598376 0.08463068853509566
-0.08024491657416355 0.08752565798100935 -0.04736268195147491 -0.04510315048290125 -0.09374453308188725 0.07348976049012038 -0.016892023886123948 0.10029750163141607
0.19211438407531478 -0.06746325541367651 -0.17766890071215238 -0.05315111462706474 0.21594217120913425 0.01787757416186961 -0.15049605747207773 -0.0012851738937194128
0.11570948647194235 0.22338053358669857 0.07920085409742915 0.10810042991842433 0.11428024717698029 0.16710497882348777 0.04352227308012009 0.07614193578645712
0.06068255957303383 0.043173456128647036 0.08980700201202721 0.03092998861760536 0.047450642024849575 0.10682264133672786 0.05305588097020346 0.13837271214875382
-0.01597996572774941 -0.009321947035710324 0.1203421349579145 0.0678653945579777 0.031054244750780294 -0.011749877865675232 -0.01393569164841862 0.1329453608580264
0.05558202086541449 -0.1032750520924684 -0.19083844564173932 0.014758204315318317 0.011208303070051707 -0.06514268759263626 0.04216144733705197 0.014914372455916931

linear.2.weight f8 [128, 128]
00000000: 49a8 74e5 1622 ab3f da16 2bd8 6ef8 c03f
00000010: b469 152a 0594 853f 6a43 2227 ce42 c03f
00000020: 9224 6e08 4d73 abbf 083b 5203 0cb0 c23f
00000030: 15a5 3970 6edc b33f b395 cde6 ac40 963f
00000040: e1e0 0b83 41b7 ac3f 880b 79ce 318d 9ebf
00000050: 4c46 166b 19aa 873f 78e3 f65e e9c3 bf3f
00000060: f19e cc2a d05d b83f ca0d 31b2 08cf 8fbf
00000070: 825e 9048 8b06 b8bf da78 dd1a 8021 adbf
00000080: 43d2 7ba8 8536 bdbf 240e 838e 1e98 c13f
00000090: bc8b fabc 7c7f 9b3f 2e0d 8f4b 734d b0bf
000000a0: 415b 2edf e451 b6bf 7f65 8972 5ee5 9ebf
000000b0: fda4 cf45 0abf a2bf 35d8 1fe5 9282 98bf
000000c0: 9a5f 5666 defe bcbf 2d16 a89e fc8b ad3f
000000d0: fe57 fa33 20d3 afbf 8b47 cb6b 2967 a0bf
000000e0: b09b 4e01 6918 c33f 148d b42c bba2 b3bf
000000f0: b613 9c3d 519c b4bf 14c1 c805 9296 9ebf
00000100: 4c88 6cf3 e7f7 92bf e21b 4d12 66dc abbf
00000110: 411e 6ba7 4544 bcbf 2ad1 7445 b050 b83f
00000120: 1f02 0af5 29a8 81bf b6e4 39e1 80d3 be3f
00000130: 3711 86f3 2080 bbbf f468 da58 d99b b83f
00000140: 2f33 4ede a308 b4bf c589 4550 c522 b1bf
00000150: 5034 5419 a775 b2bf 1578 e645 aec2 b8bf
00000160: 5b5d 545a 21a7 aebf ca53 14a8 4905 b23f
00000170: 4f57 91b7 b9bf 8cbf 1cec 7348 ad60 be3f
00000180: 8199 0d93 de08 b13f 51fb 193b f8f2 c0bf
00000190: aa67 44ef b8d5 b03f 49b2 3326 a862 a83f
000001a0: 98fa 7319 9815 983f 6609 f4e7 3d98 c3bf
000001b0: 3398 b144 d64b c4bf 5b2f 6b7f 8e5f bc3f
000001c0: d605 6762 43bf a3bf c5c5 d611 c3bd babf
000001d0: e260 2f20 fba1 b03f a056 e08b e00b b43f
000001e0: 2629 c42f fa88 b7bf 1396 c382 6dca b13f
000001f0: 8b74 687b e72d a63f 50ca 69e7 912d b03f
00000200: cfb3 fb66 6f1f 7c3f 1478 aca0 4b6f c03f
00000210: 0899 c6c4 92a1 b8bf 87b3 8212 4916 b23f
00000220: 821c c9d8 ee47 b0bf a226 95bc 936f bebf
00000230: a4c9 5d3d 18e5 b83f 0d98 b419 fd5e a0bf
00000240: d972 0ac7 b8d7 bdbf 929b 8efa 5b03 aebf
00000250: ac89 b5ec 39d7 b8bf 0ee7 7fab 3847 9bbf
00000260: bbdc 8ef4 4b80 b73f 05ab 7a93 115d a13f
00000270: 0b4f 6d21 dce5 91bf 0bc0 8360 b97c b53f
00000280: da00 fa4b 32ed c1bf 732f b2e5 b3fd 9b3f
00000290: a1fd 29cd ab8c bd3f ff6d b095 839f 603f
000002a0: 168d 9834 9e9a ac3f 385b d0a6 58ea a33f
000002b0: 3b49 7d27 53e0 b7bf 15be 5ee0 aa39 b53f
000002c0: 64a0 458d 87f0 acbf 20af 6c55 59d9 b1bf
000002d0: baa4 26cf 916a b9bf 954e 48c2 e17a b7bf
000002e0: f84a ef86 29ea ba3f 48c9 699c cb77 94bf
000002f0: 6859 fc29 6596 9a3f 7b36 9fbb e4c2 a63f
00000300: c0e1 937d e0b6 ba3f 893f 5037 2bdf b9bf
00000310: 029e d26b 5f1d c1bf 6feb 7e7c af3e 72bf
00000320: a434 84b7 c403 bdbf af05 2b6b a0aa 9fbf
00000330: 37c9 5008 cf9f c13f 142c fea2 a71b b7bf
00000340: 732c 5a1f ed38 b83f d004 8772 6f43 b7bf
00000350: 9f0f 0d28 f805 a93f 943f a2bd e71b b4bf
00000360: dc49 df43 1081 b5bf 1cf8 0c8f 58b2 a53f
00000370: 5e0c 9c0b 6de0 c2bf ba31 29a4 383e b2bf
00000380: a7dd 7d13 c16f 9a3f 8154 37be 76e0 bb3f
00000390: 022f e557 a395 be3f e9f1 2b5e 20a0 a03f
000003a0: 8056 f906 3cc8 bc3f 8c4b fbd4 4954 a43f
000003b0: 63b7 85d0 d7f1 a73f 73aa d699 1935 bebf
000003c0: 58e6 db5c b3d0 be3f 52e7 1c62 bb7f b93f
000003d0: a576 89f3 002b c33f e6ad 2ddf 3030 c0bf
000003e0: b5a4 fbbd 58f7 b03f 8c6f ea97 b390 c03f
000003f0: 9b8c 8692 6f1a c0bf 7a13 6648 ba6f 90bf
00000400: a540 b8d7 c80b b43f 58fd c7be 19fa a0bf
00000410: 74b0 803a e8fa a73f 798c 94b8 8c0a b9bf
00000420: fccc 12bc cdb7 b83f fa7e 6771 feef b33f
00000430: 7f87 3397 8a4b a23f a71e 87a9 1518 8a3f
00000440: 13bf 3eaf ef40 ba3f 36d1 5023 008d c43f
00000450: 7863 ccc2 a3f5 b2bf 3e4e 8412 a6ff c03f
00000460: f3e6 1c11 0027 bb3f 9bea 52a8 207b 77bf
00000470: 44ef 1e06 5983 b5bf 9368 00d2 dc21 773f
00000480: ef52 650c 9b04 c1bf d3d7 a7cb cc1c b53f
00000490: 4b2a 3073 b1b6 b93f 0e47 cf99 ae04 a2bf
000004a0: 90f9 94e4 0163 b8bf a384 2cb6 01ea 61bf
000004b0: 1e0b 2e9f b7d6 bdbf 90bc 957e 17c7 c0bf
000004c0: 9463 d47e e3b3 bc3f cf01 603f 0624 afbf
000004d0: 1891 c9cc 63c8 ba3f c66f 253d 19f9 c1bf
000004e0: c95a bfca ec02 ae3f 021e ad07 104b b83f
000004f0: 7ebd bcc4 bb60 b83f 2ed8 a961 44ff c33f
00000500: afab bf50 720b bcbf 5b5c 4430 4361 b0bf
00000510: 98ad 5d6b 798a a63f 8dad c5aa 4883 803f
00000520: 8a18 f96d 04ac 80bf e8ad 9ca0 2c29 c33f
00000530: 73cf 0e79 08f2 c2bf 5217 45fa 1f85 c1bf
00000540: e015 c3d7 448e ae3f c14c 3cb2 585d b53f
00000550: c2d9 f779 3250 c3bf 0e8c 319e 9717 bebf
00000560: b292 898d d41a b7bf 9471 278b 3ce3 bcbf
00000570: 2b71 443c 171b c1bf cdc6 7171 a4ac abbf
00000580: d8bb ad08 2c76 c43f 35c9 11a5 7d72 aebf
00000590: 5735 514b 8297 b3bf 88ed 8d2b d408 9a3f
000005a0: 95e6 9d00 535f c0bf 5df7 576e 5211 79bf
000005b0: 8e72 7d7f 49c8 b63f dd7a 6040 6343 b7bf
000005c0: c7d2 dbbf 3ea0 ab3f 50d6 2c86 b0f7 b6bf
000005d0: a9df a546 fffc b6bf e668 a8b1 26c2 c33f
000005e0: 1dfa 2e43 9953 c13f f452 b0f1 c164 c03f
000005f0: f681 5cdf e3b5 9fbf ae7b d195 c15f c1bf
00000600: 9e5c 1ee1 c3f3 9d3f 5d70 767d e619 c3bf
00000610: 48fd cccf 69b3 a5bf de30 d9bf cfb7 c3bf
00000620: 3139 e149 c06b b6bf 341e fc3b e06b b2bf
00000630: 8ee1 c2fb 015f 6ebf 9313 f348 01f6 b1bf
00000640: 0c47 549e 8b5b b4bf 0e07 7ce7 c3c8 bdbf
00000650: b016 33c0 7de0 bf3f 9c9f a488 09ff a73f
00000660: d922 07ac f306 b6bf 5bd8 fa95 e883 b9bf
00000670: 8a5b 665c 9783 acbf 3722 2143 d378 c23f
00000680: 7bb5 267a 2b80 92bf f6ab 18b2 b845 a43f
00000690: 279d 5a43 0240 963f 211a 085e dff1 bd3f
000006a0: c859 d8ed b225 93bf f56e 7c1e 92a6 b03f
000006b0: 0123 3643 8113 b2bf 620e 1e13 a881 c0bf
000006c0: dc5e 9a51 3369 aabf 56c3 8e05 b989 a23f
000006d0: 9411 a080 fac6 71bf 9345 fa54 ad68 b0bf
000006e0: e1ce 6b07 08fa a3bf 0b40 8ebd 3a39 c0bf
000006f0: 9daa 5145 9d46 973f 69c8 f1ae 45ea bcbf
00000700: 78f5 c595 78d0 b83f 3d64 3d8e 2d1c a6bf
00000710: 62fc 0737 fea8 bb3f 4c0e a620 0c34 bebf
00000720: e124 53e8 a702 af3f 8c90 4a9f 0bf8 b73f
00000730: 6570 0eaa a22c b0bf 2d63 7e67 7712 b2bf
00000740: 8aef 520b c973 c33f 58bc ef68 0fd8 74bf
00000750: 41e5 5d8c 262d 853f d491 8392 13fe 9f3f
00000760: f34a 8d32 0cca bcbf e6d2 b942 9e60 b4bf
00000770: bf37 80ac 4d98 c03f 93dd 177e e094 b1bf
00000780: 3040 7813 8240 a2bf fb81 aa18 243a abbf
00000790: e523 5507 ca9f 7fbf 78e9 fb98 2547 943f
000007a0: aaba d555 f43e aabf 8908 e93e 3d91 9d3f
000007b0: a917 a30b b907 bc3f d505 6e2f 2e15 b03f
000007c0: a2bb 2ea6 c2f0 bbbf 2661 a095 759c a1bf
000007d0: 760e 1215 895c bfbf f447 72a4 cc2a c43f
000007e0: d289 e3cf db3f b63f 596b dae1 adeb ab3f
000007f0: ac51 c2e0 9da0 c03f 1e26 af54 24c7 c13f
0.052994456777313355 0.13258157305806756 0.010536232325354479 0.1270387354930123 -0.05361405113132735 0.14599752580803504 0.07758226623413507 0.021731092059231915
0.056085631605982796 -0.029835489489652228 0.011554907398735235 0.1240831238600445 0.09518147511391441 -0.015531604707695563 -0.09384985467510812 -0.05689621284430908
-0.11411319125529311 0.1374548145159774 0.026853512796730192 -0.06368179888436451 -0.08718710373646578 -0.03017184804989403 -0.03661377050577561 -0.023935599550860515
-0.11326398848029698 0.057708639495143245 -0.06215763697143471 -0.03203706208081688 0.14918243945905152 -0.07670183030545658 -0.08051021341459727 -0.02987125549606258
-0.01852381156198417 -0.054415883764299414 -0.11041674935688041 0.09498120971403937 -0.008621528425693246 0.12041478632626731 -0.10742383904841267 0.09612806720034311
-0.07825683762912371 -0.06693680963284183 -0.07210773819333949 -0.09672059256124073 -0.05986885287910112 0.07039318421841681 -0.014037562288801956 0.1186626722227832
0.06654158678211354 -0.132414845331335 0.06576114503368893 0.047627691901514675 0.023519875100641657 -0.15308355165332016 -0.15856436113534897 0.11083307848747152
-0.03856859756661961 -0.10445803819199913 0.06497163329857217 0.07830623068761122 -0.09193385759514125 0.06949505274277383 0.04331897145696314 0.06319534206139932
0.0068659164096347 0.12839646668811666 -0.09621541313262949 0.07065254880826731 -0.06359761040322279 -0.11889003137653245 0.09724570749475575 -0.03197470606600925
-0.11657290324587723 -0.05861937936361196 -0.09703409222632925 -0.02663887545347792 0.09180140228896765 0.03391318249972212 -0.017478408374997517 0.08393438917460132
-0.1400511618594525 0.02733498658612583 0.1154277206314789 0.0020291872038009635 0.05586714164771871 0.038897295344375526 -0.09326667512985846 0.0829111860064063
-0.056522594447245195 -0.06972273192939982 -0.09928237254520669 -0.09171877854560713 0.10513553184800262 -0.019988233014779838 0.025964337051016 0.04445566931063368
0.10435298028813289 -0.10106153583933354 -0.13370888485700055 -0.004454312795071454 -0.11333875160581158 -0.0309243264589491 0.13768947511705118 -0.09026572923009751
0.09461862578807416 -0.09087273164824983 0.048873667611160736 -0.07855080013018628 -0.08400060326611175 0.04237629648422134 -0.14747393671868542 -0.07126192100367393
0.02581693345515892 0.10889379638622822 0.11947079559211818 0.03247166776234051 0.11243033571494188 0.03970556950448331 0.0467669908565387 -0.11799774175475779
0.1203720189768317 0.09960528512320124 0.14974986926511238 -0.12647066972145565 0.06627421034103771 0.12941594045412008 -0.12580675749368173 -0.01605120722662743
0.07830481783480765 -0.03315811590072809 0.046836144582216216 -0.09781722551683626 0.09655462113987662 0.07788076656970225 0.03573258491247965 0.012741250263288718
0.10255334881253146 0.16055299496077574 -0.07406066423244606 0.13280177978650615 0.10606384675784479 -0.005732657974642531 -0.08403545760569126 0.005647528247232486
-0.13295305352462303 0.08247070285855722 0.10044392645083026 -0.03519197108802362 -0.09526073294271087 -0.002186778395654247 -0.11655757557131749 -0.1310757988062261
0.11211988302637926 -0.06082171939488356 0.10462020635310798 -0.1404143856587991 0.058616065740059016 0.0948953646412676 0.09522603562503737 0.15622763413165458
-0.10954966040996682 -0.0639841072883071 0.044025225025360715 0.008062904082825973 -0.008140596967802578 0.14969404070266923 -0.14801126395252204 -0.13687514991959887
0.05967917569936865 0.08345560409024967 -0.15088492351033095 -0.1175474892821031 -0.09025314765456008 -0.1128423537952073 -0.1336392444872073 -0.05405153164691754
0.1598563234688004 -0.059467245483477184 -0.07653059328841515 0.025424304159498173 -0.12790906458012744 -0.006120035167894358 0.08899363863515417 -0.09087200471592945
0.05395694820427859 -0.08971694255600338 -0.089797930477174 0.15436252283763635 0.1353637292904332 0.1280748777504851 -0.03096729327001132 -0.1357347470793377
0.02925020276560685 -0.14922791601282173 -0.042384440056134454 -0.1540469824561858 -0.08758165172296085 -0.07195855583642513 -0.0037074125994786605 -0.07015998869890287
-0.07952187171420294 -0.11634468461491229 0.12451921408054534 0.046867654733716096 -0.0860435767164164 -0.09966901456468362 -0.055691461591030736 0.14431229379467123
-0.018067054110067354 0.03959443258312227 0.02172854934783888 0.1169719318932967 -0.018698497549928722 0.06504166836060306 -0.07061012164025372 -0.12895680364100587
-0.05158386584406369 0.03620699112742069 -0.004340151333967052 -0.06409724545144106 -0.03901696291532431 -0.1267465043606538 0.02273030982579859 -0.11294971009354672
0.09693101555418149 -0.04318373071027579 0.10804737895522146 -0.11798167988859481 0.06056713782306545 0.09362862242648101 -0.06318108226554527 -0.07059427525235824
0.15197098782470803 -0.0050888635587248085 0.010340024145750195 0.0312426622557654 -0.11245800241639951 -0.07959927681970277 0.12964793131726357 -0.06867793158004636
-0.03564840781848522 -0.05317795563792412 -0.0077207462066519504 0.01980265375366616 -0.05126155422009522 0.028874356236209073 0.10949284109218972 0.06282318742707756
-0.10914246136847663 -0.03439681483740946 -0.12250572933595003 0.15755613355264553 0.08691190553103148 0.05453246480938984 0.1299016330200521 0.13888982901544095

linear.2.bias f8 [128]
00000000: ccc1 c595 674f c4bf 58bb c282 c579 a3bf
00000010: fa9b 5c70 d91c b7bf d3d5 4795 845d aa3f
00000020: d4ea 4c3a 5f58 9bbf 165b 161e 0bce a93f
00000030: 1a1d 5a68 7103 a6bf 73c6 68a2 2642 7f3f
00000040: f3f7 a49e 747d c93f 90ca 53e7 a06e be3f
00000050: 8c54 e1ff f9b7 b2bf 651f a71e a5af ba3f
00000060: 12b2 3409 2262 213f fe8d 83e7 9f44 8e3f
00000070: 9cb4 64e1 b38b b1bf bd11 f532 0f6c a73f
00000080: c61f 1516 c68d a23f d40e 9b34 c153 ba3f
00000090: abbf 4f12 6e29 b13f 407e 480b 256c 883f
000000a0: 530b a9f9 fc0f 9cbf 31da b1ba d31e babf
000000b0: d279 5e0d 96c7 b73f f8b6 f978 f573 c73f
000000c0: 70f9 c1cc d4dc bbbf f1a5 b115 79d4 a7bf
000000d0: 2390 515a 6999 ad3f e5da cebb 01a9 903f
000000e0: a01a 5742 e9ac ae3f 38a8 9c5d 8b49 a4bf
000000f0: 6c13 8d08 608f a2bf 6571 3732 dbf2 bbbf
00000100: 592b dad0 1c4b 723f 4a61 ea9b 45ae b63f
00000110: a3d2 d774 ef91 b8bf 0886 e245 7be3 adbf
00000120: a680 728c 274c c63f f14f 5083 e86e 9c3f
00000130: ef70 b293 d217 b53f 393e 79d7 4b6a b6bf
00000140: 01e9 b990 5429 b3bf 13b1 b557 0cd6 c93f
00000150: 008f 77d5 d176 b33f 0017 fc69 7b31 b1bf
00000160: cf2d b66f 3d82 b73f a18f 950c 464b b1bf
00000170: 6c2d 8c03 4840 a0bf 6c08 2a96 6f3a a63f
00000180: 995e 468e 9f9f ad3f b33c 79e8 9051 b9bf
00000190: ff9c 75d4 50c8 b53f 88ca fc57 fc95 bebf
000001a0: 5b28 7444 a419 ae3f fade b3e8 9225 26bf
000001b0: d4d4 d679 5519 a8bf 3037 f4f8 7b0e aa3f
000001c0: e715 9c1c 1f06 ba3f 58f0 f2a8 9219 b13f
000001d0: 69f4 2c46 2441 b8bf 7f93 57fc 7036 503f
000001e0: c911 002d 7e6a b13f 0515 6d7f c205 b53f
000001f0: 5f98 c961 ef52 b1bf d626 18e4 86c7 c43f
00000200: 262e 2bd0 f807 b53f 9a66 f745 c06b b43f
00000210: e4a8 98a5 ed2c a1bf ab11 fd2c 6920 b53f
00000220: 71b9 9d18 e548 a2bf b11a bb12 9926 adbf
00000230: 6c4e b59b b1b4 883f d0ea bd0c 0e63 a2bf
00000240: e606 0a9f ecde b63f 0c8a 3ef3 f8d9 b1bf
00000250: 7c9a 3ae5 bb0f 9dbf a6e3 2ecc df0a a6bf
00000260: 8e5d c0bd 0ecb b2bf 3356 0193 92a4 bb3f
00000270: 5613 88b4 5378 97bf 04c2 6aee 1032 a53f
00000280: bea0 db0d d9da c73f 3ae6 bfbf 10b9 c1bf
00000290: e6f8 eac1 51c6 94bf 115d b45f aeb7 c13f
000002a0: 5d91 3051 31b1 a03f a4a7 12bc 29b1 8fbf
000002b0: 407e 0cb0 c52c c0bf 5c0f 124e 2616 bbbf
000002c0: 8971 a589 96e6 e63f 0dee 3b90 99ec bb3f
000002d0: 18b7 7552 860e cd3f ed53 e83f d911 82bf
000002e0: 06c5 684b aaf1 a83f aa01 d061 e461 75bf
000002f0: 0e8d 495a ace1 983f 4fbe a1b7 582f ac3f
00000300: aef9 de95 d37d bc3f 32ab a90c 56e0 b33f
00000310: 0e76 08c2 f921 bc3f 822d 167f 6fb0 b4bf
00000320: 4a34 d00e 996e a13f 60a1 e414 73b3 b7bf
00000330: b007 f036 3276 4bbf 5d3b 6eb2 6d38 a0bf
00000340: 39b7 5057 cc1d af3f bbcc 5553 0bf1 b3bf
00000350: c4cb ad15 8aec b33f 1c07 0a0c bbc2 b83f
00000360: 667a 469c 85ce a4bf 021c 9296 a78e b2bf
00000370: 20a8 6243 8a01 bcbf 7f73 6f3b f22d ba3f
00000380: 87ea 4d17 d370 c4bf 23d6 5bcf 97dc 9b3f
00000390: 96af 48f9 8e67 b4bf d924 7a43 482c b0bf
000003a0: d6c6 3b07 742e a83f c5a3 4dae ab6a 9abf
000003b0: 029f 453f 050b 9e3f 390c bd43 7675 93bf
000003c0: 7353 0f2a 975f 973f 99b9 21bb 1ef2 b83f
000003d0: 80ab 7ce3 638d aebf b8e9 800b 5bec 913f
000003e0: d665 e721 a2e9 93bf cc5a 8409 c559 b5bf
000003f0: 9d7f 9174 f337 a2bf ed8a 7b27 cfda adbf
-0.15867323697194846 -0.03803841801833724 -0.090283956462926 0.05149473497651127 -0.026704299863221717 0.05040011160160966 -0.042995017994195986 0.007631445804280201
0.19914109941777233 0.11887555740012545 -0.07311975953173738 0.1042426299892419 0.00013262429693251858 0.01477932858728703 -0.06853794338958824 0.04574630257642152
0.03623789805948223 0.10284049543684698 0.0670384211259704 0.01192501965220949 -0.027404740083749 -0.10203288372017806 0.09288919283287747 0.18322628409389785
-0.10883836745231235 -0.04654291524714072 0.057811062121601496 0.016269709670917804 0.05991295752351289 -0.03962359922145747 -0.03625011543639442 -0.10917444206228806
0.004466164171058684 0.08859667831928167 -0.09597679712880818 -0.05837617137991563 0.1741990505006516 0.0277668314120802 0.08239475351223623 -0.08755945215784146
-0.07484940083842063 0.20184473307325188 0.07603179418179806 -0.06716128671186183 0.09183105447134852 -0.06755483443481448 -0.031740427430203194 0.04341458042201016
0.05785845386270445 -0.09890084910988399 0.08508782565114713 -0.1194761004269741 0.058789380413217095 -0.00016896646807373195 -0.04706828224463214 0.050891756191147386
0.10165590713958005 0.06679646134119943 -0.09474398339530556 0.0009895423294150327 0.06803120230330885 0.08211913691510027 -0.06767173898114852 0.16233907830638
0.0821528919433879 0.07976915081180849 -0.03354590078773059 0.08252580021241467 -0.03571239400376925 -0.05693510392807378 0.01206339603837777 -0.0359119787744554
0.08933905489723379 -0.06973224581319232 -0.028380332819006857 -0.04305171363325337 -0.07341091282466136 0.10797992791170756 -0.022919948476573047 0.04139759931911516
0.18636620690018008 -0.13846024859212652 -0.020287778340155514 0.1384180037791585 0.032601872597555405 -0.015474630405453223 -0.126366339646653 -0.10580672651309214
0.7156479538348758 0.10907897731151923 0.22700575853689808 -0.00882310606270128 0.048718759255630004 -0.005220310323239033 0.02429837513990401 0.05504872552489514
0.11129496010742088 0.07764184769773122 0.10989342677245181 -0.08081719258023237 0.034046919878257656 -0.09258193264088765 -0.0008380646885373013 -0.0316805153189452
0.060774217280011596 -0.07789679321813285 0.07782805470723902 0.09672135394978593 -0.040638137175155006 -0.07248923708003477 -0.10939849991942241 0.10226358367022036
-0.15969313276203342 0.027208683043644776 -0.0797051771739333 -0.06317569396391622 0.04722941005992502 -0.025797541154506626 0.029338914858640493 -0.01900276935999676
0.022825586263781127 0.09744445866247133 -0.059672471541794 0.017503187729951825 -0.019445927924470606 -0.08340102655743492 -0.035583122233901344 -0.05831000668492501

linear.4.weight f8 [128, 128]
00000000: af09 b699 b43e 9ebf 7d12 79c5 8eb4 babf
00000010: 1def 6641 9a7c aabf 5179 bc02 ae0d a03f
00000020: 1d22 8e8c 0aa1 b83f 0a2a 84aa edb3 c13f
00000030: 76a3 bbd9 e1f5 ba3f 816b 0506 bdb7 bc3f
00000040: d041 927f 9852 c3bf e971 a3b4 7192 b3bf
00000050: 9dfb 0c66 c644 81bf 666d 0dc1 49ca b93f
00000060: a0f9 4420 b0af b9bf 1335 19c3 6229 a73f
00000070: 705c cf16 c7b8 c3bf ee93 bb5d 88a2 c0bf
00000080: c5e9 ee3c a9e9 a83f 2c29 8404 2244 643f
00000090: 3325 77d3 ca8d b03f 312b 5702 d0c7 9d3f
000000a0: 65aa 0bb9 c86c 85bf 7cab 1ffe effb bc3f
000000b0: 6b64 56f7 6e42 b13f 11cd 10f2 e345 603f
000000c0: 12f8 55bf 5859 b63f a5d3 6f27 e950 b2bf
000000d0: 9c8c bc29 0105 bf3f 41f9 5560 4ea6 c23f
000000e0: 72b7 0e0b c3e3 be3f f4fb 54f1 2908 bb3f
000000f0: 0e06 f427 4e5e b8bf 2302 7582 aadb b5bf
00000100: 1884 0fdf 6aba b33f 5005 0ab4 e810 c2bf
00000110: e00e d00c 9956 a13f 1949 bc99 0b63 afbf
00000120: ffcc c9e5 f138 9cbf a555 1ed1 a7ec c03f
00000130: 4aa0 7548 a30e a7bf 1027 ecdb e5aa c0bf
00000140: f4a2 bba1 5b08 b23f 8a83 63f3 8079 15bf
00000150: 5a82 a53d e880 923f 9338 0097 da2e a63f
00000160: f775 c46a 8362 a6bf 6862 5d65 e5e5 c3bf
00000170: bc40 8685 162f b9bf 320a 1367 0705 a6bf
00000180: 4018 597b f1d3 81bf a4fb 6e12 cd3a b9bf
00000190: 5045 ce2e da61 babf c9c1 9523 3175 bfbf
000001a0: 6a49 1318 4e60 993f f6e9 6087 338d 79bf
000001b0: a7e1 59b8 e2db bcbf dd2c dccd 3eba b0bf
000001c0: 553a bb3b c1af adbf 99e1 12e8 2c61 b73f
000001d0: d22e 59a8 f4bd adbf 4358 a760 1f81 c0bf
000001e0: 77c3 e45f dc2c b53f f9fa 1250 3289 c13f
000001f0: b78b 6c43 40de 9cbf 3881 e216 8617 b7bf
00000200: 1f5a 02da 501f bf3f e479 49f2 57a8 b63f
00000210: 28d5 32a3 de04 c23f 28ab 6f34 0749 9cbf
00000220: 0165 1438 fa74 b03f 51e8 7201 98ac c33f
00000230: 5aa4 bf18 430e a0bf 6c19 6e3d 07f9 b73f
00000240: 51a7 e456 9052 bfbf 8fef 9a71 2667 ba3f
00000250: 5255 dd4d 788e c1bf df9b 5ea8 4ddc 9a3f
00000260: 190a 31db cd02 ac3f d253 75d9 0e02 ba3f
00000270: d17c 7003 2af1 c13f 23ac 4ce7 dc2e bf3f
00000280: c3bc 91c0 fd5e 803f 30aa 0784 fb81 afbf
00000290: b3a4 20d8 734f a2bf ce68 90a8 0ae7 b1bf
000002a0: 1abf 8fc6 39c9 b9bf 8f64 d489 b384 c2bf
000002b0: 7b08 c99e a457 a43f f323 97cb f95a b4bf
000002c0: 2af2 ac4d 68e7 abbf 820a 69e5 8de1 b03f
000002d0: bf04 9c19 b811 70bf 4a21 6d8e 4aed bbbf
000002e0: b0de 5c89 7cbd aabf 852d 5076 957c afbf
000002f0: 3101 e58f 893f c1bf 44f7 d41a 4a01 b93f
00000300: f727 cf3b cf31 b13f 633f d483 fc3b a43f
00000310: b7f3 a7a0 b402 7f3f 343c 2268 f1e4 bdbf
00000320: 45ab c042 5ede c1bf 4f4e f549 91a0 a83f
00000330: d3ff 470a ee09 bcbf 36d2 2aa8 7a28 933f
00000340: 4829 9fff 5101 a43f 236a 99ef 7d0f 983f
00000350: cfad 1d99 4f4d a1bf 615c b85c afa4 b9bf
00000360: 940d 2239 a1d7 9b3f 44e0 c370 9123 bbbf
00000370: 636f f32f ce2a a6bf 3b06 4d85 2dc1 b1bf
00000380: be6d 10f9 c5cd a63f bbb2 257d 6e5c b3bf
00000390: 5bfe 41d3 0907 a03f 1385 8c74 0f7f b2bf
000003a0: d5bf 061b 8f29 ba3f eab9 f76e a417 be3f
000003b0: 317f c460 b622 a03f 6667 8b7b db8c ac3f
000003c0: 3542 c841 f80d aebf 1bcb c407 65cf c23f
000003d0: 8228 d4f4 cc79 97bf 5cd6 a256 80c6 b03f
000003e0: bfd7 5ede 5dfa a53f d534 cb40 d0f7 c23f
000003f0: 388d cfd3 6fe6 7e3f 101b 2f55 a40f bbbf
00000400: 0e77 21b1 e5d7 a1bf 818a ac6c d2a2 b03f
00000410: bf43 854f 3555 c03f 6ee8 21ae 402a b03f
00000420: b4a5 3d3e 7d47 68bf bd74 c38a a4fb b43f
00000430: b7b5 54d1 f680 a53f 515c 6b90 3a7f b53f
00000440: 1e68 040d cc3f b03f 993b a089 d6cc bcbf
00000450: 95ae 90c7 60e1 bdbf 50b3 98fc 8d7f c03f
00000460: cdb8 2aaf da81 bb3f 3b6f 7c62 9379 b3bf
00000470: aeef 9139 16b8 ae3f ecf5 7f04 4534 bcbf
00000480: 4552 44d4 8499 c3bf 76ec 93f5 796c abbf
00000490: 195d 2809 384c c1bf be2a 7949 4764 c1bf
000004a0: a742 7ba9 a1c0 b0bf 0474 2caf 52a2 a63f
000004b0: d997 2587 ca80 adbf ccaf 30e7 b4fd c0bf
000004c0: 7047 1016 92a0 42bf 1405 e974 e4b4 b2bf
000004d0: bfc8 ee19 3564 7b3f 5fe4 b843 3e07 a1bf
000004e0: 0225 b8d1 0117 8abf 43de a51e 13fd a7bf
000004f0: a030 b7f9 49ca b33f a4b0 b3c7 9444 a63f
00000500: 0cbe a5fe 035e 893f f7f2 df4e 0347 bd3f
00000510: da08 bb80 559d b83f ced4 0c09 945c bd3f
00000520: f490 a994 7ae6 87bf a833 b1e4 5550 843f
00000530: 92b5 31a2 1a39 60bf 4484 7c3f ffa9 c1bf
00000540: 3467 fa90 d871 9d3f eb11 6a9a daf0 bbbf
00000550: a36e 65aa d347 c03f b9c7 8c49 84a1 bfbf
00000560: 1c27 4487 8d79 b93f 9246 8d79 c731 b3bf
00000570: 651a 231c d2d9 a13f 3ba2 f07e 1e58 c2bf
00000580: aeb2 2016 fee6 aa3f 60bf 4633 8e6e 313f
00000590: 694a 4e22 1d34 b73f 13a1 7ac2 3c0f b0bf
000005a0: e492 f417 9729 bb3f 6ccb f5ea 82cb 873f
000005b0: 2d76 c5c0 f5cf b83f 5cd6 f2e0 2123 a33f
000005c0: 5f24 b438 b029 8f3f 2e53 4d5e 51c1 bbbf
000005d0: 6fb5 92a4 7d02 bf3f eaa1 e1f8 9371 be3f
000005e0: 82ba 8fb3 c8d8 bfbf 15c5 214f d3c6 78bf
000005f0: 005c 36b8 3dde b1bf 3e8b c6d6 b8f9 c13f
00000600: 1df3 1b95 b37c 823f b115 2b84 8c99 bfbf
00000610: a23d e743 8754 b63f e381 7c71 05c5 c33f
00000620: 7f18 6d91 c9c5 bbbf 179a 2213 884c bebf
00000630: f152 b104 653c b7bf c1b9 8e08 e67c c5bf
00000640: 84c6 5a4f 66bb b33f 7f08 cf3a c719 b8bf
00000650: 4d13 cefa f39b 8abf c8c7 6e67 7ff7 a9bf
00000660: 3bb3 d940 1c2b b8bf 0d91 1c40 4ca4 a5bf
00000670: afa9 8682 ea22 a23f ca02 68b3 2260 9abf
00000680: ab80 eca0 e56f c4bf acb6 8d4d bcca b0bf
00000690: 0173 b75c ffc9 a63f 10a0 10da 9e17 ba3f
000006a0: e3cb 8412 c4b3 97bf 9c41 e6d5 1750 b2bf
000006b0: 4d65 4ed1 94a5 bcbf 7ce8 53e1 becf b03f
000006c0: 6e4b 3afa d2df 9e3f 55ad d7e0 884f 92bf
000006d0: 1f62 e8db bea0 a13f 767f 705f 0c7e aabf
000006e0: cb24 7e02 256d b4bf e537 ec4c a321 a93f
000006f0: 879a ed2a 6ce3 c03f e042 199a 1df9 a73f
00000700: e00f d9f4 35d9 b6bf 1260 f08e db80 8a3f
00000710: 0714 96e2 44b5 b2bf 7478 5ffd 8b21 bb3f
00000720: a2db db54 ff0d bbbf 9c43 60e0 48e8 a73f
00000730: 1297 5a94 f532 a03f 327e 0c22 ab9b bebf
00000740: d3c3 7830 b31f 883f 8475 cf55 cbfc b03f
00000750: e408 cd44 24b3 bb3f 8a10 69c8 ed00 c13f
00000760: 4160 6b0b 2bb2 913f 898b 2a1a bf39 bb3f
00000770: 1c10 f746 a268 b93f 7ac2 5c35 d9b8 c2bf
00000780: 4aa8 1a86 acb2 7c3f 6399 e40d 68a6 a93f
00000790: 7de4 5b0f c08b ba3f eb80 1d2e caf6 c1bf
000007a0: 00dd 29b3 2b70 adbf 92db 03b3 cd63 babf
000007b0: 4ec7 dab6 4fc7 b7bf bc68 2e2f 2838 b8bf
000007c0: 080b 978e 8354 b9bf 29d7 92d1 5c74 c03f
000007d0: e7ba bc77 e67a bd3f 43a6 c831 5eed afbf
000007e0: cd06 5890 454a b33f 25b0 4187 b967 b63f
000007f0: e586 3eed cab2 b53f 5353 6dd2 9896 b73f
-0.029536077386646372 -0.10431759186855945 -0.051731892093327604 0.031354368051540356 0.09620729381106981 0.13830347848882268 0.10531436506029287 0.11217862507821331
-0.15095812062328529 -0.0764533105861528 -0.008431959142056128 0.10074292147821992 -0.10033703601673105 0.04523762351582596 -0.15407646764535654 -0.12996010376733075
0.04865769261182921 0.0024738945395529535 0.06466357863168497 0.02908253683362289 -0.010461395403997995 0.11321926073257588 0.06741994417679258 0.001986451345624148
0.08730082198414404 -0.07154710018933359 0.12117011326749821 0.1457002611532037 0.12066287059744044 0.10559332029241358 -0.0951889846365008 -0.08538308796870146
0.07706325479331644 -0.14114102164243514 0.03386381417661055 -0.061302530781306604 -0.02756097760216125 0.13222215376724225 -0.045033552737380037 -0.1302153896179381
0.07044003199156262 -8.191918900336665e-05 0.01806986690769672 0.04332621663353211 -0.04372034719765943 -0.15545337151958738 -0.09837475547670044 -0.04300711758834942
-0.00870503099134734 -0.09855348300969397 -0.1030556072494353 -0.1228819572331822 0.024781437129442287 -0.006238175663435977 -0.11273018837699188 -0.06534187818413124
-0.057981527844834936 0.09132652917731433 -0.0580898719313986 -0.12894050807398302 0.08271577206757096 0.1369994059550306 -0.028191570391878886 -0.09020269449911644
0.12157159159173901 0.08850621857843738 0.14077361077003414 -0.027622330260707845 0.06428493374950862 0.1537046439241885 -0.03135881116015389 0.09364362001187992
-0.12235357400336723 0.10313644670071496 -0.1371603374670181 0.026231015588248027 0.054708893782408015 0.1015939026741102 0.14017224471988368 0.12180882117233742
0.007993681372879263 -0.06153856264775859 -0.03576242459559733 -0.06993166556677297 -0.10072671029751881 -0.14467472295726622 0.03973116339013046 -0.07951317997425615
-0.054499873620873565 0.0659416852077275 -0.003923148289460331 -0.10908952691273047 -0.05222691704551374 -0.06149737424137939 -0.13475150610066458 0.09767592578006395
0.06716628275094637 0.039520159809511644 0.007570939613739939 -0.11677464287116451 -0.13959863910107564 0.048100033071616914 -0.10952651740080847 0.018709103120914082
0.03907257314092988 0.023496597050647005 -0.03379296058741554 -0.10016914380718013 0.02718974982464102 -0.10601147654586024 -0.04329532943094596 -0.06935390953460623
0.04453867593130266 -0.07562914424279203 0.03130369857626355 -0.07225128741676583 0.10219664010833125 0.11754825314685716 0.031514834701964374 0.055762156325456044
-0.058700330762921395 0.14695418242771371 -0.02292556995693263 0.0655288898004413 0.042925771136125494 0.1481876675010542 0.0075439804322486245 -0.10570742683112777
-0.03485029017677564 0.0649844661061625 0.12760034926261984 0.0631447243812617 -0.002963776221737569 0.08196476352482569 0.0419995432406312 0.08397260690559107
0.06347346608927792 -0.112500580406261 -0.1167202460498465 0.12889265855610654 0.1074501683858415 -0.07607384828992007 0.059998220946879996 -0.1101725707994416
-0.15312252392381445 -0.05356198427940566 -0.1351385159220875 -0.1358727558857335 -0.06543932330829226 0.04420717609739458 -0.05762322330228615 -0.1327425125940621
-0.0005684579192595084 -0.07307269911054376 0.0066873621243976325 -0.03325838638961253 -0.012739195072770663 -0.0468526816284194 0.07730543467113415 0.043491982820200975
0.012386351784441828 0.11436482120184253 0.09615072625004775 0.11469388218832252 -0.011670072233024055 0.009918852845794593 -0.0019803543269094137 -0.13800039863511604
0.02875460038067175 -0.10914388913995025 0.1271919805538931 -0.12355829997684865 0.09951099922559731 -0.07497832028937015 0.03486496537657472 -0.1433141822647189
0.05254358310808037 0.00026598903357476743 0.09063894355339532 -0.0627325033952995 0.10610336623046696 0.011618635936178477 0.09692321735698135 0.03737741347269427
0.01521623299642466 -0.10841854622169642 0.12113175647637829 0.11892056299405565 -0.12440161117386064 -0.00604898970242231 -0.0697973799454843 0.1404334114750671
0.009026911724043846 -0.12343672014966135 0.08722730071826004 0.1544501117832758 -0.10848674583857763 -0.11835527865569194 -0.09076529850547012 -0.16787410180900333
0.07707824170463523 -0.09414334474334572 -0.012992769328556664 -0.05071638238531723 -0.09440781195889951 -0.04226911814319765 0.03542263835273062 -0.025757353019801234
-0.15966482503518384 -0.06559349912069007 0.044509868686622774 0.1019229204545129 -0.02314669001607318 -0.0715346238341738 -0.11190157041564426 0.06566994668165366
0.03015069629925498 -0.017881525729462073 0.034429516166884826 -0.051742922449419845 -0.07979041396005752 0.04908476175306457 0.13194038482761902 0.04682247644507753
-0.0892518732808294 0.012941088962222156 -0.07307844669237805 0.10598063407766906 -0.10568233319996392 0.04669406641926985 0.03163878856621073 -0.11956281262654825
0.011779212872257283 0.06635733456592702 0.10820223502836118 0.1328408459249924 0.01728122002791133 0.10634989155600584 0.09925283653780109 -0.1462661276396096
0.007006334229723585 0.05009770555106987 0.1036949193475198 -0.14034392596932518 -0.057496419544742494 -0.10308538074956022 -0.09288500036452982 -0.09460688735854011
-0.09894582968903987 0.12855110390744898 0.11515655921241895 -0.06235784871780627 0.07535204671878688 0.08752021362460079 0.08475940982910009 0.09214167725924698
