best_models/pinn_dp11/pinn_model.pt (torch, 276772 bytes, 8 tensors)

linear.0.weight f8 [128, 3]
-0.023038646156273195 -0.0913964745907599 0.20430331902573853 -0.986006662239081 -0.31376245902739863 0.1771738785471464 -0.15317987115492518 -0.26765780713406845
-0.2543755020550853 -1.1564787289173368 -0.28823095386114067 -0.2937616310376184 0.742719551157993 0.46680171725240255 -0.15505679340900613 -1.5069313047630208
-0.6867666582111066 -0.4059931960118265 -1.1267781719678716 -0.09967455855393553 -0.27946273885969164 -1.3703062360109868 -0.4187726552642736 -0.3445446240995783
-0.028559460863993445 -0.024931608002666764 -0.0092242769598976 0.21653442351298316 0.11716894920759259 -0.22278589822627007 0.5811055694144168 0.29768620663156675
0.34036799208520363 -0.0862489320708247 0.08450343166803806 0.007889769377136714 -0.03601705746540177 0.05746795449587425 -0.019156408932631923 -1.5759601105554226
-0.4155196941010411 -0.2667699269276124 0.5723285819340841 0.15821809172579823 0.42249434888203136 -0.4211819950765146 -0.20439786698997198 -0.11597238184558246
-0.537437064646879 -0.05671114988456454 -0.15653145951780273 -0.3681583383225913 -0.1084605356645113 -0.35652267480625793 -1.0364034405513844 -0.15449574406054958
0.23996046635840534 -0.4453231070508761 0.16506202482023635 0.033412639973521605 1.1045488798366017 0.3559496913857393 0.4276466239815576 -0.008229745325016828
-0.21553530386477995 0.07297313504265118 0.9957826348156454 0.43244962964192746 -0.27930576948195057 -0.5448605371483137 -0.3261767533697947 0.17883838818525064
0.7536278718337063 0.24541062493293378 -0.1832465534206337 -0.6850302562327164 -0.3586328854180284 -0.03544879152736998 0.40247032069496336 -0.0723864580659219
-0.11360546046826386 0.48545846043338725 0.2543861731880916 -0.12606847847634242 1.0603719319793152 0.4215472199600038 0.1027778856881386 1.4050936407501085
0.6166996509310236 -0.057323036454225214 -0.14657359027242453 0.1325396287853552 -0.2783127547317411 0.4193758970481015 -0.05090293096601879 0.1928776070474489
-0.05224300785648592 -0.13162826016702261 -0.005456370469438369 0.8560278776239802 0.2311759533518624 0.05920991390882596 0.574563689001753 0.4221178367462796
0.1800968520581351 0.7069191168927711 0.2455154419484996 0.1332723121214195 -0.015048107472793485 -0.04782987886345357 -0.09278875360432366 0.2904368876157151
0.29204323433491264 0.19628931763249613 -0.8751846753791612 -0.3926486321082214 -0.056987478689562485 0.3365080618406432 0.32914034309850254 0.27813664741117633
-0.12075450053379233 -0.0334032171460691 -0.30349372100297545 0.037208922605480074 0.08868215357358342 0.2049871569004452 1.96283283521723 0.5433315717945937
-0.12420840901672735 -0.7905005302947345 -0.22650870190649416 0.21984576536097367 -1.5287663032442291 -0.7249480302955312 -0.07213003500679883 0.05945335808954319
0.13910041174346818 0.0004738600391516674 -0.8430469394388334 -0.5114969518675812 -0.27872532073286843 1.366422613466144 0.311826640249028 -0.12191076955675921
0.9275027824235308 0.19177107437923605 0.1604196572857427 1.3869540880302118 0.505968682427151 -0.05592321386189052 -0.7805521816010651 -0.4114827311072945
-0.03646910156018686 -0.7776714881191639 -0.3601438380512678 0.11842620371470837 0.7123088415726259 0.3984190567677272 -0.16307093320221008 1.880555800919829
0.8823068038793319 -0.001092537266891782 -0.11931307587318522 0.06570965235819277 0.17136217793056727 2.2843199030671126 0.9105434059282186 0.16294934584812923
1.8961075207228006 0.5766409439188083 0.10810665105390085 1.5892183288239028 0.44065673912981723 -0.18957887927353076 -1.465742162365917 -0.5040609631867162
-0.10529932573241796 0.6021418518095046 0.403899919873452 -0.17647753748386494 0.20900632495257168 0.08662679641979754 0.12676425768005298 -0.2426237289814179
-0.20611021525964543 0.04821599796146473 1.0623405517876285 0.10129318191527423 0.38020062861375825 0.838032701130337 0.4286666558340705 0.16524752797704717
0.05539421230783068 0.01750606550931191 0.09797563496784373 -1.214560749776355 -0.38762903865867676 -0.03569570447348031 0.4511756884854057 0.10007412353815161
-0.23855754102532992 0.9237485161348595 0.35541085021507857 0.2195382533548488 -0.43371712769007065 -0.36707871878077625 0.28629245190505453 0.5875372333842044
0.10875303504648559 0.05506564356214897 1.5437480708697446 0.36968142014057054 -0.26611149684373475 -0.4607982525025447 -0.18061950988247175 0.354181992607142
-0.475867976419768 -0.09594041663424997 -0.3325299146891706 -1.1825064300332908 -0.34415367844271094 0.07697785103448755 0.7192081011395011 0.2177530113401259
0.13319631607675425 -0.23729460128459928 -0.07433263197781313 -0.13217047824140157 -0.04727861656048092 -0.01748923303002692 0.2737630849261308 0.9616226157791414
0.4180791367497725 0.14413478372118999 0.1640530082922877 -0.011199206201228806 0.1975778620727834 -0.7528853527789808 0.03159241206797805 -0.1511222039252992
0.04628325802431583 -0.15498789017878115 0.0539943573936735 -0.8066995407374622 -0.5904394920294369 0.19763135160145978 -0.9643663393679535 -0.6514925324391954
-0.10400119952392745 0.250785583407943 0.1443246587691791 -0.23373117379722122 -0.9712835036309148 -0.3066117575760207 -0.03978661988678114 0.0194399959100256
00000000: 2b28 245f 7197 97bf 3546 5665 c265 b7bf
00000010: bd03 d774 9c26 ca3f 1f8f fed7 5d8d efbf
00000020: cc0d 0f23 af14 d4bf 5061 0837 a2ad c63f
00000030: ed08 82e4 659b c3bf cb3b 0a36 4e21 d1bf
00000040: 24bb 8e2f b047 d0bf 8783 f3d6 ef80 f2bf
00000050: afd2 213e 6072 d2bf 7d13 8895 fdcc d2bf
00000060: 1f59 caca 5bc4 e73f 8f34 544f 14e0 dd3f
00000070: 806e 5ba8 e6d8 c3bf 9c69 f4ff 631c f8bf
00000080: 49ff 1f12 fef9 e5bf 6a3c d1e2 cafb d9bf
00000090: c32d 678c 4807 f2bf ec7d 3b99 4584 b9bf
000000a0: f696 f6ae b7e2 d1bf b3c0 523b c6ec f5bf
000000b0: bf6c b4d2 2bcd dabf a24c 21e5 040d d6bf
000000c0: c9e5 9bf9 b03e 9dbf 5457 08e4 ab87 99bf
000000d0: 8bde f97e 2de4 82bf 2126 b965 66b7 cb3f
000000e0: 290b f4c4 c8fe bd3f f926 7291 3f84 ccbf
000000f0: 6f11 05b5 6a98 e23f f2fb 7c72 4a0d d33f
00000100: dc1c a7d4 96c8 d53f 5522 8ff6 6814 b6bf
00000110: 86fb 6953 04a2 b53f 0710 95eb 8228 803f
00000120: a5f8 d2e7 d370 a2bf 7d6e 4192 706c ad3f
00000130: 7e71 7fd7 bc9d 93bf 672d eaf2 2137 f9bf
00000140: 5d81 40ea df97 dabf 4777 ed2b c212 d1bf
00000150: 6322 bf07 8450 e23f bf85 cc8c 7d40 c43f
00000160: 635c ccbc 250a db3f 6521 a153 a5f4 dabf
00000170: 100b 0c95 b529 cabf a118 44b3 5db0 bdbf
00000180: 7321 0a37 af32 e1bf a740 256c 3e09 adbf
00000190: 4249 b60d 3909 c4bf 4d18 b6fd e78f d7bf
000001a0: 98f1 95d5 11c4 bbbf 0fd2 247b 44d1 d6bf
000001b0: cb14 2ac6 1b95 f0bf 553d 0e3c 84c6 c3bf
000001c0: 26cf ab49 06b7 ce3f 94f1 3b7d 2c80 dcbf
000001d0: e00c 359f c020 c53f 0e29 eb27 761b a13f
000001e0: cab4 3b72 3bac f13f 8a79 e136 e1c7 d63f
000001f0: e6b7 0ff2 8f5e db3f efed 33b8 c1da 80bf
00000200: 8dc7 9d2c a996 cbbf cca9 7e0c 5eae b23f
00000210: 2fa7 4e8b 73dd ef3f 56ae 1e36 41ad db3f
00000220: f994 604e 25e0 d1bf 24db 7d5d 7f6f e1bf
00000230: 1614 1c76 14e0 d4bf 5733 4322 2de4 c63f
00000240: b727 dc32 b81d e83f 89c4 1688 9d69 cf3f
00000250: 6dee 0581 9f74 c7bf d247 6992 c4eb e5bf
00000260: bafe 8858 d7f3 d6bf bbe6 9510 5826 a2bf
00000270: 44b6 3fe0 12c2 d93f 3e00 113e eb87 b2bf
00000280: ecb3 5b59 3f15 bdbf a62f c85c c011 df3f
00000290: bf6f 99f1 dc47 d03f 2962 0e0c 0323 c0bf
000002a0: f128 178f 48f7 f03f f7aa dc30 a1fa da3f
000002b0: 4757 c8c9 a64f ba3f ba6d 2d78 437b f63f
000002c0: f281 06e8 00bc e33f 41b2 c1ed 7159 adbf
000002d0: f7b3 5664 ecc2 c2bf 6c4e 87fd 0ef7 c03f
000002e0: d67a e84c e0cf d1bf 3658 a300 0ed7 da3f
000002f0: 8a08 8aef f20f aabf df23 33a3 36b0 c83f
00000300: fc65 6074 98bf aabf 6ec8 52e0 31d9 c0bf
00000310: 049e 894b 6b59 76bf 447f 5b93 9464 eb3f
00000320: 9549 a273 2c97 cd3f 78bd ac07 c350 ae3f
00000330: a169 b763 d362 e23f e38b f887 fa03 db3f
00000340: 05e3 d9e4 690d c73f c817 ffd6 149f e63f
00000350: 2c78 eacc 0c6d cf3f ea0b 032f 110f c13f
00000360: f5df b2cb 8ad1 8ebf 2ff8 fa6a 287d a8bf
00000370: cdcb 2af6 00c1 b7bf 3523 7799 8496 d23f
00000380: 0c23 1f1b d6b0 d23f b492 e423 0220 c93f
00000390: 0ed8 d64a 8301 ecbf 2355 6eba 2721 d9bf
000003a0: 369f 817a 762d adbf c289 1c1c 5989 d53f
000003b0: 15bf 59a8 a210 d53f 33ce 1ca7 fdcc d13f
000003c0: 1830 a356 c4e9 bebf 9275 72fa 391a a1bf
000003d0: b6f1 8fed 706c d3bf 367c 6b43 0c0d a33f
000003e0: 365f 56a5 dfb3 b63f 3364 7ee7 043d ca3f
000003f0: 0b5e 2c67 c367 ff3f ecbe 77e4 f862 e13f
00000400: f772 9d4e 1fcc bfbf f4c4 a2c4 c74b e9bf
00000410: af51 79b5 3cfe ccbf 34da 31f2 e723 cc3f
00000420: 9192 baa7 d375 f8bf d367 2d36 c632 e7bf
00000430: 81dd 692d 1d77 b2bf ec90 43a9 ab70 ae3f
00000440: af2f a6d3 0ace c13f 7d53 fc5e 0d0e 3f3f
00000450: ee3e 3c93 3dfa eabf 5ecc 08db 2e5e e0bf
00000460: 9158 47ba a2d6 d1bf 89a1 55f5 dddc f53f
00000470: 5108 79b9 f7f4 d33f f3c6 4650 8b35 bfbf
00000480: 7fa8 ae50 1aae ed3f 7988 635e f48b c83f
00000490: ecc1 d69e a188 c43f d04a 12c5 f630 f63f
000004a0: f464 fa3b e530 e03f 5681 3fad f7a1 acbf
000004b0: 7189 9991 48fa e8bf b65f 3eaa bb55 dabf
000004c0: 4af0 07fd 13ac a2bf 5b1c 1051 afe2 e8bf
000004d0: b84f 92bd 980c d7bf f1b0 f1ff 2d51 be3f
000004e0: 2798 66e9 3bcb e63f 63ea baa4 b27f d93f
000004f0: 830e 8422 82df c4bf 5f0f f4ad c116 fe3f
00000500: 8966 767a db3b ec3f d778 2ef5 6ee6 51bf
00000510: 8b49 dc3e 4d8b bebf 9df3 e807 59d2 b03f
00000520: dbd6 fd22 32ef c53f 7c33 6a83 4946 0240
00000530: d79a c1ec 2b23 ed3f 6741 a92f 86db c43f
00000540: e043 f3d6 7456 fe3f a84e 75b5 d773 e23f
00000550: c2af c1a2 e0ac bb3f fb09 c832 706d f93f
00000560: bbc5 d452 b833 dc3f abfe 3ee7 1e44 c8bf
00000570: d1ad bb0d ae73 f7bf 7978 0275 4421 e0bf
00000580: 20c4 4f88 e5f4 babf f363 22fd be44 e33f
00000590: eea9 ad0c 7fd9 d93f 6764 fce1 d096 c6bf
000005a0: 750a 2a21 b8c0 ca3f 408d 9479 2c2d b63f
000005b0: 41ce 84aa cf39 c03f 8fb8 9a5a 4b0e cfbf
000005c0: 7fb2 f4cc d161 cabf a5e8 c66c c4af a83f
000005d0: 8347 72ce 58ff f03f 0e46 a297 59ee b93f
000005e0: 9824 7404 3555 d83f b8aa 8af4 29d1 ea3f
000005f0: 725a ec44 466f db3f 6a00 34bc d426 c53f
00000600: 8de7 7f54 a15c ac3f 2763 602b 1ced 913f
00000610: 8ce1 fd63 ee14 b93f 07b7 b440 d76e f3bf
00000620: 4136 0107 eace d8bf a97e a416 b546 a2bf
00000630: f0e2 b2fe 0fe0 dc3f 89b0 c52f 759e b93f
00000640: 0d80 75b2 0d89 cebf 54e3 500c 598f ed3f
00000650: ec4e 9426 0dbf d63f 15a5 3059 d419 cc3f
00000660: d035 c97b 05c2 dbbf 1c25 0ebd 377e d7bf
00000670: f586 8193 9d52 d23f c628 52e2 1acd e23f
00000680: b08a dd28 3dd7 bb3f 551a 7764 9031 ac3f
00000690: d860 5a2d 31b3 f83f 5553 5c42 dca8 d73f
000006a0: 0324 0284 f807 d1bf 305a 23f4 b77d ddbf
000006b0: 6b7d fb43 8a1e c7bf 421b c5f2 eaaa d63f
000006c0: 4df1 fbf4 9e74 debf 2508 cf17 8d8f b8bf
000006d0: ae06 228d 2b48 d5bf d8d7 c4dc 8beb f2bf
000006e0: 2a69 6d26 9d06 d6bf bba0 b508 d2b4 b33f
000006f0: 8632 2db5 c003 e73f 93da 27a7 54df cb3f
00000700: caa8 bfae 930c c13f 7e71 0464 ab5f cebf
00000710: b7cc 5e9f 7607 b3bf 6391 c554 f6ea c0bf
00000720: ced2 da1f e734 a8bf 4098 958f b2e8 91bf
00000730: 0007 279a 5585 d13f 3eb1 bbca 9cc5 ee3f
00000740: 58bb defe cec1 da3f b236 2633 0273 c23f
00000750: 5e80 b660 b0ff c43f b3e5 0003 9cef 86bf
00000760: f512 023c 3b4a c93f 3557 fa05 a317 e8bf
00000770: 2377 4471 e12c a03f 4d80 c7ed f857 c3bf
00000780: 292f 226f 70b2 a73f 1105 cca7 a4d6 c3bf
00000790: 2c46 59fe 25a5 ab3f c24c 258e 7bd0 e9bf
000007a0: aa10 915c e1e4 e2bf 2e72 e5ef fb4b c93f
000007b0: e95a 1ecc 16dc eebf 1a44 0dde 06d9 e4bf
000007c0: c435 b396 d29f babf c2e7 c2f9 de0c d03f
000007d0: 08c2 b5fc 3a79 c23f 91e3 c131 e7ea cdbf
000007e0: 83a6 6724 c114 efbf efea d6eb 869f d3bf
000007f0: e3d6 766e e95e a4bf d1f6 ab0a 14e8 933f

linear.0.bias f8 [128]
-0.03355153444285876 -0.46005614679423273 -3.7719351809398196 -3.3135509257931868 1.177073481220349 -3.607269177774651 2.6169012501270554 -0.14247430570571584
-3.3828326339973454 -0.5944755386137608 4.260541265503579 -0.3199302544465262 -1.6049166742409797 -2.1268784807937013 1.33407651881883 -0.8296883618286846
-0.9834968798292772 -2.138067773277184 4.50134244343378 2.108207287105516 0.5215571368897899 -3.5738785881050945 3.6602106769811673 -3.2734867754518833
1.7614034123629168 -0.18371187447683354 -2.9672082758526193 2.7145322565259082 1.3316899710450136 3.48734507768925 -0.04923853297419859 1.265941600433294
2.037443142918022 5.176448976109289 4.3041815196860105 1.5741707590094518 0.4876515088730625 1.4777818122701327 -2.066812519992489 2.8091147864790873
-2.7232362237843444 0.12188043454214356 3.341293039871741 -0.3155948421877947 -2.245586684245824 -0.07496660080570311 -5.507532856744601 1.7532825335938549
1.4192446717777534 -0.2668464457225479 -1.1727224427337002 -5.385590823041323 -0.2681442086821809 5.610332492518987 3.0530610250968406 7.396869764008107
4.221408080332831 1.9748428459848917 -3.6981435132490086 0.9066892152835665 -2.8957151672833246 -2.765354350782633 0.20859003044450003 0.8887374033160549
2.27747592972745 -2.051917540310765 1.3640618362124088 2.084723627431836 -1.0294985905984653 3.3910525315527473 1.2322608685058487 -1.5197582748305862
-4.28444850737317 -1.741042664465455 1.1165517410248382 0.02621639117861341 1.1380813445462794 -1.4296306309899063 -0.7348905412922184 3.4507576135005835
0.1593348360127298 -3.975597809717629 -6.779350411553957 0.27150267207079626 -1.5057014652196228 2.0936681970825792 4.2591333355325505 0.19842250877416778
2.5007537788814607 2.437017231164627 1.224988780269474 0.03707757857408826 -4.5917194581848815 -1.1884138535136715 1.2621432600713052 0.558107603078809
-1.9902391617139112 -1.3138749251604198 0.4464913425073434 -0.4487743063708593 1.6686804702030618 -2.523971603058103 -1.2178713200420122 -0.48369824140893986
1.6027613919468238 -3.8130864502254105 -0.47360848822402835 4.494055015843461 2.13502485252423 -3.288382660313667 2.0862063544973286 -2.115680065978963
-3.529340457792378 -2.443788440448016 2.498504926471956 3.0836320742890564 5.2534493785374226 7.000536740957238 4.706058437472072 0.47376951502328984
3.2682546788114886 2.278992114428264 4.4957118492483366 -4.619269362525218 1.369740290427726 4.947270987738913 -2.330780988361235 1.9163957865361443
00000000: e24c 53ae aa2d a1bf 3385 3356 8f71 ddbf
00000010: 9e25 265a ec2c 0ec0 4f4c dffc 2682 0ac0
00000020: c848 ad00 4bd5 f23f 9949 53f1 afdb 0cc0
00000030: fc41 31ec 69ef 0440 a05f c319 993c c2bf
00000040: 8fe1 568e 0a10 0bc0 60c7 9390 f105 e3bf
00000050: a362 5a54 cb0a 1140 8d52 f6be bc79 d4bf
00000060: b4b8 4a1b bdad f9bf d499 6cdd d803 01c0
00000070: b303 ab9e 6058 f53f eaa1 7d9b ce8c eabf
00000080: 95b6 d272 ce78 efbf 3cdb d646 c31a 01c0
00000090: 4a94 dae9 5f01 1240 e374 3ac8 9bdd 0040
000000a0: 41fc bd97 98b0 e03f cd49 3ea8 4d97 0cc0
000000b0: 44d5 1089 1c48 0d40 7aa2 a3d5 1930 0ac0
000000c0: a095 3258 b52e fc3f d7e6 61e6 de83 c7bf
000000d0: 0ea9 49b1 d7bc 07c0 14ba 0db0 5cb7 0540
000000e0: d6ca a024 9a4e f53f d455 142d 15e6 0b40
000000f0: d586 a701 cb35 a9bf 401c c8fa 4b41 f43f
00000100: c056 92fd ae4c 0040 5535 570a afb4 1440
00000110: 5f65 3c5c 7b37 1140 d23d 84ad cd2f f93f
00000120: 621c 9dac ae35 df3f 6a2e a58a fea4 f73f
00000130: 11a6 a200 d588 00c0 041a 552c 1179 0640
00000140: 897d c312 30c9 05c0 7e7a 6160 8e33 bf3f
00000150: facf 64d8 f7ba 0a40 2be7 7eb5 b432 d4bf
00000160: e459 c926 f6f6 01c0 54b6 c0da 0231 b3bf
00000170: 3d74 75b1 b607 16c0 24f0 66fc 710d fc3f
00000180: 5cec a4e6 39b5 f63f e0a8 5b1d 0314 d1bf
00000190: 3e39 ad9b 78c3 f2bf 9c66 1a52 d88a 15c0
000001a0: 8ab6 b953 4629 d1bf 8a38 3c00 fb70 1640
000001b0: 86dd 3b42 ab6c 0840 86be 0407 6596 1d40
000001c0: 0b66 c0cc b8e2 1040 30ea e3cf f498 ff3f
000001d0: 628d 2a44 cc95 0dc0 1bec e819 9903 ed3f
000001e0: b91a b0b6 6c2a 07c0 a7b3 131a 721f 06c0
000001f0: 56f0 83ff 13b3 ca3f 6e2e 3f6c 8970 ec3f
00000200: 4dda dc4c 4538 0240 b9c9 4dbe 536a 00c0
00000210: 6710 0481 32d3 f53f 5325 c894 83ad 0040
00000220: 4360 9e83 d378 f0bf e54b 5026 e020 0b40
00000230: 88f8 252c 57b7 f33f 6090 830d ee50 f8bf
00000240: 5041 3278 4623 11c0 071e 8d8d 4fdb fbbf
00000250: 8ce5 bf5b 65dd f13f a1d6 ec3a 78d8 9a3f
00000260: 4139 b0c8 9435 f23f 4562 575e c4df f6bf
00000270: 92ac 1f2b 3984 e7bf 9d43 c3ce 269b 0b40
00000280: a8e3 e47a 1565 c43f a54a 7639 06ce 0fc0
00000290: 59fe c608 0e1e 1bc0 1086 54be 4c60 d13f
000002a0: 5f85 6a6b 5a17 f8bf e128 991c d5bf 0040
000002b0: ada9 c53f 5a09 1140 68d7 fca4 e865 c93f
000002c0: 8127 7d32 8b01 0440 d61f dde3 027f 0340
000002d0: d296 d3d5 8d99 f33f 06fa c716 d5fb a23f
000002e0: 5e3e a5b4 eb5d 12c0 da45 af3e be03 f3bf
000002f0: 21f8 8d21 bd31 f43f faea db79 04dc e13f
00000300: ab79 ec04 05d8 ffbf 4193 a9b6 a105 f5bf
00000310: 0109 816c 5093 dc3f 9b77 49de b7b8 dcbf
00000320: d5ef ef4a eab2 fa3f 8556 1906 1831 04c0
00000330: 9411 25a3 667c f3bf a7fb fe77 e9f4 debf
00000340: ad3f 1b21 e9a4 f93f 9b4f 0478 3381 0ec0
00000350: d8ee 01fa 994f debf c4e3 dd8e e9f9 1140
00000360: 0be9 ede8 8714 0140 d43e 7691 9b4e 0ac0
00000370: f12f 0af5 8cb0 0040 1e6e a1ab e9ec 00c0
00000380: ed57 95d9 163c 0cc0 5d89 30f4 e08c 03c0
00000390: 49bc a026 f0fc 0340 c0be ff4a 47ab 0840
000003a0: fd09 e03b 8803 1540 596e 13b4 8c00 1c40
000003b0: 9707 a8fb 00d3 1240 d379 375f 3d52 de3f
000003c0: 62f4 83b5 6225 0a40 827d ba37 603b 0240
000003d0: 8f0b 13e3 9bfb 1140 a2d7 6dbf 217a 12c0
000003e0: f668 76cb 74ea f53f 2b27 e367 01ca 1340
000003f0: 5333 b980 70a5 02c0 c8d6 d5a0 8ea9 fe3f

linear.2.weight f8 [128, 128]
0.04599492797736299 0.3230617626360456 0.39353530446079094 -0.12252909268224867 -0.0060491006359825825 0.21617105191800234 0.12344320244829768 -0.2000502952244201
0.26300627904563484 -0.27140738304382006 -0.35453732013151673 -0.03220074612212954 0.3317246528640787 -0.29267032301356755 -0.12682893847631285 -0.2370450643838845
0.014278788347956916 0.2646827095308313 0.16315889697448746 0.050520308488802755 -0.0967778136200328 -0.16094398455872969 -0.3492817608699369 -0.11415798138069908
0.17368710910652715 0.08172851047160898 -0.30221179026475986 -0.390825421350313 0.3271029068449205 -0.47914738272996904 -0.4386347489642535 -0.17344652480439274
0.18596153342679844 -0.0383831886829743 0.054156841142340297 0.21865729715825077 0.07840745969973686 -0.20012373467680372 -0.16060482196840195 -0.23729073378661475
0.20444002872922468 -0.5621810513222462 -0.3439893300336268 -0.4203140672565519 -0.24472721019071428 -0.4397582743514892 -0.15145746446171277 0.23295257484728846
0.14838014110788483 -0.5482655051379521 0.2877846338063064 -0.28834641113387444 -0.42142470079005173 -0.21790041923529307 -0.061783281153617 -0.3366285952483523
-0.027413988866030504 0.02533940604445878 0.21579974122724724 0.1014707664274746 -0.6135893710656211 0.14935576201404022 -0.043210460124155185 -0.17162808773106109
-0.3048389071428868 -0.09333211301835981 -0.3768411909772241 -0.3566410747477617 -0.09504702447232394 -0.1416930458598926 0.3001705427489107 -0.2145153367670585
-0.1312325137828691 0.011994741504143843 0.010848774250216162 -0.41337776376090724 0.10039796210238074 0.14001015990446544 0.14370135923586055 -0.005724073266969628
-0.2255017810698925 -0.10075233154912833 0.08645219594613365 -0.13955530296960086 0.24254927099619614 -0.16165661759326902 -0.29060394068634304 -0.18652248458630266
-0.39680305421809525 0.0689969355810822 0.09660110926501055 0.008836589884087451 -0.2628772985199582 -0.24802903409132926 -0.1076443428637663 0.45861427275530114
-0.09408353262732128 -0.19346640238877608 -0.26379059256035 -0.20930224923476068 -0.256832968093257 0.09716615431060445 0.26872373090994883 -0.038128466059035665
0.15311894180814098 -0.3133251877044107 -0.022727396618620204 -0.06855879555365574 -0.12203992711681469 -0.22156662326020116 -0.5018645724009823 -0.3009014949110112
-0.17790579329422387 0.19053291644280365 0.0716548623455108 -0.2683111657505116 0.12318272696272448 -0.29048011832240067 0.2540445250693252 -0.529103913773042
-0.19900464923358394 0.044683117267861776 0.1464230112298779 -0.12042513528729022 0.13706557700777777 -0.001984678737350705 -0.06981283316975313 -0.26460593284200173
-0.0514177799967642 -0.1583797003372409 -0.0495481737708748 0.01635885761713907 0.13086638439955584 0.11061443382584625 0.04744506490767979 0.12395331295476529
-0.03665987149909718 0.1497206902252136 -0.02911261866073392 0.0719799816125875 -0.027952917948189836 0.16112766034210185 -0.09921999874837371 0.10219231433710196
-0.1712683603805447 0.02666501613272224 -0.04989768144140348 -0.05167506997674267 -0.20991722659559392 0.03449031936700218 0.050590127744480365 -0.19306317782867985
-0.03183954237179324 -0.037144263593549616 0.3089237626480635 0.08533497161742806 -0.0850382878793326 0.2915935293466159 0.30071283673754085 0.182165363562187
-0.29165928852852413 -0.03940725954558928 -0.14058001221182215 -0.0073198570277773255 -0.06495144913096364 0.18918340773849743 -0.09051359565234783 -0.009299816659052653
-0.013546468742535352 0.19628704216286952 0.020834448377973807 0.03752090407315149 -0.03862521274883635 0.08595533591842834 -0.009897939261146179 -0.10536561169946868
0.023826510777467984 0.09173279291134419 -0.22929995595958758 0.11030645647363825 0.011197143107549297 0.015878442080506712 0.061620930229462446 0.08357053084629389
0.08215697530970778 -0.0894089806290539 -0.13169756879806074 0.09901222150663853 0.24172723126093346 -0.007585103139492456 -0.07923596628286937 -0.15983454462621252
0.17082647911909785 -0.07375782249311683 0.15756014824304632 0.03745226684465881 -0.018071793229091374 -0.07666039496809933 -0.02454002699930213 -0.09660706804808751
-0.08234304029224904 -0.18724673142533535 -0.017219523751889378 0.22084087592252094 -0.19631013354415378 -0.26938413692385293 -0.24253411138464687 0.19032476072774304
0.040436521870327084 0.025312294162096197 -0.0037342416970186313 0.11225958082251161 -0.14824460983324197 0.07242231799331875 0.04871162678807807 0.016110526507708403
0.1761687447834428 -0.04116088081105355 -0.22458665701606106 -0.10109104648534417 0.16332967499119205 -0.1278696326771868 -0.030189660383417607 -0.2692690900038238
0.10426699662360803 0.029966750999189242 0.11066853962602703 0.012115299935944956 0.08129070413266572 0.025112110549111655 -0.08850018629611012 -0.05127346571656129
0.04213918647816065 0.10948849716866713 0.038870877180183394 -0.000989383547141097 -0.11678019131343918 0.09877023115540855 0.3618523110559147 -0.06210438467141503
0.04412999622460636 -0.14196376476340417 -0.05464023368532465 0.21064408300581725 -0.039382282409635316 0.1513843738484463 -0.09910404638233307 0.3067663703580412
0.0037055594824356194 0.040178871560133965 -0.1229028482288777 0.060036406261796335 0.11689856017711006 0.1017435625463331 0.1279931998831514 0.24919436130937403
00000000: 18a9 e3ae a58c a73f 1a09 473e 0bad d43f
00000010: 83c0 9eb3 ae2f d93f c1f9 e00d 115e bfbf
00000020: ca99 6d16 f1c6 78bf dc34 2a37 7eab cb3f
00000030: 62cf 6d45 f999 bf3f c1a2 c581 3f9b c9bf
00000040: 9731 c949 18d5 d03f d63b 8412 bd5e d1bf
00000050: 4449 cb4c bdb0 d6bf 51b0 00bf 9d7c a0bf
00000060: c000 d509 fa3a d53f 0698 764e 1cbb d2bf
00000070: b198 783f ee3b c0bf ec7e 9a1f 7e57 cebf
00000080: 790c d987 323e 8d3f 041a 50bf 8ff0 d03f
00000090: 1747 4707 64e2 c43f d389 7c41 ccdd a93f
000000a0: f0f6 7948 6ec6 b8bf 4f76 15ff cf99 c4bf
000000b0: 9aa4 01e3 a15a d6bf c683 9b1c 7539 bdbf
000000c0: 73b6 ac12 613b c63f be58 a0df 28ec b43f
000000d0: bcc6 e91e 7057 d3bf eb47 c9a0 4803 d9bf
000000e0: 78d4 d407 41ef d43f 7482 b2c8 59aa debf
000000f0: 6c33 6c7b 9712 dcbf 55e2 d1e7 7e33 c6bf
00000100: fce8 3068 96cd c73f d019 3818 f6a6 a3bf
00000110: dd3d 1f0b 72ba ab3f d0c8 295a f6fc cb3f
00000120: 223d 2ce3 8212 b43f 6a8d cb8f a79d c9bf
00000130: 7f93 f7e4 b28e c4bf eef0 a0f2 8a5f cebf
00000140: 2e52 b142 172b ca3f ab84 bb1d 63fd e1bf
00000150: 51b6 aad2 eb03 d6bf c399 3af9 6ce6 dabf
00000160: 8fef 1aa2 3853 cfbf ec0a 9fe3 ff24 dcbf
00000170: ce8f 4c4c f562 c3bf ef79 3ed5 63d1 cd3f
00000180: de94 b7d6 1efe c23f 24f5 c219 648b e1bf
00000190: b152 9f3d 106b d23f 234b 6f81 4474 d2bf
000001a0: bfab e74e 9ff8 dabf 263c 3333 29e4 cbbf
000001b0: 841c fde7 0ea2 afbf b45d dfa9 528b d5bf
000001c0: 7ab0 87a6 6912 9cbf 9047 0bc1 92f2 993f
000001d0: 8134 876f 539f cb3f d459 4ef7 fcf9 b93f
000001e0: 38cd 3c2d 86a2 e3bf 20e4 a8f0 161e c33f
000001f0: 9f1e 2872 ae1f a6bf 6ca1 f0bf e8f7 c5bf
00000200: 7988 2e0c 7b82 d3bf 2497 1405 9de4 b7bf
00000210: 821a c283 2a1e d8bf 63ec 1c16 35d3 d6bf
00000220: 88d4 b075 0055 b8bf 97f9 046b ff22 c2bf
00000230: a710 1582 fe35 d33f 29d5 f311 3d75 cbbf
00000240: f644 6f1d 3acc c0bf d1c9 dff3 b290 883f
00000250: 12d6 d9d4 e137 863f 1bca 0f02 c874 dabf
00000260: f194 d04b aeb3 b93f 51de f258 daeb c13f
00000270: bb85 275f ce64 c23f d665 b437 2072 77bf
00000280: b845 710b 3edd ccbf 30cf ffa0 e7ca b9bf
00000290: 0a8b 412a bb21 b63f 7970 1ebb f2dc c1bf
000002a0: 7374 4cc1 da0b cf3f 695e dffe 29b1 c4bf
000002b0: 518a 5545 4199 d2bf 9e27 a201 f8df c7bf
000002c0: e274 34a3 3865 d9bf bf4f d87d c8a9 b13f
000002d0: 61f0 0cad d9ba b83f 1289 7b04 eb18 823f
000002e0: 5a42 004e fbd2 d0bf b4bb f056 6abf cfbf
000002f0: 7d04 3364 948e bbbf 359f bdad ef59 dd3f
00000300: 80fb b9bf db15 b8bf 9339 91cf 81c3 c8bf
00000310: aa81 02f0 f1e1 d0bf 17a5 b885 6aca cabf
00000320: 8bb0 9f8b f36f d0bf 65c9 0a8f e1df b83f
00000330: 9cb5 fa04 c532 d13f 3458 8a05 9385 a3bf
00000340: 6367 bbc7 6699 c33f 3b06 8d16 850d d4bf
00000350: dbff ccc4 d945 97bf e08f c1b8 118d b1bf
00000360: 92df c537 023e bfbf e8d3 648c 4b5c ccbf
00000370: ba76 af4a 460f e0bf 9d75 fd57 f841 d3bf
00000380: 39db fbf5 9dc5 c6bf c377 77f2 6163 c83f
00000390: ea93 5f1a f957 b23f 8e34 8398 022c d1bf
000003a0: f8ab bc37 e788 bf3f 954e 15ec 3997 d2bf
000003b0: 7ea3 b9f7 4342 d03f fee7 ba54 6bee e0bf
000003c0: a7e7 1afe fb78 c9bf cf95 b29e b4e0 a63f
000003d0: 009d 4e3e fdbd c23f 9ddf ac81 2ed4 bebf
000003e0: 70f0 5365 5d8b c13f 90bd a348 2c42 60bf
000003f0: 2d21 4efb 40df b1bf f692 f8b8 4def d0bf
00000400: adbd 0967 6e53 aabf c73c a638 c945 c4bf
00000410: 0b49 d8d3 605e a9bf a1b4 dc59 60c0 903f
00000420: 5e28 92cc 3ac0 c03f 7960 bf3f 3a51 bc3f
00000430: 7629 4534 b84a a83f 371f 5f81 67bb bf3f
00000440: 0a10 542a 15c5 a2bf aba2 062e 0c2a c33f
00000450: 28f1 31c4 b2cf 9dbf 8424 feb2 476d b23f
00000460: 7336 a991 b09f 9cbf ce3d d3c7 d49f c43f
00000470: cfc1 bb59 7b66 b9bf d0fb fa87 4629 ba3f
00000480: 0745 5623 1fec c5bf 090d f3f0 124e 9b3f
00000490: 8ec5 df5b 308c a9bf 5322 239f 2775 aabf
000004a0: 262c 8c53 91de cabf 0d74 6b13 b7a8 a13f
000004b0: 7275 5300 f3e6 a93f 7302 6b51 4bb6 c8bf
000004c0: e5b4 69c2 454d a0bf b191 bcaa 9204 a3bf
000004d0: f9f6 612c 68c5 d33f 0e4c 4d40 83d8 b53f
000004e0: 347d 59b9 11c5 b5bf 2d36 11e8 77a9 d23f
000004f0: a79b d10d e13e d33f 6255 7bd3 3151 c73f
00000500: 357f 73b8 8baa d2bf 0a53 f235 302d a4bf
00000510: 30e5 759d 86fe c1bf 452f bb28 6dfb 7dbf
00000520: 5965 d87d a8a0 b0bf 0d62 9772 2937 c83f
00000530: 5792 2b25 e62b b7bf bb81 4643 c80b 83bf
00000540: 24c6 cd41 40be 8bbf a0ea 5b0d ef1f c93f
00000550: 2b86 a729 a055 953f 2632 d29f f035 a33f
00000560: b155 1d13 afc6 a3bf 3bb4 af3c 2b01 b63f
00000570: de34 65eb 5e45 84bf f84b 5fa0 3df9 babf
00000580: fb9f 4412 fa65 983f 0964 86e1 cc7b b73f
00000590: ae0b e971 b359 cdbf 5188 173f 0b3d bc3f
000005a0: 91fa a41b 87ee 863f 82f0 c935 7042 903f
000005b0: cd55 2b50 c78c af3f bbe9 e4d8 e064 b53f
000005c0: f0ed 1752 3d08 b53f 713e c5c7 81e3 b6bf
000005d0: 15a6 7947 77db c0bf 657b 466d dd58 b93f
000005e0: 4dbf 68fc eaf0 ce3f 0109 bc9e 8e11 7fbf
000005f0: fb14 daeb ce48 b4bf bd66 f856 7575 c4bf
00000600: b7bd 8d5e a4dd c53f c29e 6eeb cae1 b2bf
00000610: 7cab ed51 ee2a c43f 3a8b 848a f12c a33f
00000620: 2499 9883 6981 92bf 7353 4901 04a0 b3bf
00000630: bfad 9e55 0521 99bf 3138 d4a5 3dbb b8bf
00000640: 68c1 1bf9 6e14 b5bf 5d9a e06d b3f7 c7bf
00000650: 9ade 77ad fea1 91bf 3a86 da89 8344 cc3f
00000660: 3a07 b9c1 b020 c9bf 6b8b 89f6 963d d1bf
00000670: 90de 4796 5b0b cfbf 53eb 78cf 8f5c c83f
00000680: 7f7c fe85 18b4 a43f 34a5 734e 77eb 993f
00000690: f488 d9be 4597 6ebf 769c 4b3c 0bbd bc3f
000006a0: 0962 85eb adf9 c2bf 1e25 48df 448a b23f
000006b0: e2c0 faf7 baf0 a83f 8446 e321 477f 903f
000006c0: 880c b68a b28c c63f c582 eaf9 0913 a5bf
000006d0: f03f 806d 41bf ccbf 18ae 9252 1ae1 b9bf
000006e0: 66d8 469e fce7 c43f a501 4039 085e c0bf
000006f0: 57b4 18d0 09ea 9ebf 76f7 d86b b43b d1bf
00000700: 1ef0 8cec 3db1 ba3f 471b 099e 9aaf 9e3f
00000710: 45ce 63fe c554 bc3f c085 0c08 e8cf 883f
00000720: e9f6 b7b3 77cf b43f 7dfa 2a36 fdb6 993f
00000730: 50ea d4bd f2a7 b6bf 6a77 cf04 8440 aabf
00000740: 8584 9b77 4493 a53f 4eab a02a 7007 bc3f
00000750: c8ed 8234 e2e6 a33f 935c 9a7e c635 50bf
00000760: 3f08 837e 4ee5 bdbf bb7e a180 0149 b93f
00000770: 29e6 7d98 9628 d73f 5630 345a 25cc afbf
00000780: d354 1df5 3498 a63f 1e1c 705f de2b c2bf
00000790: 1dd3 7201 cef9 abbf f38d cda3 62f6 ca3f
000007a0: 2881 fb1d ea29 a4bf 55fa 662b 9060 c33f
000007b0: f906 1dfe e15e b9bf 88d3 0c6a 0fa2 d33f
000007c0: 8750 4b19 1f5b 6e3f 4b92 ae36 5392 a43f
000007d0: a470 baa1 8f76 bfbf 3675 ed82 17bd ae3f
000007e0: 4601 e964 10ed bd3f 480c b7b9 dd0b ba3f
000007f0: 30e4 cdc7 1462 c03f 6def 15d0 99e5 cf3f

linear.2.bias f8 [128]
-6.343142679257739 -0.1237996729147635 -3.274979948222709 -0.031743289978106645 -2.932195176361773 1.8298650684327886 -4.663331492698778 -5.14360733522449
2.3543313060571354 2.33722872712067 2.5069780295495474 -4.814659638659349 -1.3367835977517033 -1.8391590851672153 -0.327035574356405 4.022891058866341
3.1660427629005867 0.816376749744559 -3.1345169259426884 -0.8463811578683934 1.321379875145391 -3.859672787779102 5.347057140490156 -1.2779072107885137
-5.2540363924142826 -2.209255350239765 0.9355218139834991 -2.994567053427448 -0.3401694311477766 -5.687305114766812 3.7629451834125494 -3.9273452596594627
1.9541840027205994 -1.6187664719030284 -2.3327927575565015 -4.173932383412784 2.923465967603776 -0.7129699405044974 6.127450582931143 -3.8002190042195783
-2.9008048589498547 5.95999371125997 -7.518379984745897 0.5220836765908894 2.68293792347818 -5.965409358012841 0.5580490049699982 3.5645687610323167
1.0873498536065123 -2.044218691127601 2.4102039584183164 -1.2268075129877027 1.4955966886603551 5.036966758984747 -2.9372395252123304 1.3295196167374754
-2.2798786087673992 5.416177267098706 -0.6618860559672617 -1.2006185122627215 2.825369212086653 1.591969837050607 -0.7306884237611296 1.4108642269135394
1.645985333945879 2.3237477973676715 -0.3820614882619588 0.44042395794890693 -2.418141905054052 -0.8987967407390047 -3.5677105906903392 2.450251176165524
2.656738284844033 -0.9631106675644775 -3.9873841965509422 -0.9193588575026789 3.614372941854308 1.0291720880557462 -5.062067273071813 -2.195026893912728
-2.183942310392253 -5.496947722686023 -3.322536064948621 1.7574214704133981 -1.3547105644573034 -1.1350879876213187 -4.997402858718368 -2.2411672556030866
-9.65789015368493 1.69755372351431 -3.167815799739249 2.2045803690548964 2.338815940007326 1.328842754856405 -3.191028421896263 3.941340922903832
3.2237459527298764 1.8445960551380094 2.275454921181189 -0.8907386022720453 -0.45827636615674083 -2.311152613818327 1.6794532851353026 -3.645874919279585
0.9065372077064381 -2.902478903598242 5.820909742107655 2.8926420416660306 1.9729442723775492 -1.4389387206545174 -7.090451135451707 0.5606445353866419
-3.5081502789871997 -1.2279985889299778 -4.1590347800128695 -0.8714075592210099 -0.4905422009843099 0.40091420813013273 1.6382726203110423 -0.1998545757868733
0.31477160898066325 3.2501397019471825 -1.7928696046859585 -4.07759864468197 -0.7858342553664175 -2.0390410649095507 -2.2371234967003453 1.3762746746910863
00000000: 6118 65cb 605f 19c0 e3a5 6cda 55b1 bfbf
00000010: e360 e5af 2833 0ac0 5696 a510 a840 a0bf
00000020: bfb3 9fbe 2275 07c0 a22f 1098 2047 fd3f
00000030: 4531 ee5e 40a7 12c0 0305 21cd 0d93 14c0
00000040: 04b7 dba6 abd5 0240 360a 92f9 a4b2 0240
00000050: 89a5 457f 4a0e 0440 ffa6 e522 3642 13c0
00000060: bac3 a232 7763 f5bf 95f3 ae13 326d fdbf
00000070: 4751 1f9e 26ee d4bf 96ce f4c0 7017 1040
00000080: fd29 633a 0e54 0940 d9c3 2b22 c21f ea3f
00000090: 5a75 2d9c 7d13 09c0 03da 1ff0 8d15 ebbf
000000a0: e778 5539 5f24 f53f dc2d 6620 9ce0 0ec0
000000b0: 76fe 70f2 6263 1540 448c dad4 4e72 f4bf
000000c0: 15a7 b51d 2204 15c0 b057 ae11 8eac 01c0
000000d0: 821e 7871 cbef ed3f 2533 4192 dff4 07c0
000000e0: 613b 7801 56c5 d5bf 1d30 79e9 ccbf 16c0
000000f0: 542e 1b01 831a 0e40 44b4 d2fd 336b 0fc0
00000100: 54d2 e071 5644 ff3f fbf4 0aac 77e6 f9bf
00000110: 1a68 d03f 8fa9 02c0 99e4 a954 1bb2 10c0
00000120: 229e 0e20 4263 0740 a6ee 2f56 a6d0 e6bf
00000130: 7c2e d667 8282 1840 1116 a638 d966 0ec0
00000140: e123 8a2d d934 07c0 b1e8 6897 08d7 1740
00000150: d689 e533 d212 1ec0 4877 97d3 e8b4 e03f
00000160: a44b 7428 a876 0540 87ab 4f45 94dc 17c0
00000170: e02a 3d96 89db e13f fad0 67a0 3c84 0c40
00000180: 44ce c8f5 c865 f13f a91e 4254 8f5a 00c0
00000190: 74c5 5003 1948 0340 f74e 2cea 00a1 f3bf
000001a0: 7bd5 1ccb f6ed f73f b083 339d da25 1440
000001b0: b871 aa6f 777f 07c0 5372 945c b645 f53f
000001c0: 340c fcfe 303d 02c0 431c 9e5f 2aaa 1540
000001d0: 9ed9 81aa 2b2e e5bf c03f d2c1 bb35 f3bf
000001e0: b94c 682c 5b9a 0640 e79c 255d b578 f93f
000001f0: bdd5 73b0 cc61 e7bf 230a 1b5e e692 f63f
00000200: 1ae4 afb7 f455 fa3f fcc4 ce15 0997 0240
00000210: 5b5b 4907 b273 d8bf e1fc f0f7 e72f dc3f
00000220: b55a 7ac8 5a58 03c0 9c36 e761 f1c2 ecbf
00000230: e0dc a4d9 ab8a 0cc0 83ee e449 1d9a 0340
00000240: 737d 7b00 0041 0540 f5c7 7376 cdd1 eebf
00000250: 3230 86af 29e6 0fc0 bb61 4844 636b edbf
00000260: 147e 665c 3cea 0c40 c67c c226 7d77 f03f
00000270: 3afb 2f90 8e3f 14c0 a690 9942 6a8f 01c0
00000280: 1de2 fbbe b678 01c0 5708 23dd dffc 15c0
00000290: fee0 d5c9 8d94 0ac0 a16b cbf9 651e fc3f
000002a0: b23c 1efc e4ac f5bf 01a8 8e05 5229 f2bf
000002b0: 7987 cc2c 57fd 13c0 5d73 1d19 e9ed 01c0
000002c0: d7df 6cfa d650 23c0 dd26 db17 2e29 fb3f
000002d0: aa0e 5dcf af57 09c0 83f4 5308 fba2 0140
000002e0: 498f ad21 e5b5 0240 2928 da9e f042 f53f
000002f0: 2035 c5e8 3987 09c0 3c11 f2bf dd87 0f40
00000300: 8cb2 6c51 3bca 0940 b25f 3227 7783 fd3f
00000310: b6f6 afb5 2134 0240 c761 c13d ee80 ecbf
00000320: 2c11 4b65 6654 ddbf 2b51 e394 3d7d 02c0
00000330: e00d 6d68 0adf fa3f 50e6 3c78 c02a 0dc0
00000340: 199a 7651 5a02 ed3f 6c46 02dc 4638 07c0
00000350: db47 3d90 9c48 1740 13ec bf82 2124 0740
00000360: cd12 6b03 2e91 ff3f 378c a29b e405 f7bf
00000370: c69a f238 9f5c 1cc0 f355 05cf ccf0 e13f
00000380: 5ba0 ed17 b110 0cc0 7fd0 2fd9 e1a5 f3bf
00000390: cb53 6c03 daa2 10c0 ebec 0a1b 92e2 ebbf
000003a0: 2445 a21d 0b65 dfbf 0dec 1a11 94a8 d93f
000003b0: c0b0 e259 5d36 fa3f 19f4 7ab1 d594 c9bf
000003c0: faff 91d1 3725 d43f cd5a 7a3e 4900 0a40
000003d0: f3e5 e109 98af fcbf f07d e404 764f 10c0
000003e0: 4202 5ce1 8d25 e9bf 78e6 07c3 f44f 00c0
000003f0: 7887 fb00 a1e5 01c0 b3c7 e197 3805 f63f

linear.4.weight f8 [128, 128]
-0.02949335911980799 -0.08385233859472957 0.024405758301519836 -0.013789455577498496 0.06515950333858649 0.14771487655349086 -0.0004630441385496829 0.09893239410784675
-0.2252992406303044 -0.16744334169697295 -0.02123292131580049 -0.05730712705302282 -0.0759319659435346 0.008990940325870866 -0.13810249955366044 -0.12409875893718571
0.022497393256481726 -0.042595882607327315 0.11594316147610735 -0.039228158037356235 -0.03328834497534473 0.11154247651506785 0.018161916154402897 -0.16736339130218603
-0.01458188098936256 0.02136240779589768 0.1272743062471327 0.19949460037035288 0.03252789636792162 0.13938714372258332 -0.18694998532782506 -0.1337571568851473
0.12210734146655619 -0.24303193387934177 -0.03736592679082283 -0.03712138554240059 -0.05091619939615704 0.18783639285766263 -0.18394794022149052 -0.21226658861108835
0.022599500384629538 0.03450465034229704 -0.09516583272205033 -0.013327186362366315 0.010850037931308443 -0.07211053733085844 -0.15395069912840625 -0.1270912325942646
0.093774954591454 -0.18081563248024882 -0.03800099851426684 -0.11361762862849516 -0.11271007561723219 -0.18276975492614111 -0.18256196256589394 -0.20810242876714818
-0.04597285833738379 0.09603449859408701 -0.0907174423994746 -0.13465660644140778 0.05192489329470746 0.05387427456239954 -0.08479426282716768 -0.1934297843698451
0.11967915873733813 0.0019901125406090563 0.20631222391061316 -0.07095027170849903 -0.11863503537592551 0.1544996214934563 -0.08870764513957369 -0.043363195218816056
-0.2439195496320465 0.021915817065743762 -0.11506410434612219 -0.003726381592984154 0.032760079801069 0.20650702573542343 0.14283257788977172 0.05732043943362462
-0.12881522804279563 -0.13392218262768865 0.06753432264817733 0.01002881339871814 -0.07910902165847397 -0.1755924737879257 -0.10086131508297218 -0.14918792110053447
-0.19170981533486353 0.09497603717132852 -0.20395228323983358 -0.1366536236385725 -0.03332725193267397 -0.17969932680441153 -0.19018405542373568 0.10398082150383606
0.0918388755172089 -0.0027046424489464245 -0.05382837720160608 -0.05934306780633931 -0.2046596974564457 -0.026202195854378482 -0.13125290988867772 0.037558061527506716
-0.19019336744111093 0.03277925586598876 -0.14808047069243635 -0.12718384300700714 -0.011595491181815493 -0.19870762917488302 0.0370146744898634 -0.1816023645133593
0.03695138231528931 -0.12055954521386109 0.01924043738574445 -0.138882500289487 0.09730492157847763 0.1588988166818402 -0.04770143755577629 -0.016940132343145738
-0.017122584961312262 0.16332621852992787 -0.0682821471752019 0.011824878041716991 0.11244165218196986 0.20810463972467397 0.018068889539415062 -0.06270409100157885
0.007752693906231969 0.19163922617830464 0.5503803633671713 -0.1766384715913557 -0.0034655735112725113 0.09329128159399318 -0.27592421993441607 0.07093278970929098
-0.08644037012653662 -0.21819048242667152 -0.03995612045223946 -0.2697408030070897 0.4226833547306355 -0.14913712594601758 0.3404314322489905 -0.2209800434963116
0.08665340845248669 -0.11595397799911991 -0.07675439351590276 -0.09043598737051768 0.0727746255414983 0.27206124492294786 -0.014796478051140757 -0.36438436399482116
-0.17937185352545365 0.06347535161264768 0.0844444965076709 0.2032337094511113 -0.36087287975394317 0.07018916886727186 0.08280416295402195 0.02159760332216029
0.31151654984249183 -0.14158217462454367 -0.1355605624356641 0.4735857020442737 -0.2658358911663449 0.10166639126925706 -0.47831167035609584 -0.19407061427603958
-0.03753281266688695 0.18750557181646468 -0.14207312120174373 -0.024561245422551635 0.1820241206017466 0.2674244045599828 0.02182993148274063 -0.38876881168680716
0.1698129391290514 -0.14429369239874484 0.23576410283101593 -0.21136629831103285 0.0007345731685927417 -0.5355754426038226 -0.12535258001562222 -0.3265164479408576
-0.04772750639753563 -0.2776078046101764 0.20317267974624065 0.03360121328819471 -0.12406662097014032 -0.2831966647775229 -0.20563510303370827 -0.13549302453568837
-0.0067490503677033135 -0.28095003677433156 0.4073408657240434 0.14966682920090102 -0.4458494894382617 -0.14571976649036938 -0.09752176575188846 -0.548049583136383
-0.3885636665049094 -0.21597012398587748 -0.025624655296355745 -0.2766449547403036 0.041109187352112324 0.16751209265334102 -0.0842056968377324 -0.06446643584202366
-0.4741512905631444 0.0020880862992626124 0.5649484415726955 0.26741727889696826 0.12704167837594887 0.033438714505855026 -0.4089818905152862 0.1919046794124494
-0.36819438897659224 0.2288436011749731 -0.25068011830296777 -0.27625863975511644 0.016009799926683953 -0.3722643684544741 -0.07277592293263017 0.14082470569069352
0.0391147828846491 0.041450683091582986 -0.21891033704917864 0.20796880046650715 -0.11342218569659862 -0.010422499300324047 0.32801958660338565 0.0243952343914766
-0.5550986421885812 0.29045121584037376 0.22310600474864248 0.10414679404406026 -0.1376577290368865 0.25140241281471865 0.4620525450648758 -0.22010546687833762
0.16514112464118766 -0.23304539208916017 0.1874034909763079 -0.31075330624871095 -0.0027465773567100834 0.10401270519690085 -0.1612605717279148 -0.33522863571712996
0.007573783103140173 -0.007735994656770963 0.05308772205642653 0.0137383793697168 0.28195177742980265 0.09572365655952979 0.26050958679591374 0.12714726566903853
00000000: df9b 79d3 8133 9ebf 8c1d f5cb 5877 b5bf
00000010: c8d8 f4b6 d2fd 983f 1e48 e165 a53d 8cbf
00000020: 8be2 dc0f 4bae b03f a207 f731 52e8 c23f
00000030: 1c47 826e 9758 3ebf 9b4b 3525 a253 b93f
00000040: b50f 2903 9bd6 ccbf f0be 428e c86e c5bf
00000050: 8980 993a 15be 95bf 6878 0a19 5c57 adbf
00000060: bace 72fe 4670 b3bf 337b 4795 d769 823f
00000070: fa16 8abb 57ad c1bf a901 1caf efc4 bfbf
00000080: a79a 2081 8e09 973f 9646 7ca5 20cf a5bf
00000090: 2517 bc76 73ae bd3f 8f9d b48f b615 a4bf
000000a0: e29e 0382 2b0b a1bf 9e3f bf38 0c8e bc3f
000000b0: c5d5 a98f 0999 923f 9c63 18e2 296c c5bf
000000c0: 1333 b5ef 1add 8dbf 5887 63eb 06e0 953f
000000d0: 4aec 7943 864a c03f 5add 2800 0a89 c93f
000000e0: bd3e 3716 7fa7 a03f 80bb e21b 70d7 c13f
000000f0: 853f 7c24 faed c7bf 33bd 365b f41e c1bf
00000100: 064b 333e 6d42 bf3f b59c f29f ab1b cfbf
00000110: de45 1a73 a021 a3bf fa0c c601 9301 a3bf
00000120: d778 7c26 b011 aabf 1c40 29de 050b c83f
00000130: 987c b529 9b8b c7bf 3f1e 0f34 8d2b cbbf
00000140: 3e50 3bcc 5224 973f c766 8ff1 97aa a13f
00000150: 4de1 3cbb c95c b8bf 0cad 97ac 484b 8bbf
00000160: 3a46 9a70 8b38 863f 4574 880f d675 b2bf
00000170: aef6 f910 a8b4 c3bf 99e3 cc87 8644 c0bf
00000180: 5778 27ab a201 b83f 49da 0d76 f724 c7bf
00000190: dd11 abeb dd74 a3bf a35d 357f 0b16 bdbf
000001a0: b5a8 b448 91da bcbf f087 0dd4 ff64 c7bf
000001b0: 5367 5bbd 305e c7bf fef3 e2b2 19a3 cabf
000001c0: c81a 2026 c189 a7bf 2bd6 bf86 b795 b83f
000001d0: 6452 4820 4239 b7bf 9d97 6d7c 6d3c c1bf
000001e0: 291e 194d e695 aa3f ccb5 aeae 6895 ab3f
000001f0: 442a bba9 13b5 b5bf ae6c f8a2 4ec2 c8bf
00000200: 2727 ca18 4ba3 be3f 9870 df88 914d 603f
00000210: be05 3b5f 7068 ca3f 7b5c a108 cc29 b2bf
00000220: 7c72 199d dd5e bebf e485 c7c2 a4c6 c33f
00000230: a496 c752 8bb5 b6bf c237 a162 b333 a6bf
00000240: ff28 437c c138 cfbf e4fc 3f96 1971 963f
00000250: 3c31 1c55 d774 bdbf 6c87 60e2 c986 6ebf
00000260: 424a b8de edc5 a03f 93c4 f67c d26e ca3f
00000270: 3a83 6b81 5648 c23f 1e00 85c9 1a59 ad3f
00000280: dfd5 d573 047d c0bf 7124 4cb1 5c24 c1bf
00000290: a4a5 21eb ed49 b13f a07d 858c fc89 843f
000002a0: be79 d724 7d40 b4bf 6ee3 2b6e d079 c6bf
000002b0: bb81 b611 0cd2 b9bf 10e2 0afd 9618 c3bf
000002c0: 70bc 977d f289 c8bf 18f6 8d7d 5950 b83f
000002d0: a3d4 3ac1 1b1b cabf f92a 34ae dd7d c1bf
000002e0: 2497 3b02 4510 a1bf 267c de35 6300 c7bf
000002f0: 0eff 217d f357 c8bf 222b c5b3 7c9e ba3f
00000300: 360b d9a6 c082 b73f 16fb b2db 0b28 66bf
00000310: f5f4 5a9f 648f abbf 79f0 f1ee 3662 aebf
00000320: 7a3d b1f9 4932 cabf ec9c 1c99 bfd4 9abf
00000330: b204 bd35 e5cc c0bf ad70 ec6b cf3a a33f
00000340: f8af 899a 4158 c8bf a4ff dc4f 71c8 a03f
00000350: 4070 6605 4df4 c2bf 88b8 2567 8f47 c0bf
00000360: 1071 417b 60bf 87bf efca 6268 406f c9bf
00000370: a0e5 cf60 96f3 a23f ef06 3b0c bf3e c7bf
00000380: 361d 2ca5 4aeb a23f d406 ea87 fddc bebf
00000390: 047d 54e5 c3b3 933f 8472 5dda e6c6 c1bf
000003a0: 335e ebaf f9e8 b83f e2c3 82e2 cb56 c43f
000003b0: e369 8ca4 526c a8bf 8269 9d09 c158 91bf
000003c0: 642e ba39 9588 91bf 7b2b 959f dfe7 c43f
000003d0: 8aa5 0455 f07a b1bf 1a35 bf43 a437 883f
000003e0: a66b d4e2 f9c8 bc3f 08b5 e13e 2ca3 ca3f
000003f0: 1559 96a6 a680 923f 435c 2d14 600d b0bf
00000400: d0d7 87ec 49c1 7f3f 3885 8858 a287 c83f
00000410: 1eb9 a047 b79c e13f 5ca3 59e5 169c c6bf
00000420: e3cf 919c d563 6cbf 7bb8 72fb efe1 b73f
00000430: 6cba 320f bea8 d1bf 8af4 03bc a628 b23f
00000440: 6163 bfc2 f420 b6bf 1517 296d aaed cbbf
00000450: 891c 3ced 2075 a4bf 8efb d3ed 6e43 d1bf
00000460: e56c 487c 3e0d db3f bc5e 47e3 ec16 c3bf
00000470: f78c 02eb a0c9 d53f 0752 f1f5 1249 ccbf
00000480: a7ee 63f3 ea2e b63f 32ea 58ef 28af bdbf
00000490: 41a1 f909 2da6 b3bf a549 2318 d026 b7bf
000004a0: f2eb ad9c 5ba1 b23f b5ff 5c91 7369 d13f
000004b0: 9ee4 9aaa 9d4d 8ebf 5f04 a2cb 1252 d7bf
000004c0: 227c 5b2a a8f5 c6bf b546 47af eb3f b03f
000004d0: bddf d38e 279e b53f e4c5 c4eb 8f03 ca3f
000004e0: 219e 2390 8a18 d7bf a67f d1d8 eaf7 b13f
000004f0: b134 dc53 a732 b53f 383c c39f ae1d 963f
00000500: d31e 6f1c e3ef d33f bbbf da5c 5d1f c2bf
00000510: feee 246b 0c5a c1bf e788 8867 3a4f de3f
00000520: da65 aa8a 7403 d1bf 9292 9a01 cf06 ba3f
00000530: 435f 5e8d a89c debf 7911 b74e 4ed7 c8bf
00000540: d6c2 dc35 8037 a3bf d17e 62bd 2e00 c83f
00000550: 83df 99b8 732f c2bf b605 5b47 9526 99bf
00000560: 22a9 88fe 904c c73f 8d31 ef3f 7b1d d13f
00000570: 8a4e 2be7 955a 963f 5d93 f994 96e1 d8bf
00000580: e59a ff2d 6ebc c53f a293 ef38 3778 c2bf
00000590: 7570 9da3 842d ce3f c579 5c05 0d0e cbbf
000005a0: 17f5 28de 0b12 483f c8c5 501c 6f23 e1bf
000005b0: f472 d1a7 8d0b c0bf c1c5 603e a5e5 d4bf
000005c0: 0eb0 315e bd6f a8bf 7090 7a86 53c4 d1bf
000005d0: 54b3 79f7 8f01 ca3f c880 5ba0 2d34 a13f
000005e0: 088c 977f d4c2 bfbf 2e91 63e7 e41f d2bf
000005f0: 313d 3845 4052 cabf 9dc3 9bde d557 c1bf
00000600: 5ac5 bb69 e4a4 7bbf 3b5e f0dc 15fb d1bf
00000610: 64fb 266c df11 da3f ac60 5b5c 4828 c33f
00000620: 25d7 044c cc88 dcbf 7a7b baff f1a6 c2bf
00000630: db72 8dba 2ff7 b8bf c407 8547 9f89 e1bf
00000640: 1f5b 0324 3ade d8bf 2d59 b7b5 e8a4 cbbf
00000650: 4961 e081 593d 9abf dca1 4d0a 8db4 d1bf
00000660: 9f23 7c6e 430c a53f 35b8 d047 0971 c53f
00000670: 4911 0e2a 818e b5bf 9c94 a151 df80 b0bf
00000680: 24cb 94a7 7e58 debf 14d9 bacb 081b 613f
00000690: 7c63 0fc1 0e14 e23f c9db cf5c 5d1d d13f
000006a0: 6e44 edd6 e642 c03f a323 7212 e11e a13f
000006b0: 90d7 1a61 c22c dabf 8d4e 0321 5590 c83f
000006c0: 2169 ce32 7f90 d7bf 1a02 7943 bf4a cd3f
000006d0: 1698 779f 240b d0bf 3a15 bfb7 38ae d1bf
000006e0: 8306 677c df64 903f 8a98 feed 2dd3 d7bf
000006f0: 938e ee60 71a1 b2bf 7986 b440 8b06 c23f
00000700: f135 8f52 da06 a43f 35e8 8c20 0639 a53f
00000710: b5f7 3001 4105 ccbf 95c6 4bbe b89e ca3f
00000720: cc2d 3582 3c09 bdbf 518c 192d 6458 85bf
00000730: bf2c 3add 45fe d43f 7bff 8e77 10fb 983f
00000740: 7520 483a 5ec3 e1bf bb8a 47b2 c096 d23f
00000750: d3e3 f7d0 bc8e cc3f 5909 6742 5da9 ba3f
00000760: b6a5 20ba c49e c1bf 6a2e 4b25 fa16 d03f
00000770: d094 85d6 4492 dd3f 13e6 f47a 6a2c ccbf
00000780: eb7e c728 5823 c53f 07d3 c070 6ed4 cdbf
00000790: f321 736c d6fc c73f d192 ddd5 61e3 d3bf
000007a0: 8c3f 897d fd7f 66bf ff6d 309f 93a0 ba3f
000007b0: f252 dab8 2fa4 c4bf 099e c5ce 6274 d5bf
000007c0: 0b7f c2eb af05 7f3f db85 d840 c7af 7fbf
000007d0: df5c 1a5c 502e ab3f 8c69 be10 de22 8c3f
000007e0: 710b c777 7f0b d23f 7b70 6076 5881 b83f
000007f0: 9c4e e566 30ac d03f 1b84 e991 5c46 c03f
