run/pinn_model.pt (torch, 276772 bytes, 8 tensors)

linear.0.weight f8 [128, 3]
0.014247009147808326 -0.0448081054601831 0.20032333583053488 -0.1034658769093457 -0.0464398224611664 -0.028844545350594507 -0.2605891511516471 -0.17961919615199504
-0.20056469546655645 0.012975445738894604 0.17377402406862916 -0.07855492314207667 -0.08125854987339073 0.1426957766808932 -0.17711032700029558 -0.08454180889941817
-0.16724508131360746 -0.20983699171245862 -0.13052434301681956 0.12803493607154767 -0.17110928589818766 -0.01902629950889505 0.10656143587369098 -0.17425916944694186
-0.20292953056316834 0.051722828041041446 -0.017275625320192802 0.10403353515253207 0.08868298065215666 0.1509260563222516 0.22038503093265077 0.045125046215635296
0.2212780694963861 0.015536621070773844 0.1544997500730493 0.1585141770935862 -0.37819321620151575 0.04942379037522485 -0.030657770716007397 0.16101353698368298
0.13761579928336864 -0.14778116703764516 0.022232413438366287 -0.05220379859864575 0.050622262729887194 0.2068766208628641 -0.027611743710565764 -0.11621015483383028
-0.23425787805542211 0.09338332122537828 -0.1459184493138242 -0.2589083803454224 0.050555786041992026 -0.15434607159543956 -0.3170927610496652 -0.041506977201442134
0.08954564413111761 -0.17737573980618085 0.17112271800614212 -0.13719646744375041 0.03014761083854915 -0.00105096584745593 0.18682482996340194 0.23279571005970087
-0.09334793856063527 0.00975882912465183 0.1924060879189574 0.06809539717406558 -0.13107566179856553 0.04143035405478487 -0.0514437100329656 0.128875659966472
-0.31516518755077244 -0.10292802759369674 -0.009236152424823134 0.09675388215421231 -0.17884526428320682 -0.08762384233643909 0.2214603775532481 -0.08710620135146813
-0.1758219942428631 0.23496743542054366 0.06193000512191589 -0.1580571860972004 -0.26251243427716464 0.03627563594428753 0.03986391565683329 0.24549129157683944
0.1360779133765368 -0.03912712346207948 0.17996050560278243 0.17248133041009886 -0.15012445748174552 0.15179713181851187 -0.19345691391104125 0.102014616843613
-0.17493152379242066 -0.23011913308824267 0.11982648634513399 0.07908672633320107 -0.18605749982212963 -0.1151562285834379 -0.28996458131431707 0.04996923657773929
0.09917683066974105 -0.057852350354673954 -0.03945560070086726 -0.15166845614351007 -0.14135537276042578 -0.09969704617787659 -0.014923856825609648 -0.023778409400054393
0.17577331759242348 0.16280369474605585 0.1495300501955073 -0.09429502587663667 -0.13441718926126606 0.07793269416013215 0.17944176813333435 0.002066202351778062
-0.2982522449871649 0.012377640466783432 -0.17477416101451326 0.26256526178885414 0.15314188215697042 0.15791610593495597 0.25967995161894947 -0.09756179432546289
-0.13879462645638713 0.13392475906933113 0.07981848053506777 -0.10248965979559596 0.32547499341429015 -0.15912111517995522 0.07873246190564541 0.23534953997681796
0.20265587106336466 -0.005767811243305905 0.13525580287469008 -0.1000968779469177 -0.1423861822366575 -0.05494928118984564 -0.16767461285574659 -0.045342683028402
-0.02325862558084885 -0.17080805695089035 0.2156349391980821 0.21454253920021465 0.17185218291834886 0.05043260331855413 -0.10673174285149596 -0.15122782854241112
0.004498884401927606 0.1880398660174415 0.0706143662904891 0.10311174353950227 0.15238221961233384 0.16966565188309585 0.09600496815923654 -0.05279008499291832
0.13807941258486134 -0.09072972679686103 -0.035050349920181315 -0.022011173448073285 -0.0716864535548898 0.3396970753842056 0.06644662425580683 0.008468935715080035
0.052814161237473706 -0.166149844788828 -0.054375870160838974 -0.03352701750291687 -0.1255042253762634 -0.19982194458341443 -0.20490460037634325 -0.0013186590636338248
-0.15736824297984717 -0.2945346416129543 0.18621861188292319 -0.030597895327432567 0.1982983594073678 0.1801995361543444 0.20530705214054656 -0.059406464664125205
-0.08696907713286435 0.19270833657994957 0.01652640855616403 -0.1648252420151604 0.19600196644532444 -0.08638447710753813 0.17306761970027018 0.21281316185022087
0.24336088305435682 -0.0628022670288514 0.01118903021688946 0.0027706692665682153 0.07916602024345776 -0.06925675647332066 0.2260011481054878 -0.06251318511418824
-0.13564384807583 0.3034591440484569 0.0761490317633127 0.025525685805982037 0.12363953592101976 -0.1738667102961862 -0.10741700524572516 0.020436876991896363
-0.16871791972592123 0.05704314420690996 0.028509054626794823 -0.19173757615920703 -0.16019952561995604 -0.07413340070173242 0.04035178198792239 0.13995508234577683
-0.26934834983610223 0.17025403285632895 -0.11286464473227424 -0.13569532605701898 0.013914092277694032 0.007934247045328337 -0.15629900599382318 -0.057425901717398316
0.13578846593792293 0.12601340320851093 0.040092529243462495 -0.02637890258157642 -0.1251258684502299 -0.024018362683958804 0.16370807212777744 -0.2249811393915258
0.13558535066577493 0.17706012843794047 -0.2498156984908494 -0.04218569674952198 0.13906936986370455 -0.0352023654245492 0.14643717285716648 -0.1104876334356226
0.07416656902279717 -0.1849646298221924 -0.038406979758112185 0.13483788900793672 -0.2063843156998587 0.15931974600861157 0.09589476324165153 -0.14170003467044345
0.012423487182267101 0.05799618505171233 0.06901742248441342 0.08808944152064115 -0.06802287739275002 0.023442660596286132 -0.07143990361460822 0.141006304000205
00000000: d05e d832 892d 8d3f 502b 1887 16f1 a6bf
00000010: 5d46 02f0 31a4 c93f aedd 935d bd7c babf
00000020: a0cf 67dd f5c6 a7bf 3390 cbab 6c89 9dbf
00000030: dfe0 781e 7ead d0bf c772 9a06 c3fd c6bf
00000040: 656a e19b 1aac c9bf eaed cbd8 de92 8a3f
00000050: 2f71 222b 3a3e c63f 67c3 d5e9 2c1c b4bf
00000060: 5602 3a3e 5ccd b4bf b195 0fef da43 c23f
00000070: 6f04 201b 8dab c6bf 7620 5e30 88a4 b5bf
00000080: b753 546d 4968 c5bf 34b1 7244 f0db cabf
00000090: 7b68 4b8c 05b5 c0bf 9b1c 96e3 7263 c03f
000000a0: adc0 7cb9 e8e6 c5bf cd50 9e58 a17b 93bf
000000b0: 3ba1 173a 9c47 bb3f 1cc0 e6dc 1f4e c6bf
000000c0: 15aa 9448 98f9 c9bf d02a c91d 6a7b aa3f
000000d0: 279d 1297 b3b0 91bf 2dda 2a17 f1a1 ba3f
000000e0: 5ae1 9c85 edb3 b63f 7658 0286 8b51 c33f
000000f0: 8a1c 31a2 9335 cc3f 710a 744b a11a a73f
00000100: 198d e7fb d652 cc3f d752 1dfb a9d1 8f3f
00000110: dde6 e6d6 a5c6 c33f fdde 484b 314a c43f
00000120: 6fe4 c951 5134 d8bf 85a5 9c36 134e a93f
00000130: 41c3 5f2a c064 9fbf 4273 c771 179c c43f
00000140: 40e0 aafe 649d c13f 5e19 b247 7eea c2bf
00000150: 4e07 8402 18c4 963f 2d93 6acf 74ba aabf
00000160: 6aaf bf45 29eb a93f f1dc 74e0 ee7a ca3f
00000170: 67c0 e3c0 4046 9cbf 1b72 79de f2bf bdbf
00000180: d108 8a82 29fc cdbf 0fa5 a726 f8e7 b73f
00000190: dacb d7ab 74ad c2bf 5c9c 8f74 f491 d0bf
000001a0: 3a0d 59af 72e2 a93f cc5d e2b0 9cc1 c3bf
000001b0: 086d a06f 3f4b d4bf 4fa3 450b 6740 a5bf
000001c0: 05db 0a9d 76ec b63f 1122 c98c 3fb4 c6bf
000001d0: 8131 b866 59e7 c53f f618 6662 a78f c1bf
000001e0: 2b9a 6aea 03df 9e3f 9316 6bfc 1138 51bf
000001f0: 6a04 6343 e0e9 c73f 7781 adf4 3fcc cd3f
00000200: 8f56 4487 a6e5 b7bf 2a45 80df 6ffc 833f
00000210: 7ce4 943f c3a0 c83f fbe8 de2f b36e b13f
00000220: 87fa 5c58 16c7 c0bf 9b39 74ff 5b36 a53f
00000230: 775d 5a78 d456 aabf 9038 6764 ff7e c03f
00000240: cd91 579b aa2b d4bf 8c51 5bc0 7d59 babf
00000250: 4909 d864 67ea 82bf 7706 9dc7 dcc4 b83f
00000260: 6107 92d0 66e4 c6bf 6353 2f21 846e b6bf
00000270: ccba 794b d058 cc3f 3456 158e 974c b6bf
00000280: 7e65 98c9 5581 c6bf 0ccc 60b5 6913 ce3f
00000290: 2a8c 4725 4ab5 af3f a7b6 97c6 373b c4bf
000002a0: a2e1 00f4 00cd d0bf 236d 0b5c b892 a23f
000002b0: 69bd 120c 0b69 a43f df3d 6336 426c cf3f
000002c0: ae7f d445 006b c13f 91f7 4f67 7808 a4bf
000002d0: 885a 1123 f208 c73f c516 a444 de13 c63f
000002e0: 185f 9b39 4737 c3bf 01c0 64a2 166e c33f
000002f0: dc6c 3737 32c3 c8bf 77aa 0e43 a11d ba3f
00000300: 962b ddfa 2764 c6bf ba20 6633 8b74 cdbf
00000310: 5404 0cd8 f2ac be3f cc17 2617 073f b43f
00000320: 69ae 746e bbd0 c7bf 2952 b2eb e07a bdbf
00000330: a192 6f9a c78e d2bf daa0 d059 9195 a93f
00000340: 095a 3f1c a763 b93f 2045 8ac1 d29e adbf
00000350: 1cfb 4e45 8633 a4bf d34f 7c39 df69 c3bf
00000360: 7959 8fcf ee17 c2bf 027f d7e0 be85 b9bf
00000370: 1f2d f827 6690 8ebf 0483 e50a 5e59 98bf
00000380: 12d1 4875 bd7f c63f 6917 4d60 c0d6 c43f
00000390: d2f1 adf9 cc23 c33f 03cd 5004 b823 b8bf
000003a0: 5add f21b 9534 c1bf e0f9 b4a4 65f3 b33f
000003b0: 9ca4 d5a6 f2f7 c63f 72c7 e3f0 23ed 603f
000003c0: c76b 8b95 9016 d3bf eb45 0dc8 7259 893f
000003d0: 4820 dfec ff5e c6bf 41b9 1c87 decd d03f
000003e0: a38b c137 279a c33f 9c4b 404f 9836 c43f
000003f0: 0556 e8a8 989e d03f 7a89 f74b cff9 b8bf
00000400: e2cf beb6 05c4 c1bf 19ea 294e 7224 c13f
00000410: 26b8 83e3 fb6e b43f 6e10 0029 c33c babf
00000420: 0f55 1811 95d4 d43f c185 e6a8 145e c4bf
00000430: 27b0 0485 cf27 b43f 381f aa08 ef1f ce3f
00000440: 239f 47a9 a0f0 c93f d54f 8d0a fd9f 77bf
00000450: 3c73 f8e8 0f50 c13f 09b6 36f1 f29f b9bf
00000460: 32eb 0dde b539 c2bf 2e56 4ceb 4f22 acbf
00000470: c4dd 4a99 5c76 c5bf 3894 70f9 2737 a7bf
00000480: 31ed e0f0 1bd1 97bf 22aa 3fd5 09dd c5bf
00000490: f187 ddf9 ec99 cb3f b69c bb42 2176 cb3f
000004a0: d2b4 b098 40ff c53f 8d87 cf5b 4dd2 a93f
000004b0: 8d04 fe80 c552 bbbf 20d9 eaf8 6e5b c3bf
000004c0: 1a08 ff15 6c6d 723f 1ccf 71b9 b011 c83f
000004d0: 276d d879 c813 b23f 89f0 55fe 8765 ba3f
000004e0: de09 ddb4 4281 c33f 56d4 0ba5 9ab7 c53f
000004f0: 6058 7f16 c893 b83f 78fe 3151 4d07 abbf
00000500: 74c4 a610 96ac c13f a416 5e39 103a b7bf
00000510: c2b6 3d95 1ef2 a1bf 8d9a 6cd8 188a 96bf
00000520: 21a0 951d 0b5a b2bf cf9b 54cd 98bd d53f
00000530: f0b8 1b5e a502 b13f 91f1 6c4f 2958 813f
00000540: 7cad 8f2e 750a ab3f 3c3f cdea 6544 c5bf
00000550: 9c8f 1070 27d7 abbf 9036 6a07 742a a1bf
00000560: 551c c0bf 8510 c0bf 4923 81f6 c393 c9bf
00000570: bf4a b55e 503a cabf 1568 6263 db9a 55bf
00000580: ab82 8380 a424 c4bf ee11 51d3 a7d9 d2bf
00000590: 3fca f8ef 02d6 c73f b0f0 07ff 0d55 9fbf
000005a0: 13a7 4034 d761 c93f 8dc5 4445 c710 c73f
000005b0: e478 4a61 8047 ca3f 1a8a ce2d 866a aebf
000005c0: 3d88 0cfe 9a43 b6bf 4883 a3b1 aaaa c83f
000005d0: 3a84 1381 4cec 903f c254 0158 fe18 c5bf
000005e0: 3dcc eaa9 9716 c93f 7e16 0f08 4b1d b6bf
000005f0: 1cfb 4d6b 1427 c63f fe0b 2731 763d cb3f
00000600: e20c ec0c 7326 cf3f 59ea 0033 cf13 b0bf
00000610: 4c0e d836 46ea 863f 0007 6abc 83b2 663f
00000620: 986e e66b 3944 b43f 8277 1490 cfba b1bf
00000630: d95a fc09 9bed cc3f 105d a235 dd00 b0bf
00000640: 01d4 b111 c75c c1bf c10e d7e6 df6b d33f
00000650: 72a5 0bc1 807e b33f 4489 fac6 6723 9a3f
00000660: 5afd 4533 d7a6 bf3f b1e8 4aad 4341 c6bf
00000670: e78c 904c ae7f bbbf 4812 4099 67ed 943f
00000680: 016a bc7d 8c98 c5bf 25cd a84d c234 ad3f
00000690: 923f 0c45 7a31 9d3f 3751 825d db8a c8bf
000006a0: a2ab af05 6b81 c4bf dd21 8e13 68fa b2bf
000006b0: d967 f21f fda8 a43f bdc3 ca52 0cea c13f
000006c0: a0c4 71dc 003d d1bf 3aa5 9057 e2ca c53f
000006d0: 5bf1 ff85 b2e4 bcbf 2546 d1e5 765e c1bf
000006e0: c52e 4ada fd7e 8c3f 14e3 9f9c d43f 803f
000006f0: 0805 9217 9b01 c4bf 399a a383 ed66 adbf
00000700: 484e 3036 8461 c13f 0fb1 d10a 3521 c03f
00000710: cd45 d40b 0287 a43f 8ca7 912f 1203 9bbf
00000720: 894c 70dc 1f04 c0bf 939d ec08 4598 98bf
00000730: 46a4 f0d7 62f4 c43f 4aa3 f395 2ecc ccbf
00000740: 908d 765b dc5a c13f 8783 8802 e8a9 c63f
00000750: 0cd6 85f7 f5f9 cfbf fedc cb17 5d99 a5bf
00000760: ec4f b86d 06cd c13f fa05 7b60 0b06 a2bf
00000770: 9f8c 2b0a 74be c23f 5eeb 37e4 ea48 bcbf
00000780: 18d1 688c 94fc b23f 5b64 00c6 ebac c7bf
00000790: 879a ff63 14aa a3bf 817f c631 5e42 c13f
000007a0: 344b 2b1f cd6a cabf c964 5be5 9664 c43f
000007b0: bc05 fb27 8f8c b83f 1c35 600b 3a23 c2bf
000007c0: 206e 3339 7c71 893f 3f03 2e0c adb1 ad3f
000007d0: c6bd 6c34 20ab b13f 293d 7496 078d b63f
000007e0: 1f1c c881 f269 b1bf cf7d 5e52 5a01 983f
000007f0: 5c75 a7b1 e249 b2bf b1f8 1a9c 7e0c c23f

linear.0.bias f8 [128]
0.032154100933609535 0.012635150205572399 -0.07916684441270183 -0.03551240620465255 0.015757533606884824 -0.09063914479104106 0.01571063502188418 0.00857688374098639
-0.0188256085783706 0.05921634421405427 0.1102540317568339 0.0649413225351204 -0.09516600582128769 0.036779255901037006 0.053420920382931024 0.08898666979025843
-0.07453988888454191 -0.07123856537340753 -0.07450926514923177 0.0065867501951234675 0.011692912115112161 0.07607494470935852 0.07670626348625523 0.039211079441767265
-0.07162092292943033 0.028566217709913102 0.0018769601935144506 0.0698939097073607 -0.051420593641764246 0.09081051407986947 0.06926467443208835 0.058348129619345164
0.01833801987999328 0.0750351290032602 -0.008731149875391572 0.04054652547674112 -0.03459323260336942 0.0004902522938862858 0.020241034723893787 0.039236409623582755
-0.0903284740260969 0.11370429948810994 0.04937395446429353 -0.006728797486397749 0.12638323664325882 0.009913626390222717 -0.0870648812534539 0.010769629095403915
-0.008929967279974133 0.05486643010862821 -0.007959607659137169 0.004016975846207332 -0.012709443744616208 0.09595839460909446 0.07041848562579248 0.13177099372723194
0.01773406783463175 0.0017190097274094821 -0.08921078023633247 -0.05596738984228056 0.001049269086815303 -0.0006620525090805776 0.005316708654465826 -0.03826365063593687
0.032369256930856356 -0.040395479802493334 0.01527583682080938 0.04822198387853433 -0.007764483233994821 0.040271093805299286 -0.025158072340733036 -0.06473552593009581
-0.09194021490965357 -0.02223643817563984 -0.012280142566710783 -0.03221977331380597 -0.007345557924576993 -0.007527191552632856 -0.03700506965369363 0.06937235636972848
-0.02533409826681763 -0.0101002743277006 -0.04200697655259348 0.0017966797298882395 0.01962690010045081 0.05840957517249985 0.036104964009410496 0.04399508826684417
0.0599044499041562 0.030259193788807152 -0.00991184323779954 -0.07490166520396176 -0.008628269437135822 0.044342470382457914 0.0042280937435288605 -0.08772985240983394
0.03638474896601252 0.04470439398473101 0.058630605782987136 0.07772497937690392 0.050794699524743143 -0.044339709254821044 -0.022228693834764685 0.017130109972378474
0.023072971831257758 -0.03156848671457512 0.008897708154550429 0.012891397837938048 0.03829405056664934 -0.05596329120833236 0.019340312239941693 0.031453072864635605
-0.02673495731712546 -0.014666924399701334 0.031730804857936036 0.104893716538252 0.02086329856080595 0.10335550408582725 0.04721385681371045 0.04390243520284821
0.07065727438108571 0.004055351534247022 0.06584510997047231 0.019558020367900962 0.08156460462260427 0.05900905588547878 0.043362577420538194 0.05275681460002839
00000000: a75f e297 8076 a03f 0dc9 4d27 75e0 893f
00000010: 6019 ae3f 4744 b4bf dda3 809e ae2e a2bf
00000020: 245d 072e be22 903f 0f6c 9d82 2034 b7bf
00000030: dd39 79de 7216 903f 3061 5ad9 c190 813f
00000040: 2983 af34 0547 93bf 3b7a 93cb 9a51 ae3f
00000050: c0d2 a5b4 9b39 bc3f 3784 7298 fe9f b03f
00000060: 1b81 b1a2 cc5c b8bf 4c47 880a bbd4 a23f
00000070: a30e efa3 fc59 ab3f d473 8794 d4c7 b63f
00000080: 52af 01d1 0b15 b3bf 6e24 7ecc b03c b2bf
00000090: 1ba0 1009 0a13 b3bf 97b4 cc4a b5fa 7a3f
000000a0: 8b07 0919 74f2 873f 225b 92c7 a579 b33f
000000b0: 2263 128d 05a3 b33f 3fbe af7f 7913 a43f
000000c0: 17f5 b0b1 bf55 b2bf 4785 566b 7640 9d3f
000000d0: bc13 69a9 8ac0 5e3f 0cf8 6138 91e4 b13f
000000e0: 6587 10d0 cc53 aabf f521 1b9c 5b3f b73f
000000f0: 3d33 7467 54bb b13f 09e7 fe58 cedf ad3f
00000100: 9fc2 a1ae 33c7 923f bcc1 1e91 8035 b33f
00000110: b8c8 5e19 a3e1 81bf 742f c7a1 83c2 a43f
00000120: 6d87 6345 34b6 a1bf 76fe d5c8 8810 403f
00000130: 558e b4d8 10ba 943f 6e9f 4a70 cb16 a43f
00000140: b8f4 d651 c41f b7bf 334d b797 b91b bd3f
00000150: 068c 65ff 8a47 a93f 6fe8 53d2 a78f 7bbf
00000160: 4d9d 126e 532d c03f acd0 0b69 984d 843f
00000170: f71b 9d51 e249 b6bf c3d9 0926 630e 863f
00000180: 1ded 5feb df49 82bf ecfd ede5 7317 ac3f
00000190: c00c ae74 204d 80bf a067 36be 1a74 703f
000001a0: eb29 dea9 6807 8abf cd6a 9fb6 ba90 b83f
000001b0: 9aef cb24 f206 b23f 4e58 4f36 dfdd c03f
000001c0: a9c8 7f25 e128 923f 68fe e2a3 0c2a 5c3f
000001d0: 22d1 9087 84d6 b6bf 40b8 07fa c1a7 acbf
000001e0: 1ea3 671a f430 513f ee57 f7ef b2b1 45bf
000001f0: c951 b11c f9c6 753f 04be 3610 4b97 a3bf
00000200: 11e4 d307 b492 a03f 2cdd 5061 b7ae a4bf
00000210: d0e8 831c f048 8f3f 29c0 6947 8db0 a83f
00000220: 8a2f f798 a6cd 7fbf 855e bcad 699e a43f
00000230: 5243 bca7 09c3 99bf c955 c2e6 8192 b0bf
00000240: 7263 39d8 6489 b7bf aac0 f91a 26c5 96bf
00000250: a0c3 b6d5 5426 89bf 4dac 5531 1c7f a0bf
00000260: 5731 e930 6016 7ebf addf c918 d5d4 7ebf
00000270: 3ccb e517 54f2 a2bf a7bc da01 63c2 b13f
00000280: da57 1e8e 2ef1 99bf 1b46 58df 73af 84bf
00000290: a594 fe3c f081 a5bf 32b3 992b d26f 5d3f
000002a0: 0e93 36f8 1219 943f 6a3d 471e dce7 ad3f
000002b0: c98f 498f 597c a23f 70da 9432 8686 a63f
000002c0: 0d4a 72ca cbab ae3f e1ae e71e 44fc 9e3f
000002d0: 643a 6514 a94c 84bf 7d8a 776a c12c b3bf
000002e0: 90b8 6db8 b2ab 81bf 97a6 3b68 0eb4 a63f
000002f0: 1a64 a545 7a51 713f 4caf fbae 7675 b6bf
00000300: e1ae c395 05a1 a23f 4dc8 4d8c 7ee3 a63f
00000310: eae3 c3ac d404 ae3f 408e 81c4 c8e5 b33f
00000320: b1af 894a c301 aa3f 06c4 53c2 b1b3 a6bf
00000330: c562 3664 1ec3 96bf d4d8 6e38 8e8a 913f
00000340: 9943 bfed 70a0 973f 5fef 0ba4 be29 a0bf
00000350: 5ee2 432c f638 823f 4ecb e820 ce66 8a3f
00000360: 9d58 a11d 479b a33f 055a 0873 38a7 acbf
00000370: 9d89 4262 f2cd 933f bfe7 9ffe 9d1a a03f
00000380: 1619 599d 6860 9bbf 1577 0945 b109 8ebf
00000390: d5fb 4722 053f a03f a272 168a 50da ba3f
000003a0: 4579 0544 305d 953f 5604 e99d 8175 ba3f
000003b0: cba6 dd25 6a2c a83f 916d d246 617a a63f
000003c0: 88f6 b05a 9816 b23f 42fb 6923 589c 703f
000003d0: 47b9 eca1 39db b03f d625 6b87 0407 943f
000003e0: 6781 5dfd 6ae1 b43f e055 645a 6f36 ae3f
000003f0: 0370 c8a7 9e33 a63f c64e b2f2 f002 ab3f

linear.2.weight f8 [128, 128]
0.04675464888434177 0.12399622908186925 0.009356322483964272 0.13551007933717502 -0.0460158896343681 0.13993415740301948 0.07992797782471568 0.02036649646919472
0.05627142855900302 -0.03817033048857831 0.011366893226659737 0.12357380746889568 0.09762586842912815 -0.0021210872851726193 -0.09200277493158093 -0.05969692532402835
-0.11434497409331308 0.1369016133214347 0.01909698269615006 -0.05611834559690502 -0.08966597770897188 -0.03126031259995033 -0.03231189036765799 -0.030913987853465885
-0.1188305386619705 0.05653902380161357 -0.0576702218644831 -0.02437076225779078 0.1447738952303051 -0.0646941397130805 -0.07169773924775943 -0.03428274586538587
-0.027062436078165462 -0.05919270562792378 -0.11239163681458025 0.09264027093726801 -0.011077931992674034 0.12000024559581053 -0.1120528809081931 0.1013361011544111
-0.07577232447377852 -0.06003991527607263 -0.07237555209701177 -0.09368274842062958 -0.06110998081960955 0.07737182759271462 -0.010751227654935388 0.11345341315185249
0.0649989638123486 -0.125739139740574 0.057650808175138506 0.05525693255947709 0.036672136073945635 -0.15452760799779167 -0.15379373024221488 0.11094861004479643
-0.040293696346581 -0.10974044054840765 0.05994347694337072 0.0836823983293687 -0.08185970733709053 0.06960923930996192 0.041423746765386946 0.064115518266628
0.006231805816297967 0.131426484556714 -0.09168863603506547 0.07329066338718634 -0.0617675249602203 -0.11662726840605285 0.09432675672046467 -0.029748329587925153
-0.11845379506455725 -0.05859594886132874 -0.09989654780980735 -0.021201249505824943 0.08678912440332698 0.043313547905699676 -0.022566918859170625 0.08225164846712633
-0.13969058264734113 0.028565592002272915 0.1118898774731261 0.005305123042585417 0.05433793491107766 0.041214307815937025 -0.0917290240966092 0.08742667293096411
-0.04791627539655258 -0.07697462191315908 -0.10583023678230882 -0.08393441986230434 0.11898348231277724 -0.010235678950719118 0.02655840087708702 0.041493564868638
0.10094780468298084 -0.09737646587722705 -0.13552724317373072 -0.00808102061086845 -0.10532840098622157 -0.029010700290004278 0.13545671839410722 -0.09156767421971103
0.08830792246538102 -0.09508747423669626 0.06156880392798078 -0.08482325095618519 -0.08541430431265602 0.042648675935666056 -0.13785589144751434 -0.07338663712702917
0.029186168343734557 0.10756105210399682 0.12013239207332274 0.03300590477199585 0.11306466694032404 0.03808809823042234 0.03487531751532973 -0.11435717131346111
0.1242710072558363 0.09709785712999994 0.14591274027515744 -0.1268864718050761 0.06422487109993276 0.12701813073260748 -0.12900772887560402 -0.008694483129729513
0.06181913525514577 -0.04348998852189005 0.0655831235081582 -0.08618404871872973 0.1120606350562499 0.07692782094227915 0.04655636909825859 0.009460888111056952
0.10609709555526281 0.14192077138654585 -0.08572731043913333 0.12336458872838604 0.11598325238712365 0.01629201301303294 -0.0767685588293712 0.0024729071291815113
-0.12508939028650123 0.08652887254210835 0.08035523668724227 -0.014608849924728403 -0.10962839773196766 -0.0033298776508231165 -0.10854453391285669 -0.14358147614687508
0.1097144399408309 -0.055210257775142386 0.13297565009338955 -0.12363021449633418 0.05264803323173972 0.11258614982027422 0.1096567408166718 0.14522230073510634
-0.11504277648580946 -0.06791310822999864 0.02471435505528464 0.01581600503193838 -0.010998191327406478 0.1431724489424999 -0.1528984241187067 -0.13401369774324742
0.08087350762247213 0.07735860329078266 -0.14930699213050605 -0.11697326005335867 -0.0841266085489174 -0.11584904205818758 -0.1270662188378856 -0.05661907049862141
0.1534212279162605 -0.05422960565922019 -0.0844226367505654 0.027271877987499193 -0.11929688429525362 -0.0014951812656892733 0.10413421932341417 -0.08868128531854447
0.056999853329429896 -0.09097422638636961 -0.09224337558750109 0.15422229049938363 0.12048246381268748 0.12720369330704023 -0.03749131758098155 -0.1436686348004565
0.02746089820484238 -0.15170678649420627 -0.028312170712243977 -0.15210875930233453 -0.07676748669136374 -0.06287205368357957 0.003967361306679983 -0.07573022477671999
-0.07617711266636092 -0.1109323577361469 0.11741936936693095 0.051907831294343634 -0.09529907772412495 -0.09147838164806697 -0.06640301680653002 0.14764496500084204
-0.015519727300909234 0.03619123335947395 0.008591575000626366 0.11324455472747656 -0.024631850023842553 0.06218520596957903 -0.06381138549294714 -0.12462508127311235
-0.033546354304789056 0.02964799544259754 -0.021771765752142024 -0.04849769685473332 -0.01798566151845016 -0.1281635834570188 0.018159290813063646 -0.10082371425016802
0.08875353962652753 -0.02931284179309703 0.10399685991771385 -0.10996899673062971 0.07409574447719859 0.09807455021048889 -0.05743874593069728 -0.06199520337306207
0.144181228638453 -0.007540540276357692 0.029893454495609383 0.02594102009718958 -0.11430439048928477 -0.07284844955041103 0.14676330820022032 -0.07741477924177642
-0.03549075646958103 -0.056728402175788506 -0.006572568278856576 0.029786862633955094 -0.04398975648978578 0.022466421511312867 0.09273542247441373 0.06854018891853798
-0.11034584458068895 -0.035072741350862184 -0.1323118388121729 0.15345487897194932 0.09469377865348891 0.048925613044450776 0.12652895582169518 0.14321593110634587
00000000: ffd5 c9af 39f0 a73f 50e4 bb84 37be bf3f
00000010: d8b9 a258 6829 833f 3e09 84ef 6458 c13f
00000020: c1e3 260a 658f a7bf 17d4 d1ca 5ce9 c13f
00000030: ade5 caf2 2876 b43f f7c0 1371 f4da 943f
00000040: 7061 b8d2 9bcf ac3f 3f7d 40c2 0f8b a3bf
00000050: 8134 5395 8647 873f 809a b875 88a2 bf3f
00000060: 6a8e 2548 02fe b83f 6967 b210 3e60 61bf
00000070: 78ee 786d 7e8d b7bf 4d7d e06b 9890 aebf
00000080: dd57 3154 b645 bdbf 081b fef7 fd85 c13f
00000090: 8e6a 87d0 288e 933f c5b2 1636 8bbb acbf
000000a0: 0feb d279 59f4 b6bf b11d 8f08 5a01 a0bf
000000b0: 9b53 cd20 2f8b a0bf 403f 479b eaa7 9fbf
000000c0: dbb8 519d ad6b bebf cff4 59d4 aef2 ac3f
000000d0: 7dd7 b889 f386 adbf 60d2 802b a6f4 98bf
000000e0: 8a12 aa74 f387 c23f 427f 4f8e cb8f b0bf
000000f0: c629 4475 c85a b2bf a729 9e10 828d a1bf
00000100: f68c 9f57 41b6 9bbf 20d9 aa9d 814e aebf
00000110: 7c68 76c4 b2c5 bcbf 60d8 f7d5 45b7 b73f
00000120: 3d41 eddc 06b0 86bf c591 580a 56b8 be3f
00000130: 905b ec62 7faf bcbf 8cc2 5ca8 29f1 b93f
00000140: 1489 8ea7 d065 b3bf 9b74 2141 8dbd aebf
00000150: 425f 4945 3487 b2bf f57e aab4 97fb b7bf
00000160: 77a8 28b2 ce49 afbf 3d78 24dd a3ce b33f
00000170: 31bf 5b59 bd04 86bf 1d56 1b6b 480b bd3f
00000180: 9811 d9a7 c5a3 b03f fea7 815a 3818 c0bf
00000190: 377f 661f 6884 ad3f 35c2 70fc a24a ac3f
000001a0: b65f 39b2 b0c6 a23f e5fd 5687 8fc7 c3bf
000001b0: 2c2e dc50 83af c3bf bbd6 adcb 2067 bc3f
000001c0: 4348 1618 60a1 a4bf 2c3c 3413 f317 bcbf
000001d0: 091e 2952 e9b0 ae3f e552 13ac 356c b53f
000001e0: ac78 dffd c1f4 b4bf 03f2 553e e9d1 b13f
000001f0: ce2e 454b 7e35 a53f c10a 1fe6 df69 b03f
00000200: d0fc d0a2 8586 793f 3bea 7f42 95d2 c03f
00000210: de79 2f0d e878 b7bf cea0 594a 2dc3 b23f
00000220: bf69 5137 fe9f afbf 2735 a0df 48db bdbf
00000230: 828c 405f cc25 b83f 9b58 c39a 5876 9ebf
00000240: 12ad e3e7 fc52 bebf 9832 13c8 4900 aebf
00000250: 7590 d3f5 d192 b9bf 8823 0cc5 c7b5 95bf
00000260: b0f4 f5e2 cf37 b63f 6619 757f 312d a63f
00000270: 43f1 e249 c81b 97bf 7359 35ac 710e b53f
00000280: 28c7 038a 61e1 c1bf 7b37 c36d 4c40 9d3f
00000290: 5322 80a4 d0a4 bc3f 51ae 811f d3ba 753f
000002a0: 7421 c08a 2ed2 ab3f 5db9 64b0 0a1a a53f
000002b0: 47c4 96a6 8d7b b7bf 435d 092d 9861 b63f
000002c0: 0874 8c67 7b88 a8bf 012e bddb 9bb4 b3bf
000002d0: 966f e8bd b017 bbbf 893c 51e4 b97c b5bf
000002e0: b92d 4c95 b375 be3f 53fb c392 71f6 84bf
000002f0: 57f9 cd1c 2032 9b3f f3e3 3500 a53e a53f
00000300: e265 b71f b7d7 b93f 79be 5700 aaed b8bf
00000310: a2f8 92ea f458 c1bf 3a94 ef39 c88c 80bf
00000320: 5a67 9355 cdf6 babf 1a23 eb23 fbb4 9dbf
00000330: 9c59 c34f a556 c13f 19fa 24a6 fa70 b7bf
00000340: 8a6d f716 599b b63f 2f19 1b18 a757 b8bf
00000350: ac26 a63e f285 af3f 5b16 cc00 fab6 b5bf
00000360: bd29 a23b b6dd b5bf d607 b918 0cd6 a53f
00000370: e9fb a908 43a5 c1bf e68b 6c76 77c9 b2bf
00000380: e1a7 209a fae2 9d3f 292a 1c01 1f89 bb3f
00000390: ea29 2517 ffc0 be3f 5327 2463 26e6 a03f
000003a0: c981 d756 cef1 bc3f 9d72 8880 4880 a33f
000003b0: 57f8 5478 2ddb a13f f7b8 daf6 8246 bdbf
000003c0: 493a 0188 39d0 bf3f 5691 e2b8 67db b83f
000003d0: f898 c6c7 44ad c23f 8d93 5adf d03d c0bf
000003e0: 75ca f688 0a71 b03f e06f bf4e 2142 c03f
000003f0: a2d9 3944 5383 c0bf 731e 95c5 69ce 81bf
00000400: 192e 60f8 c1a6 af3f 6653 cfdc 5144 a6bf
00000410: e816 a33a 0eca b03f 7e0e af66 2810 b6bf
00000420: 434f bc7a 01b0 bc3f 8a81 19ab 8ab1 b33f
00000430: 1522 6585 3cd6 a73f 068f 39e8 3a60 833f
00000440: d845 9ce3 2d29 bb3f 2a39 ddb7 752a c23f
00000450: 3bca b59a 39f2 b5bf 1eaa 125a d294 bf3f
00000460: c4eb e213 14b1 bd3f 9bd4 4e7c daae 903f
00000470: e27f 88b1 1aa7 b3bf 653f dee7 0f42 643f
00000480: 8cb5 2ddc ed02 c0bf 4565 ba95 c126 b63f
00000490: c550 a229 2992 b43f 2b63 45a5 3eeb 8dbf
000004a0: 21c0 f84e 9b10 bcbf a9d8 8473 4247 6bbf
000004b0: 59b6 5017 93c9 bbbf a35d 2eb8 e060 c2bf
000004c0: 0be0 71db 3e16 bc3f 098f 18d7 8444 acbf
000004d0: 9560 289a 5805 c13f 1229 0fd0 3aa6 bfbf
000004e0: 90ab dbd9 aef4 aa3f 1dec 7527 72d2 bc3f
000004f0: 23f3 97d3 7612 bc3f f850 27f4 a496 c23f
00000500: 6cc8 a582 7173 bdbf 214b d1e2 c062 b1bf
00000510: 8214 d14a b84e 993f e551 7621 1232 903f
00000520: 9ee8 8740 3886 86bf dfb8 f28c 7953 c23f
00000530: 7c92 99f1 2c92 c3bf bbfa 8260 5c27 c1bf
00000540: 67f0 594e 20b4 b43f edb9 32ff c5cd b33f
00000550: 25e0 21d4 7d1c c3bf a488 6fa6 f5f1 bdbf
00000560: 00e5 7048 5289 b5bf 28b0 e966 48a8 bdbf
00000570: 7ce4 2ab3 b443 c0bf e734 3ec0 2cfd acbf
00000580: d6cc 348a 4ea3 c33f 200a 909d fbc3 abbf
00000590: 91c1 e2cf b89c b5bf c02c 3ac0 28ed 9b3f
000005a0: 5614 9098 3d8a bebf 3b86 d0a8 3e7f 58bf
000005b0: 5978 634a 8aa8 ba3f 58dc 3514 d1b3 b6bf
000005c0: 2d78 dab3 152f ad3f 55bd 1b3f 164a b7bf
000005d0: 2ac4 6b09 439d b7bf 0429 0157 8ebd c33f
000005e0: aa26 d151 f0d7 be3f 4a92 57eb 3548 c03f
000005f0: 2edd c9dd 0f32 a3bf 1ee7 f6db bb63 c2bf
00000600: d196 d5ae b51e 9c3f 9674 49c3 206b c3bf
00000610: f6c3 269d ddfd 9cbf b2bf 51c1 4c78 c3bf
00000620: 344b bcb4 08a7 b3bf ac40 6706 6218 b0bf
00000630: 1888 0471 1440 703f 0118 bc56 0e63 b3bf
00000640: f510 9bdf 5780 b3bf 1c80 8b20 1066 bcbf
00000650: ce10 591f 320f be3f 1288 a1cb a993 aa3f
00000660: 1101 2a36 8565 b8bf 272e 7891 206b b7bf
00000670: 562f 8ac1 c9ff b0bf d180 0cbc 07e6 c23f
00000680: 4519 9a89 cec8 8fbf b197 5c47 a887 a23f
00000690: 49c9 30ad 7598 813f 132d 015b 98fd bc3f
000006a0: d165 2b79 1739 99bf 3565 de43 bdd6 af3f
000006b0: fdfd cd65 f155 b0bf e950 54e8 6de7 bfbf
000006c0: d437 47dd fc2c a1bf 1c8b 454b 0b5c 9e3f
000006d0: 23c8 8677 564b 96bf 0845 d8ab b0d4 a8bf
000006e0: 011e 1350 d56a 92bf 4b37 be0f aa67 c0bf
000006f0: 7a84 a460 5998 923f e19f 5d3b 95cf b9bf
00000700: 1fa5 194e 8db8 b63f 86ac 6a83 2f04 9ebf
00000710: dcb7 3bc8 899f ba3f 3430 889c ed26 bcbf
00000720: 3166 4d4f f0f7 b23f 6c55 b9e9 691b b93f
00000730: 9c58 977e 9c68 adbf 0f0a fed5 d5bd afbf
00000740: 2a81 d9ce 8774 c23f b818 195e d4e2 7ebf
00000750: d342 b1c5 639c 9e3f 63ec c463 4890 9a3f
00000760: 29d1 f072 0d43 bdbf 5821 622c 32a6 b2bf
00000770: ec81 7cdc 23c9 c23f 980b 1279 74d1 b3bf
00000780: c5bd b12c d82b a2bf 98dd 3250 810b adbf
00000790: 9e45 ef5c d6eb 7abf 1400 7483 7280 9e3f
000007a0: c31b f74a d385 a6bf 48d2 9806 7001 973f
000007b0: 7356 b536 82bd b73f 71e5 dd8d d98b b13f
000007c0: 173b b911 a03f bcbf 9781 2aea 0df5 a1bf
000007d0: 3834 4926 98ef c0bf fc4e 4cd3 68a4 c33f
000007e0: ce8e 73fa d93d b83f b3e2 ec27 c70c a93f
000007f0: a327 a0cf 1932 c03f cf18 2f4e e654 c23f

linear.2.bias f8 [128]
-0.0899443319267466 0.0035220831285749416 -0.05235392793192027 -0.02897158789384432 -0.007238434293454789 0.050568670718290104 -0.013823147251336702 -0.05521084099440184
0.053892757435662464 0.027521640793421134 0.072798753488876 -0.027354473347699873 0.007193843876946253 0.03807102478943425 -0.020330524004015978 0.06761196091760739
0.0019482019803475565 0.024319616775743593 0.045970868363800266 -0.004837037127884694 0.01964880189703114 -0.03700317490266065 0.08968676339731588 0.04261390101699309
-0.05699856528666857 -0.04074221445292427 -0.021195050010129335 -0.05428152233996739 0.02389256188094617 -0.04884163885640045 0.059053012369343634 -0.01755095147008133
0.023157354629241154 0.01166331678049338 0.049221156832297275 -0.10736499534082886 0.06162204836128423 0.024581125006131153 0.0827217043224689 -0.02653819054741066
0.0075130209104586 0.04606472230438667 -0.06201087281900206 0.0025530469643793084 0.10331300640181665 -0.037861634808499633 0.065823412768205 0.038894013626377885
0.032493505381116054 -0.015097251468575129 0.04693668274845605 -0.015799369003610324 0.030548175723842132 0.13973867117827016 0.0021930567062826522 0.17828395126604343
0.004327103779963836 0.09724564438537693 -0.025046962979651314 -0.04738152770004235 0.0038336936561970307 0.039545728969876966 0.009095027648606535 0.03701057026520873
0.06979481040363712 0.02871197972640296 -0.008694332529360397 0.005327860450365247 0.013617542202100298 0.015370723506251165 0.007354267731645985 0.03864979801014593
0.03808635465128535 0.003294598443954796 -0.07136113906557988 0.015100911958562573 0.00444553362570179 0.05368805910066219 -0.017700337898690646 0.016153272873604022
0.015337182393528149 -0.016006773011540246 -0.05688932984822519 0.06803065859912903 -0.028622779388770284 0.016759766338235095 -0.04079398976196308 -0.04687455861568627
0.0204771668380359 -0.004431692523135889 0.02128885573317985 0.020747213421623566 0.038518964463841475 0.05364380894321337 -0.0040531625318912115 0.040154152612300355
0.07702032012451775 0.007617336624892226 0.014047198914992627 0.021401404885174113 -0.009775671350361101 -0.03991654129764857 -0.0060738554037066085 -0.041851433751122324
0.04251615053592459 -0.06674443643061281 0.0738715599726718 -0.009030361103159277 0.009684200002856963 -0.10435633622096135 -0.12333113979912166 0.027227740541897322
-0.03164938800360679 0.05651757033765357 -0.06480123461290621 0.008959049709035579 -0.026872528264162754 -0.007487241361030064 0.025070544415868347 0.009066450048448065
0.06661170879774504 0.060241099801166466 -0.015083279059909648 -0.061689847498227535 -0.01168583932432596 0.021634666177126383 -0.019091975987386777 0.029642168147654184
00000000: 8300 167c 9706 b7bf 0994 3bfb 57da 6c3f
00000010: 3ec9 9150 22ce aabf 37aa 115a baaa 9dbf
00000020: cfbc 0869 0ca6 7dbf 14df df05 23e4 a93f
00000030: bc6f fa6a 4f4f 8cbf fb45 e968 9844 acbf
00000040: 40d8 5add d497 ab3f 045d 8f0c a22e 9c3f
00000050: 299e 6c69 f0a2 b23f 54f0 b5a1 cf02 9cbf
00000060: abb8 f1c2 4a77 7d3f a0a9 ca9c 0b7e a33f
00000070: 52c7 d45e 86d1 94bf 53a5 f578 044f b13f
00000080: df7e a9f2 59eb 5f3f 07f2 cfda 3de7 983f
00000090: a0ea 6160 7e89 a73f c37e 6144 00d0 73bf
000000a0: 899c 36c6 d01e 943f 7935 1c84 14f2 a2bf
000000b0: 9af1 ac33 b6f5 b63f a928 723e 7dd1 a53f
000000c0: af7b a67b ea2e adbf d3aa 48dd 29dc a4bf
000000d0: 60b9 85ba 27b4 95bf 8d5a 74a6 c9ca abbf
000000e0: ecd4 95af 4a77 983f 2d7f 2473 c501 a9bf
000000f0: 2996 b649 323c ae3f fc8b 4f6a e0f8 91bf
00000100: 3988 2dc3 8fb6 973f 05b3 14e1 efe2 873f
00000110: d864 bbf5 8333 a93f 7e5b b9b7 457c bbbf
00000120: cb36 d9d4 ec8c af3f f639 0060 cb2b 993f
00000130: b500 bce6 3f2d b53f 780d fcd1 d32c 9bbf
00000140: 1860 ac31 f9c5 7e3f 26e4 9797 cb95 a73f
00000150: 1d10 829d e3bf afbf 0ffc f2a6 20ea 643f
00000160: 324b bf9f b872 ba3f 981b 8da6 9962 a3bf
00000170: 668a 269d cdd9 b03f 4e29 1289 eae9 a33f
00000180: 6f7a e31d fda2 a03f d040 89ca 4eeb 8ebf
00000190: 3b52 c6ba 1508 a83f 1bf9 abb4 b52d 90bf
000001a0: f7d5 be5e 0548 9f3f ce3c 59ef f4e2 c13f
000001b0: d7c1 9d5a 2cf7 613f a76e 0b2e 02d2 c63f
000001c0: 999e 8a13 4cb9 713f b54a 502e 17e5 b83f
000001d0: 1168 723b e9a5 99bf 72f9 cf3f 6442 a8bf
000001e0: 2a3b 0a9c d667 6f3f 1184 3e79 563f a43f
000001f0: 60b2 74f2 69a0 823f 736f caa9 0cf3 a23f
00000200: 6938 1d9c 12de b13f 6798 b657 ac66 9d3f
00000210: 5543 fe8e 55ce 81bf ee82 45a6 aad2 753f
00000220: 7484 4793 83e3 8b3f d69f 3396 af7a 8f3f
00000230: b98f 4b36 821f 7e3f c5b2 e604 e8c9 a33f
00000240: a860 4dff 0d80 a33f 7864 3f12 46fd 6a3f
00000250: fbf1 7d3e b944 b2bf 89b0 0318 3aed 8e3f
00000260: 970d 92d8 7a35 723f 6dce 0b54 007d ab3f
00000270: c4b2 9c91 0920 92bf 41aa dcca 7b8a 903f
00000280: 5a0b 58c6 1969 8f3f 3170 655a 1464 90bf
00000290: 0604 6126 9920 adbf 6f00 cf0d 756a b13f
000002a0: 71e1 9435 4a4f 9dbf 0acb 3ee1 7829 913f
000002b0: 984e cd27 f3e2 a4bf 25a1 8930 f1ff a7bf
000002c0: 7d51 8967 f7f7 943f 67a7 3e67 f726 72bf
000002d0: 41b5 92ec becc 953f 031a 84ec c13e 953f
000002e0: bbc4 4bf9 c1b8 a33f ba83 168a 3377 ab3f
000002f0: 5149 5188 0c9a 70bf bd6e 89c8 158f a43f
00000300: e7ef 0f8c 9ab7 b33f 430c fc3a 5b33 7f3f
00000310: 04bc 851f c7c4 8c3f d0f6 47f8 3fea 953f
00000320: 584f f865 4405 84bf 24bb e2de f06f a4bf
00000330: 5be3 1c25 e6e0 78bf 70e9 8016 8d6d a5bf
00000340: 3d0c 3548 adc4 a53f 9ad0 a8d3 2916 b1bf
00000350: 9fe7 2f1e 3fe9 b23f 9284 df8c 827e 82bf
00000360: fdcb 6652 4fd5 833f 7c0c 33cb 18b7 babf
00000370: 6e00 042c a192 bfbf 5589 afbc 96e1 9b3f
00000380: 79eb d33c 5934 a0bf cdcb 7ff8 deef ac3f
00000390: 8821 674f d096 b0bf 3143 074c 1f59 823f
000003a0: a0be 38d8 7884 9bbf f6af 860c f1aa 7ebf
000003b0: 0ab0 6fc1 17ac 993f f659 9753 6e91 823f
000003c0: 4926 d106 770d b13f 45cb 0ae3 ebd7 ae3f
000003d0: 26e3 3a72 fbe3 8ebf 080f 00cb cf95 afbf
000003e0: f158 cbcd beee 87bf dd35 c3de 6527 963f
000003f0: 6368 edd1 d88c 93bf 3e59 1b3b 845a 9e3f

linear.4.weight f8 [128, 128]
-0.01682103909607104 -0.09273808732995503 -0.03085515218552464 0.03774369368545139 0.1013821717790153 0.14092895346194936 0.11172591518628008 0.11083101643661172
-0.15089450814490823 -0.06611652021378205 -0.001207598756335153 0.08274242460551408 -0.07698237632991224 0.033422315680841044 -0.1416031477526405 -0.12788777995933776
0.052784492535332087 -0.00776788238318564 0.06744317370044751 0.027835585475291802 0.001229655258215843 0.10996582507832409 0.06561015073252831 -0.026816772980925014
0.07362368684647932 -0.05382225544098498 0.1234351686899517 0.14297186289252034 0.11038936357829221 0.09413983088846964 -0.07924274790141242 -0.09111820383287979
0.11299365407797331 -0.14730379246688138 0.017845196514151764 -0.05448750770789858 -0.035457895191941806 0.1430475023227409 -0.06881476710383133 -0.12345266082834667
0.07256782321236939 -0.010863181878189259 -0.006931530997335148 0.05310344570556923 -0.03427169922698387 -0.15096049911705758 -0.09812455291798289 -0.0641097057727711
-0.007425284921953212 -0.11710989426507536 -0.09241541500899032 -0.12533017355149195 0.018541579853149078 -0.044886904877540205 -0.12645919359021285 -0.12457425348372198
-0.04384262781706493 0.08598642659765451 -0.046181384076822596 -0.12072267888423023 0.08294042457111285 0.1352134171219766 -0.027991047893726615 -0.07628420953327973
0.1247956920162141 0.09345047684478268 0.15521055178657064 -0.02689722879465044 0.0636202052514524 0.1548626253148639 -0.029728350496690918 0.0506293649436248
-0.14094256317721252 0.09970005896363225 -0.12417752906373901 0.025361517210857776 0.06450508094651873 0.10680776912312129 0.13803763028375898 0.13212562284031334
-0.02441898748071197 -0.05721706498253349 -0.0022349066862614765 -0.07367056405889322 -0.08976828022601226 -0.1498594332754566 0.036700037210564085 -0.04937525702328754
-0.0719795300476792 0.07182072208654847 -0.06413740597111471 -0.12285731541457927 -0.042049151265490484 -0.09923245893095833 -0.13372106476698592 0.11000801741226715
0.06944000744352942 0.03921295660226778 0.009194661597856367 -0.11643955528490806 -0.1480535232292103 0.04076107170894282 -0.09472072474793332 0.019573229821165626
0.024941943131971362 0.021826140851754303 -0.026110289534509758 -0.09222560086542138 0.02193632775482533 -0.11532720255035932 -0.03719572827828119 -0.059525815582870054
0.05863421357457788 -0.10645678645838363 0.037441260900768374 -0.08088007288561748 0.10214791007915042 0.1210428757642952 0.036710496584576896 0.03348173235627405
-0.04938902938639344 0.139048651664022 -0.012543855052861385 0.06572805593189847 0.04891284486713268 0.14988421620526945 0.0056531535509188385 -0.08694730181808032
-0.04700495984074579 0.054678620578892265 0.12435045861121373 0.052153613763418684 -0.011143625297084504 0.08048875454334826 0.03197919139617095 0.08545769675221591
0.05856802106294296 -0.12288769967615602 -0.11707787310266575 0.13820069117188444 0.08932509996124431 -0.06362856632963662 0.05401510145657627 -0.1101090907265999
-0.1480518407709953 -0.04935473384677196 -0.14287588671648305 -0.13505894552408815 -0.07788029092099483 0.051336451426380186 -0.061170684406352815 -0.1175081474647416
0.010132045864474377 -0.09703629713695007 0.005073579895816744 -0.024888309791817664 -0.014607611260800266 -0.02819092321661842 0.06588865644203268 0.04684707101995324
0.0023573465550492936 0.12219914205898653 0.11769834297561962 0.12403439226334115 -0.01554188064163012 -0.006785537199096556 0.018316901798442833 -0.13993672214734212
0.02598998106729004 -0.10045049599054094 0.1443343755453363 -0.13002745428663762 0.08448359359499068 -0.07421894773617736 0.044736128327438424 -0.137954038212396
0.04669810353944897 0.030062468315569822 0.0771507311934794 -0.06305434917315618 0.1153972518329318 0.0185409378891096 0.10838007115129257 0.071179663130429
0.007004567308169131 -0.10753140528762627 0.11942967019678286 0.11354983996250362 -0.12479395532879672 -0.009438421794248421 -0.06491317610589133 0.12661654463580985
0.006977099469119192 -0.13522307040413464 0.07579153737413895 0.1548880152249547 -0.0975475339219162 -0.1255421770009104 -0.10008426398112472 -0.14202207114449708
0.08358529336356567 -0.08795627055382037 -0.02215772624629161 -0.051219727633852734 -0.09566982733624432 -0.04898641160627211 0.03550781425579003 -0.04083254454641244
-0.14584361676418336 -0.06343737357237028 0.03300914328394082 0.10235677635344625 -0.03078632058461853 -0.05897060974367588 -0.1193548377226692 0.04381263159565525
-0.008744298275512858 -0.01879125043596972 0.07422110002703583 -0.041275765022562395 -0.08214388429413623 0.06142264201579574 0.12904330441735018 0.03344067995513511
-0.09100469462721779 0.020494336672230336 -0.07106878983165306 0.09691033474495846 -0.0862277186815393 0.06075963504407672 0.026320804686177725 -0.11732950034932084
0.021309373756859977 0.07668632738354884 0.1061612234288639 0.12720545454701712 0.026583167218675183 0.13983267444455105 0.11104838274793788 -0.1489318668160826
0.0018475284211102558 0.06621153429542234 0.09818435053355469 -0.1333289058038975 -0.04948811567959042 -0.10155005126580863 -0.09827372378821275 -0.07938739828253177
-0.10811676954015788 0.12363919868121198 0.105129165004034 -0.06395888707267304 0.06785213277858539 0.07615081389380399 0.09332968028981344 0.07445773740991221
00000000: 859e 35d3 8839 91bf e0fd 2cec aebd b7bf
00000010: 2e21 3336 7e98 9fbf 21bd 0434 2453 a33f
00000020: 0f36 3098 2ef4 b93f a9db 16bf f509 c23f
00000030: ea3a d7cf 119a bc3f 9e49 fae6 6b5f bc3f
00000040: f86e d0e0 8250 c3bf eb23 0b24 03ed b0bf
00000050: 47d0 914a 09c9 53bf 4924 ac87 9b2e b53f
00000060: 0191 b4f4 1db5 b3bf da91 9cd1 ba1c a13f
00000070: 08db 4d4c 0d20 c2bf 0ce0 3d74 a05e c0bf
00000080: cab4 59aa 9106 ab3f b024 b80c 37d1 7fbf
00000090: 31c2 61b1 f443 b13f f024 2085 ee80 9c3f
000000a0: 2b1c a447 8c25 543f 5899 6366 b826 bc3f
000000b0: 098d aeab d3cb b03f 45d3 bf2b db75 9bbf
000000c0: 6671 377f 00d9 b23f 73fc d435 978e abbf
000000d0: 0d18 b37c 7299 bf3f a28f afe9 e64c c23f
000000e0: f01f 6532 7a42 bc3f 16bd ea46 8c19 b83f
000000f0: 7286 aeb2 4049 b4bf a550 88c9 8553 b7bf
00000100: 75a1 ebf0 26ed bc3f 5f6b 9cc5 d9da c2bf
00000110: ca07 addd 0246 923f e2bc 4a5f c9e5 abbf
00000120: 6701 7888 8927 a2bf 8115 206c 614f c23f
00000130: 245c 3136 d89d b1bf 65a7 dcf4 979a bfbf
00000140: ad64 700b ce93 b23f 89b7 2d97 6f3f 86bf
00000150: 9dc1 1daf 3c64 7cbf 5e7d 38f5 5f30 ab3f
00000160: c96b b766 0f8c a1bf 6509 5973 ac52 c3bf
00000170: c4a4 b7d1 b01e b9bf c175 a661 7e69 b0bf
00000180: 3fcc 73be f969 7ebf 7911 e8fd e9fa bdbf
00000190: 2921 1c61 89a8 b7bf 5686 4db2 d10a c0bf
000001a0: 9f7f 575c 90fc 923f 1f76 ef98 6afb a6bf
000001b0: c0ce 5f9a d02f c0bf 00de a228 19e4 bfbf
000001c0: 9f3c 4a79 8a72 a6bf 5607 23da 3403 b63f
000001d0: 0083 961c 16a5 a7bf b57a b175 aee7 bebf
000001e0: e99d 0c6b 953b b53f 4a78 425a ac4e c13f
000001f0: 3926 236d afa9 9cbf b78a 25a9 5c87 b3bf
00000200: 102e e447 9cf2 bf3f e70c d8d5 5eec b73f
00000210: 856e f579 f0dd c33f adad 1a78 f28a 9bbf
00000220: b877 ebec 6949 b03f 2ece 8cdb 89d2 c33f
00000230: 2ed9 96d4 1b71 9ebf 30dc 4c95 17ec a93f
00000240: 07f3 bae9 670a c2bf 6b77 a86c f185 b93f
00000250: bf12 3a3a 19ca bfbf 6084 fd9b 5ef8 993f
00000260: 5754 17ad 6783 b03f b0af 5703 c157 bb3f
00000270: 9ad1 d791 37ab c13f 0f09 880e 7ee9 c03f
00000280: cf3c 8682 4a01 99bf 6905 bf1d 8e4b adbf
00000290: 083e 1164 f04e 62bf dc91 4ff7 12dc b2bf
000002a0: 71f4 c9d3 0dfb b6bf a024 750a 982e c3bf
000002b0: 78a7 29e7 58ca a23f 0711 4bb4 b647 a9bf
000002c0: 7746 891f 406d b2bf ba6d 89c4 d762 b23f
000002d0: 67a1 181d 4f6b b0bf 6bac c7b7 9373 bfbf
000002e0: 9209 0563 7787 a5bf a064 cf65 4c67 b9bf
000002f0: bef1 fa97 c51d c1bf 565f 1545 7c29 bc3f
00000300: 3903 0101 d2c6 b13f 9356 5f7c b813 a43f
00000310: df77 e296 a6d4 823f a3d2 e891 fbce bdbf
00000320: 45dc 29f8 6af3 c2bf 1e30 e19b a2de a43f
00000330: fdb8 0b0f 9e3f b8bf a603 d637 010b 943f
00000340: 95b8 3378 618a 993f 29ec 9f84 9759 963f
00000350: 7a2a 8fde a7bc 9abf bd28 92d3 189c b7bf
00000360: 1b8b 3409 7a76 963f 7fff 4a63 1586 bdbf
00000370: 2c22 0389 510b a3bf 4e6e 64ee 2a7a aebf
00000380: e17f 75bb 4d05 ae3f d0a8 4680 c040 bbbf
00000390: bffa 2d3e 802b a33f 571b f173 8eb4 b4bf
000003a0: 0c0b 258d 5d26 ba3f d249 d278 aafc be3f
000003b0: cc58 80dc b7cb a23f 509d f782 8424 a13f
000003c0: ffd1 fdd3 8449 a9bf 5b95 b9a1 58cc c13f
000003d0: 0610 beb9 97b0 89bf d13b a8ca 8dd3 b03f
000003e0: 3408 1eba 1a0b a93f 93e4 64ef 672f c33f
000003f0: 476a edd9 c227 773f 89ba c8a9 2d42 b6bf
00000400: 7c16 88ba 0811 a8bf fe7c 5a0e d6fe ab3f
00000410: c74e fa80 6ed5 bf3f a5d5 f6e2 e0b3 aa3f
00000420: 1ac9 ad11 78d2 86bf a99e 7538 e99a b43f
00000430: a8ed 659a 935f a03f 4704 be3c 8ee0 b53f
00000440: 2912 1dae a0fc ad3f 1b94 307b 9175 bfbf
00000450: fba9 0fc4 d0f8 bdbf 5e15 6f6c 8fb0 c13f
00000460: 43a4 0b7f 02de b63f e626 7a33 f649 b0bf
00000470: 0e03 7e0c dea7 ab3f 37bd a9ff 1b30 bcbf
00000480: d4ac 1cdb 5cf3 c2bf 87a1 8c0f 0645 a9bf
00000490: 32ca 6ace c149 c2bf 3c73 078d 9c49 c1bf
000004a0: 2236 8276 f6ef b3bf 2c20 f077 c548 aa3f
000004b0: 189a ff91 c351 afbf 79e6 5f92 0315 bebf
000004c0: ca31 092d 1cc0 843f 5167 baea 5ed7 b8bf
000004d0: ba6a 9ebb 08c8 743f e02d 6f32 527c 99bf
000004e0: 9240 1a65 98ea 8dbf 3fa6 09d5 14de 9cbf
000004f0: 908d 9838 14de b03f 925f e3db 56fc a73f
00000500: 3e2e 7fcb b64f 633f 611b be66 7148 bf3f
00000510: 56a9 df85 7a21 be3f 52ac 59ca b7c0 bf3f
00000520: 11d5 97e8 6bd4 8fbf e4cf b1c5 26cb 7bbf
00000530: 47e0 c078 aac1 923f 55ee 904e 72e9 c1bf
00000540: 6ba7 d41a 1e9d 9a3f 5b77 25ab 1fb7 b9bf
00000550: 4ef1 537f 8c79 c23f 9b22 df57 bda4 c0bf
00000560: 87fe 897f b7a0 b53f eb39 4551 0300 b3bf
00000570: 4c65 3b60 a7e7 a63f 8e97 3c59 7aa8 c1bf
00000580: 676c f956 d0e8 a73f 6677 0219 b2c8 9e3f
00000590: b2a6 567b 26c0 b33f b5bb 916f 5424 b0bf
000005a0: 2fb4 ab9e ac8a bd3f 60cb 7b47 65fc 923f
000005b0: 5109 22dd cbbe bb3f d815 4995 d438 b23f
000005c0: 0ef2 2d38 d2b0 7c3f b7d6 009d 2d87 bbbf
000005d0: c8d0 aa5f f192 be3f 6ce0 1a31 9a11 bd3f
000005e0: b42b e024 7ff2 bfbf 610b 7587 7354 83bf
000005f0: 794c 7460 269e b0bf 28f2 2b8f f834 c03f
00000600: 1424 a7e0 0494 7c3f 9975 8654 fd4e c1bf
00000610: 93e2 55fe 1267 b33f ee7d f7d7 5ed3 c33f
00000620: 4a05 000c e0f8 b8bf 2768 3e1c c411 c0bf
00000630: 3aa6 a450 1f9f b9bf 391a 707b c72d c2bf
00000640: ff4e 6c85 d865 b53f bfbc 8159 4d84 b6bf
00000650: 1780 53d6 83b0 96bf afe1 31de 7839 aabf
00000660: da85 9f5b d17d b8bf 1a3c 9837 bf14 a9bf
00000670: 984d f689 142e a23f 88ec e0d6 00e8 a4bf
00000680: 2d90 2aee 00ab c2bf 1c64 d684 6e3d b0bf
00000690: e63b bf0d 93e6 a03f 1c48 f6be 0d34 ba3f
000006a0: 29e9 4c00 7386 9fbf b46c 8c50 6531 aebf
000006b0: 7064 a3e4 098e bebf 3ac7 b5f7 9b6e a63f
000006c0: 1758 f5d8 87e8 81bf ba32 4b78 033e 93bf
000006d0: 2e0d 4a6d 2700 b33f 8550 c7d9 1822 a5bf
000006e0: d116 9cb0 6107 b5bf 222e 62dd c972 af3f
000006f0: dec1 1eb2 7d84 c03f 50d0 8605 231f a13f
00000700: 7dd4 346b 154c b7bf 82b1 0aa7 77fc 943f
00000710: 0ddf 1770 9031 b2bf 0fbf 5f9e 1dcf b83f
00000720: 46f3 be0f 0513 b6bf e8c6 dc0a e31b af3f
00000730: 677e 534d d7f3 9a3f fd39 db5e 4e09 bebf
00000740: 4e2b 89dd 1fd2 953f 27a6 2914 b7a1 b33f
00000750: 37f6 bac6 612d bb3f 077d 93b1 4448 c03f
00000760: 4930 5027 9e38 9b3f 6066 d37d 09e6 c13f
00000770: d413 2db4 aa6d bc3f af55 a70c 3310 c3bf
00000780: 3212 6a89 1845 5e3f ceb4 6a36 3df3 b03f
00000790: 3147 850e 9c22 b93f a604 05ed eb10 c1bf
000007a0: eddd c49c 8156 a9bf 6801 1825 2fff b9bf
000007b0: a0fc b97d 7728 b9bf 3487 5687 bb52 b4bf
000007c0: 4dfb 5265 8aad bbbf 50e6 d68a d1a6 bf3f
000007d0: 2f51 8cb5 bee9 ba3f 1f04 4410 9c5f b0bf
000007e0: a974 3fe3 c15e b13f fad7 3ca7 9e7e b33f
000007f0: 3544 9734 74e4 b73f 2e17 1c8b a90f b33f
