run/pinn_model.pt (torch, 276772 bytes, 8 tensors)

linear.0.weight f8 [128, 3]
0	0xbf8332301d3e0a12	-0.009373069660573417
1	0xbfbebd657ae026bb	-0.12007745981113775
2	0x3fc83434082d7f02	0.1890931167536039
3	0xbfb94a2275a5ca9f	-0.09878745434051915
4	0xbfc2aa21155e34e4	-0.14581693213805302
5	0xbf8253dce306550a	-0.00894901817154416
6	0xbfb779921988c952	-0.09169877169987231
7	0xbfc08b3bf73c4e35	-0.12924909183549152
8	0xbfcbaecb69f6083a	-0.21627180742149382
9	0x3fac2da693ca1de3	0.05503578714438697
10	0x3fc076bb6f423add	0.12862341816477044
11	0xbfbb4e7a4e0b8ebf	-0.10666622548483938
12	0xbfc2a2d68e43ddf2	-0.14559442469156597
13	0x3fb912c2a3788691	0.09794250956522378
14	0xbfc19512f995dc3a	-0.13736188113009168
15	0xbfcfb96614f1ae81	-0.2478454210535013
16	0xbfbf96edff058332	-0.12339675403701447
17	0xbfca7f1b227be434	-0.20700396713053382
18	0xbfbba60e81d8a9d2	-0.10800257368160907
19	0x3fc837684e1327f5	0.1891909009194134
20	0xbfc85941b1061634	-0.19022389549006535
21	0xbfa5c9fb52475be7	-0.042556623262207265
22	0x3fb415517dfdb998	0.07845029188113128
23	0xbfb7fb78e91d2424	-0.09368091288810426
24	0x3f7f58bd6bfbf5d2	0.00765298836608737
25	0x3fb4db76836d7976	0.08147373875315175
26	0xbf97653434fcdf35	-0.022846999868504986
27	0xbfba84974581382e	-0.1035856766404499
28	0xbf81b98c75b91e03	-0.008654687254547438
29	0x3fc80e27337db7ca	0.1879319192334477
30	0x3fc46c6b554b763c	0.15955869354995567
31	0xbfa0ace0e68a49aa	-0.03256895841799985
32	0x3fd2c6ade5c128ff	0.29337642132726666
33	0xbfb5d5f30e033b02	-0.08529585926156005
34	0x3fb90ecc00b62226	0.09788203256005854
35	0x3fd23c3d9d4870e8	0.2849267993895084
36	0xbfc2a02804278b0b	-0.14551258280615573
37	0x3f14c2db52aabcca	7.91975368581332e-05
38	0x3f9f8dd6719ea827	0.03081450527648868
39	0x3fc395ff1bea6af3	0.15301503050871865
40	0x3fbd2d271981fb3e	0.11397022602794224
41	0xbfca3eca0f8e636b	-0.20504117736416147
42	0x3fb77147d462f240	0.09157227454392913
43	0x3fa4df9c1f1b6266	0.040768507764089176
44	0x3fb73a1ce2050f12	0.09073048132000519
45	0x3fc7271f2b52a4ef	0.18088140120861548
46	0xbfae620d56787a8b	-0.05934182816075858
47	0xbfc435e0df131c6f	-0.15789423839871428
48	0xbfb653ee14a60379	-0.08721817020524537
49	0x3fab4381a4ce6ac5	0.05324940811916216
50	0xbfc48a59e8ee4dc0	-0.1604721438749106
51	0xbfb9573e6c04981f	-0.09898748528630151
52	0x3f80833102c32063	0.008062727829738664
53	0xbfbbe3bf929e85f5	-0.10894391374178965
54	0xbfdf5fd6fd76b2ad	-0.49022459747610975
55	0xbfb42347287ac394	-0.07866329897184549
56	0x3fc759788cbb43e6	0.18241793510108478
57	0x3fa55b31f2e6f7c4	0.04171138849368064
58	0x3fc69378a879f6dc	0.17637546755206912
59	0xbfc40b417256deff	-0.15659349520660013
60	0xbfc7133ad08e188e	-0.18027434523918767
61	0xbfa37005937b49d2	-0.0379640333682293
62	0x3fc5c2c45375f793	0.17000631404146968
63	0x3fd05d3cf4a9c3bb	0.2556908025063042
64	0xbfb9a4613c1bda5a	-0.10016448705196393
65	0x3fa169ecf004d272	0.0340112727157348
66	0x3fd0dd5436c87753	0.263508847712605
67	0x3fbff425ab88d216	0.12481913984158441
68	0xbfc80b3853e59ba4	-0.18784240814713116
69	0x3fc2832ccfe96408	0.144628144759537
70	0xbfc57ea3a656be82	-0.1679272234155072
71	0x3fc36a1f6b5ccc6d	0.15167610876378337
72	0xbfd42021213191db	-0.314461023727089
73	0xbfc629a96f38df49	-0.17314641886491192
74	0x3fb92c7d7df82638	0.09833511662886785
75	0x3f9f898aae7be6db	0.030798117541940378
76	0xbfbc4902f760d51f	-0.11048906840808968
77	0xbfa38dda415041fe	-0.0381916241386797
78	0x3fcd9d4bc4e2d834	0.23136279214458144
79	0xbf9c16da66bf76db	-0.02743092777369936
80	0xbfc6670c3d379668	-0.17501976956480125
81	0x3fd591f231e00354	0.3370328414021533
82	0x3fc1f12c55d88d1b	0.14017252151197898
83	0xbfcce0fb64a92e05	-0.22561590590554217
84	0xbfbef825c680bdad	-0.12097393127691332
85	0x3fa54357eae5f08d	0.041529414581391234
86	0x3fa8c1106b36e062	0.04834796246308383
87	0x3fd3988f953cb496	0.30618657659472015
88	0x3fd0abb8bf883a35	0.26048105911550873
89	0x3f929bfedd18c83a	0.01817320084064298
90	0x3fb9f35b578ead6f	0.10136958015089247
91	0x3fcffd3383442f7a	0.24991458806504935
92	0xbfc8f1340ce74c13	-0.19486094121984418
93	0x3f8738ef918ae2fa	0.011339065198045162
94	0xbfd181e3d30e6b99	-0.27355285273523006
95	0x3fc5ee9fa91ccbc6	0.17134471661992573
96	0xbfb6eabb2e822fb5	-0.0895192135378114
97	0xbfc51671825feaf0	-0.1647474180789099
98	0x3fbfe1fdedbcad44	0.12454211286665379
99	0xbfba72fca0d6ae53	-0.10331705977176257
100	0xbfb5010458ef6821	-0.08204676791447742
101	0xbfc19b15ee435a45	-0.13754533895435564
102	0xbfd6940013213f88	-0.35278322094108505
103	0x3fb5d9c5488ce42c	0.08535416623352948
104	0x3fc7982aee35bf7f	0.1843312895903146
105	0x3fb4aaad00c957f7	0.08072930592729209
106	0x3f69bb991e7b2153	0.003141211567570115
107	0xbfc9afb7ff074157	-0.20067501022868825
108	0xbfce73d55a8718f3	-0.23790995521830602
109	0xbfbe62b16054977a	-0.11869343377892774
110	0xbf65160777560344	-0.002573980886780099
111	0x3f9b7e737a1d847e	0.026849560097052187
112	0x3fc5766b4bf41680	0.16767636498132177
113	0x3fc6bb1914d08d59	0.17758477703419365
114	0x3fb2bcf7cebbd879	0.07319592282496669
115	0xbfaa0982fd8361f7	-0.050853818365513996
116	0xbfc82864af2b550a	-0.18873270562350114
117	0x3fbd04bac9616d14	0.1133534185077461
118	0x3fc990e7023b1158	0.19973456963465241
119	0xbfab807706265b5f	-0.053714484692298774
120	0xbf7982244fdcfff8	-0.006227628558747249
121	0x3f97debe58c9c808	0.023310636681749514
122	0xbfbb9e2fe2d82115	-0.1078824929064733
123	0x3fdf8d47f3c0187c	0.4929981117605917
124	0x3fc2f6d79e5895d1	0.1481580279516224
125	0x3fbe94d1ebb573c0	0.11945831303223908
126	0x3fc3ba3adbf6d3b9	0.15412078609884164
127	0x3fa0bd12dc2d1490	0.03269251764008019
128	0xbfd0f1487046ed3d	-0.26472674336010354
129	0x3fa89ee0c493d0ab	0.04808714294077395
130	0x3fb0310c813e0fa5	0.06324842601139709
131	0xbfbe2079f7d141e9	-0.11768305111150536
132	0x3fde07e8b33dbe60	0.4692327261354645
133	0xbfc2b106ee09a3ec	-0.14602743742878432
134	0x3fc4669ef1e3bca2	0.15938174067512018
135	0x3fc15c86bfc5c4b7	0.13563618053334434
136	0x3fc44b6e8170ae5e	0.15855199165649742
137	0xbfbcd4f2f1b28ca4	-0.11262434387986048
138	0xbfbdac884a967d3f	-0.11591388531677625
139	0xbfc013d82c1ba250	-0.12560560373028062
140	0xbfc4c0540f2a21d3	-0.16211939564187947
141	0xbf73f076523d071f	-0.004867994491918797
142	0xbfce7ff5d961b87b	-0.23828003992406707
143	0xbfb2c88094411dee	-0.07337192172519
144	0xbfcec24798020d1c	-0.2403039448000549
145	0xbfc228a92139dae8	-0.14186586496699438
146	0x3fd14c8f18bae8e3	0.2702977887635269
147	0x3fd2337366bfa602	0.28439030679746236
148	0x3fcc105be598f46d	0.21924923621000705
149	0xbf90044504c37ce9	-0.01564128724646433
150	0xbfbd0209884a5413	-0.11331233575249682
151	0xbfc6f6236baf48aa	-0.17938654668848147
152	0xbfb2aa919972f9b9	-0.0729151725417755
153	0x3fd7e4f194819033	0.373348612809653
154	0x3fb5b217301defb2	0.08474869656305264
155	0x3fb07873ec63cd10	0.06433796426044958
156	0x3fb4c0bbab470de9	0.0810658734472366
157	0x3fc99ee762c24d65	0.20016186067787625
158	0x3fa7ac30c256b3c6	0.04623558399484966
159	0xbf34f83870e588ea	-0.0003199708743492196
160	0x3fb27cb21a12727e	0.07221520554089442
161	0xbfaf779fd31ae723	-0.06145953609434531
162	0x3f88eb0e1d7bd09b	0.012167082094926498
163	0x3fc1da6fd85eb50c	0.13947866501749961
164	0xbfade4e693973692	-0.058386998669090265
165	0x3fd0b3449a5934b9	0.26094164918033474
166	0x3fb11e1c65072fa0	0.06686570612435938
167	0x3fa8e9033857dff4	0.048652744891967276
168	0x3fb95141a638213c	0.09889612491690952
169	0xbfbb3132caa88f62	-0.1062194580813958
170	0xbfb7ab2f637db113	-0.0924558275125416
171	0xbfc6c61413368506	-0.1779198736012761
172	0xbfc043a292b8c1e4	-0.1270640579619019
173	0xbfd1c4c958513835	-0.277635895011261
174	0xbfcaed0f35f8249f	-0.21035947928638607
175	0xbf9a184493c33e5f	-0.0254831996142556
176	0xbfc2384098bd71c3	-0.14234168489464424
177	0xbfdbcc78b5854cc9	-0.43435495115882056
178	0x3fbb1536b216eb32	0.1057924446858294
179	0x3fa394b707749eff	0.03824398008356233
180	0x3fdeb4a76f954d1d	0.47977624794767043
181	0x3fc3eef084c81288	0.15572935565446167
182	0x3fd1f5a5b46277ad	0.2806181203430878
183	0xbfa67579989090df	-0.04386501300203504
184	0xbfbe8037fc97b87e	-0.119143962066774
185	0x3fc4490b12579bef	0.15847910304657328
186	0x3fb81f234f670cb4	0.09422512711084857
187	0xbfc791f520e5a345	-0.1841417704229348
188	0x3fc1335a9292be79	0.13437969357390836
189	0xbfa8fcbf3baffee2	-0.04880330661398859
190	0x3fbb53ebecee3ff1	0.10674929174842852
191	0x3fce681bcada6954	0.237552141236686
192	0x3fbc217a0a310fc1	0.10988581417865274
193	0xbfac65ade3692c78	-0.05546325112353484
194	0xbf9fcdb4db7f23e4	-0.03105814542485409
195	0x3f904e62952e5988	0.015924015383995932
196	0x3fad6e18e976d27a	0.05748060083297886
197	0xbfa07a53e37ba485	-0.0321832862080749
198	0x3f9ef0d02d69ee85	0.030215504428709145
199	0xbfbe1c9128b97672	-0.1176233982491455
200	0xbfcd080449bf0366	-0.2268071518028833
201	0x3fd77013cf601189	0.36621566058627103
202	0x3fb5d45f42563ab2	0.08527179116775122
203	0x3fc8d28e5dc95268	0.19392566279806833
204	0x3fd3d21c408db464	0.30969911865287814
205	0xbfc3cd012d1b489a	-0.15469374372930106
206	0xbfc08c9f1f8b6f0e	-0.1292914299036671
207	0x3f97e29089f6c3b6	0.02332521287980046
208	0xbfbe4a28ec7ba5eb	-0.11831908963690523
209	0x3f9245681dc6891b	0.017842890565256214
210	0x3fb210309c7da4bf	0.07055953808380176
211	0xbfc99a723b4abedb	-0.20002582450023607
212	0xbfd33c375c4c6226	-0.3005503083564086
213	0x3fb38b272cee6923	0.07634205672221532
214	0x3fa4b5f9f0d54014	0.040450869225083036
215	0x3fc093cdae3b88a6	0.12951060302208822
216	0xbfc483d9d4be2190	-0.1602737702162469
217	0x3fb7cdb41b4ed364	0.09298253695199105
218	0xbfb31e7d3a8cee59	-0.0746839778848253
219	0xbfca6e9138743584	-0.20649924522914997
220	0x3fa10efb68d61c25	0.03331742911091621
221	0xbf772cb226e0fc03	-0.0056578597123566636
222	0xbfc5c08ba57dd9a9	-0.1699385221542802
223	0xbfbbedcd77842c77	-0.10909732978704932
224	0x3fc0fd8e25effd74	0.1327378926507482
225	0xbfa8d4b5c83d9967	-0.048497849172053624
226	0x3f8f91652d965e11	0.015414038137165272
227	0x3f738b93a05d274c	0.004771782556255943
228	0xbfa763e9787f0594	-0.045684143027311525
229	0xbf81b3d74515a610	-0.008643800540727248
230	0x3fc6ffca4c5c07b4	0.17968109825602385
231	0xbfcee07a0c6f5f7c	-0.24122548682384692
232	0x3fbedc17c4501573	0.12054585020822177
233	0x3fc6ec9636ddf816	0.17909505538040155
234	0xbfc8c38692f6bd64	-0.19346697021453985
235	0xbf84120fbe6f942a	-0.009800074576512403
236	0x3fc7d77d6170b961	0.18626372583225773
237	0xbf9e1c22c6e390d9	-0.029404204739777427
238	0x3fb31a5a47a404c3	0.07462085961380453
239	0xbfbd8640b7f8d721	-0.11532978526596739
240	0xbf975c5cdeb34053	-0.022813273518125076
241	0xbfc2ed9841446534	-0.14787581622003076
242	0xbfa044452892943a	-0.03177085991163904
243	0x3fb42e40b31c50bb	0.0788307606965785
244	0xbfcb97af97f4c50b	-0.21556658668263426
245	0x3fc7b0724543ab93	0.185072215862729
246	0x3fa950a01c0530b6	0.04944324819607131
247	0xbfc13aab989471e5	-0.13460297537029856
248	0xbfb3c2148d0901e7	-0.07718018000833347
249	0xbfc07db017cf24dd	-0.12883568918758828
250	0x3f601c7dcee2ef82	0.001966710776370507
251	0x3fb001514a3ddf5d	0.06252010405102966
252	0xbfa7cdf3d54edb2d	-0.04649316767556964
253	0x3fb64d01664a15dd	0.08711251017856321
254	0xbfc82605019a699f	-0.1886602647617339
255	0x3fa499dc61e7f6dc	0.04023636527197791

linear.0.bias f8 [128]
0	0x3fa9eeae2e49a7e4	0.05064911189113255
1	0xbfafae7ef138cd1a	-0.061878172822981095
2	0x3fb4bd8036f2adfa	0.08101655332091431
3	0xbfac4a5e69da16be	-0.055254888936401056
4	0xbfb8a7fdbfe5edea	-0.09631334242833814
5	0xbfc37f5b7d6b51b0	-0.15232413887009733
6	0xbf8326d045943118	-0.00935137474382279
7	0xbfc6a402ea505ba5	-0.17688023034199066
8	0x3fb9c8c8295f2dd4	0.10071993837407628
9	0xbfc91b63afeef8ff	-0.1961483582544545
10	0x3f99f9f881625427	0.02536762513826232
11	0xbfb0e0bfe2cdb300	-0.06592940604395991
12	0xbfb8c48bdbfe8ee5	-0.09674905892330406
13	0x3fc290b291ca2cce	0.14504081839218091
14	0x3fc749c52597b0d0	0.18193878493855786
15	0x3fa1501b46b8c9b0	0.03381428945830878
16	0xbf712864adaf3b7f	-0.00418891265412824
17	0xbfb5c7e6f599f205	-0.08508151527525605
18	0xbfcf4ae479f56d05	-0.24447303729071038
19	0x3fc385b86978b268	0.1525183215138839
20	0xbfa205e184ae61d0	-0.03520111794131575
21	0x3fba85ba10d34d7e	0.10360300932670971
22	0x3fc01a55efb63701	0.12580370144535638
23	0x3fadbfe731390eec	0.05810472942223818
24	0xbfd1218103aa219c	-0.26766991956585584
25	0x3fa6fd8cde598f97	0.044903185026469554
26	0x3fb07ae3b61adeb0	0.06437514491960417
27	0x3fc46fe609aa7e93	0.15966487380955083
28	0xbf93cfcfefbe2db9	-0.019347428329224068
29	0x3fc173fdc2e514fe	0.13635227218961882
30	0x3fab2522a3470c27	0.05301769488462354
31	0xbf5097e8e957bf19	-0.0010127806211776612
32	0x3fc4e3048895ee2c	0.16317803067419
33	0xbf92893c498d089c	-0.018101636876288837
34	0xbfc42e7b9e300145	-0.15766854499816865
35	0x3fc6763edcb9cda7	0.17548356797815964
36	0xbfb2938e41642ea7	-0.07256402107685266
37	0xbf7f5da5b18faea1	-0.007657668343181407
38	0x3f7f4c5947bb6981	0.007641171217722565
39	0x3fbb2c27cda8f71c	0.10614250918385121
40	0x3f9a7fa9f5195929	0.02587762411561659
41	0x3fd26a3fb0155ddf	0.2877349109234881
42	0x3fb817c304503d7d	0.0941125760584693
43	0x3f957eae5bf26f88	0.02099106250953711
44	0x3fd0733a17ac278a	0.25703289329305135
45	0xbfb499a821a716eb	-0.08046961614226304
46	0xbfb4dd682c13232f	-0.08150340152782286
47	0x3faf64d640f1451a	0.061316199710413424
48	0xbfb5c0d9bcb0d77d	-0.0849739156409139
49	0x3faf20fe7e076dbb	0.06079860008659518
50	0xbf9910a6aaa6b710	-0.024477581182217156
51	0x3fc15d5bcfd9a079	0.13566157959872152
52	0xbf7ace8dc634fd4e	-0.006544641309403089
53	0x3fa26070dc4c5848	0.03589203538119584
54	0x3fc220204be59f5a	0.141605412539543
55	0x3fbf0eea76258335	0.12132134804188584
56	0x3f91343407b86fbd	0.016800702067584206
57	0xbfbb179ca0979c3a	-0.10582903786381417
58	0xbfc6bd8fe725d691	-0.17765997683061532
59	0xbfd31a03ecce596c	-0.2984628498610593
60	0x3fc15cff5acc82a9	0.13565055783785354
61	0xbfa2f3e3dda8cd94	-0.037016983802824616
62	0x3fb1377d5c5c2f0b	0.06725295548329428
63	0xbfbdaad5f476c817	-0.11588799684867045
64	0xbf8496af6167816f	-0.010053033981365115
65	0xbfb7eac2496a2444	-0.09342588703488369
66	0xbfb1c883f2af1f55	-0.06946587252525423
67	0x3fac6e10dd28a768	0.055527235981869094
68	0x3fbc3663a6d27f50	0.1102049143105408
69	0x3fc7cfb0757507dd	0.18602567420208418
70	0x3fbecd7c96fb601d	0.12032297788698583
71	0x3fa82114cce1033a	0.04712738991702854
72	0xbfc0d550ccd368e3	-0.1315098762632437
73	0x3f9e0bc2a83d4763	0.029341737288013713
74	0xbf9b2e3ced76800c	-0.02654357146604984
75	0xbfc18e565cd12e6c	-0.13715629131398843
76	0x3fa9699979a3ac29	0.049633785341790145
77	0xbfab6ae3d1395bda	-0.05354988030438053
78	0x3f8af72dd7419953	0.013166769153212831
79	0x3fb02f4f57ccc09f	0.063221892295362
80	0xbf8f4c8641c4fb9a	-0.015282677538037071
81	0x3fa7951725395c14	0.04605934457202224
82	0xbf99e8e0e761b705	-0.025302423593919893
83	0xbfb27ea9972308a1	-0.0722452157961322
84	0xbf7b9cc07a975075	-0.006741287108031559
85	0xbfa76c448a91c333	-0.045747892298896885
86	0xbf93ebf01a9c1b9c	-0.019454719185002398
87	0x3fa6a879fa7d557c	0.04425412352308464
88	0x3fa3bdc246cd9fa5	0.03855712045952878
89	0xbfbb9213d5767136	-0.10769771539202541
90	0xbfbd920d70be9ad3	-0.11550983431389321
91	0xbfbb5c207a1dac1f	-0.10687449437470818
92	0x3fd1fd936066ea4b	0.28110203184374843
93	0x3fc8eb6745bef3ab	0.1946839418941669
94	0xbfafddc39d9c5626	-0.062238800992570995
95	0xbfc11d3d8fc901dc	-0.13370484848748176
96	0x3fa5cd538a5dcecd	0.042582140579637696
97	0x3fc788e21e3120fe	0.183864845983642
98	0xbf7645571bb9a006	-0.005437221781541273
99	0x3fb7fec5936a10bf	0.0937312588594663
100	0x3fad44e5151a0fbd	0.05716625101652493
101	0xbf86cb7cb48b3e45	-0.011130308398974562
102	0xbfa5592bccf6a24f	-0.04169594647402574
103	0x3fa6fef06b4fc0c6	0.04491378126101746
104	0x3fb7e4ec4aafb1ad	0.09333683799167743
105	0xbfa7d83a1273b245	-0.046571554901536895
106	0x3fa90e5b212db4cf	0.04893765239726521
107	0x3fb4ea9697d5ff6d	0.08170453268939833
108	0xbf818a5c72ab273b	-0.008564684152037585
109	0x3fa6626f3e626168	0.043719745984335756
110	0xbfaddca8eb595204	-0.058324125985254965
111	0x3fc751aa4f6753c9	0.18217972638254157
112	0xbf9289e38f4f9294	-0.018104129430769847
113	0x3fad98d674621e30	0.05780668421453716
114	0xbfb2fb12a3f6af80	-0.07414356711404757
115	0x3fb526047c465157	0.08261135133790752
116	0x3fc0be2b68ea5f5b	0.13080351469829563
117	0x3fb0e129700f29cb	0.06593569742032128
118	0x3f6aac63ecc93466	0.0032560302409252893
119	0x3fcf51611110cb88	0.24467099507600332
120	0x3f70818bb6a7128c	0.004029794460113433
121	0xbfaaf84595b8238a	-0.052675413633614346
122	0xbfc0e7f813263580	-0.1320791333677498
123	0x3fbc3f2cadf337b6	0.1103389668162141
124	0x3fb1aca15a3182ad	0.06904037906634626
125	0xbfb05ad689455233	-0.06388607837045228
126	0x3fc07640bc807a42	0.1286087913913026
127	0x3fa49aff4a00eac7	0.040245034965172226

linear.2.weight f8 [128, 128]
0	0x3fae30b71501d006	0.05896541720804298
1	0x3fc199fd3cf191f5	0.13751187778247212
2	0x3f96ea6750c678f3	0.0223785536814995
3	0x3fbd2599d379339f	0.1138549939434612
4	0xbfac72d32b27a88c	-0.05556354429047969
5	0x3fc202cd174cac14	0.1407104839102834
6	0x3fb3d8cc5a6bb625	0.07752682883775515
7	0x3f83b1bf4aeea14e	0.00961636969971438
8	0x3fb08b53a4ffac7e	0.06462595728196338
9	0xbfa1a04db4e44229	-0.0344261439623817
10	0x3f7798c2649116a3	0.0057609170408504965
11	0x3fbf9e4ac1089d80	0.12350909435973811
12	0x3fbb5e917031b96f	0.10691174496762355
13	0xbf9cc6722831b40a	-0.028100761130577502
14	0xbfb6ceb0553bd8d9	-0.08909132080939076
15	0xbfb12e332ff4f1b9	-0.06711120529957428
16	0xbfbd4beaef84fa72	-0.11443966243403184
17	0x3fc1a25d6a79e1f6	0.13776748370197794
18	0x3fa0b46cfc08d9c4	0.03262653900712878
19	0xbfacd7f07a07be83	-0.05633498658778271
20	0xbfb5297eb77d80ed	-0.08266441325895686
21	0xbf9f4b496ff50d1b	-0.030560634096457578
22	0xbfa872883a27b7b2	-0.04774881086255735
23	0xbf97ba02f713486a	-0.0231705153754053
24	0xbfb9d357cb678505	-0.10088108745505416
25	0x3fb03d698c380401	0.06343707726774996
26	0xbfb24929258dff3e	-0.07142884413587766
27	0xbfa7fd25ae827d1d	-0.046853234817939994
28	0x3fc41adb4b654c4e	0.15706959897451828
29	0xbfb64c655a8a2112	-0.087103209118258
30	0xbfb8a58135adc1fd	-0.09627540169254441
31	0xbf9d22310a53d3f4	-0.028450742965066625
32	0xbf68132ceba72b1d	-0.002938831076993677
33	0xbfaa78dc880bac13	-0.05170334969246695
34	0xbfb95bd7cbef352b	-0.099057662285493
35	0x3fb85149882cfac9	0.09499034475900738
36	0xbf651e3eaa6da4d1	-0.002577898401274405
37	0x3fbc22f4dbd47021	0.1099083935445724
38	0xbfbcdd34f2b5176c	-0.11275034833405834
39	0x3fb558a265102244	0.08338370292052227
40	0xbfb2183162b63d37	-0.07068165454824259
41	0xbfb2eb3984b236df	-0.07390174379016966
42	0xbfb5cd5637a166e8	-0.08516444070974283
43	0xbfbc9a1d665fc5bd	-0.11172660588615364
44	0xbfac445c8465c319	-0.055209056054883195
45	0x3faa173500fc5210	0.0509583057120474
46	0xbf9620c2b9c1edc7	-0.021609346950283184
47	0x3fc006ef20f4a412	0.12521161183511303
48	0x3fb5166e9eb6aef3	0.08237353682369157
49	0xbfc2862d62343716	-0.1447197656165648
50	0x3fb31a422e4d875b	0.07461942320290176
51	0x3fa3ff6fe7c169f6	0.03905820564314759
52	0x3f877f0aabdc1511	0.011472781533948625
53	0xbfc3e06828b12c4e	-0.1552858542148407
54	0xbfc384c4703adc31	-0.15248923759438207
55	0x3fb96c9174537ce9	0.09931286897652893
56	0xbfa3d15a8cd92660	-0.03870661706293954
57	0xbfbabe752473c170	-0.10446865215249601
58	0x3faeb099545590a7	0.05994109301062283
59	0x3fb49e7d28fcc079	0.08054334879557414
60	0xbfba015ce990577f	-0.10158329679719989
61	0x3fb457e4cd1a6c8c	0.07946615226176074
62	0x3faa2f14f1d85f56	0.05114045574390384
63	0x3faca67ac12c5ee8	0.05595763786385338
64	0xbf73423ab08100c6	-0.004701833015190176
65	0x3fbe4a1f43296421	0.11831851377191117
66	0xbfbafa9c7b793a92	-0.10538652433863607
67	0x3faf512a4530ca4e	0.06116611570941598
68	0xbfaf481f6e750915	-0.06109712813715099
69	0xbfbb73ec08f4dc91	-0.10723757952369996
70	0x3fb98cbe648277b3	0.09980382875298126
71	0xbfa249bbed4a76ba	-0.03571879645936123
72	0xbfc0465a3606fca2	-0.12714698446322809
73	0xbfaab4cfb3a757e9	-0.05216073101080083
74	0xbfb61c4808b6e9f3	-0.08636903965717817
75	0xbfa3533f060dfbaa	-0.037744492997254867
76	0x3fb98f1ef7707158	0.09984010258671583
77	0x3fadafda93245363	0.057982283078820605
78	0xbf6887367467ac88	-0.0029941619461531545
79	0x3fb395a747445d20	0.07650228013914218
80	0xbfc1aa886cbf6b97	-0.13801675138423938
81	0x3fa0b61d46cf48b4	0.03263942231537112
82	0x3fbd34c704b1d33e	0.11408656944861392
83	0xbf591d3bea9e1ad5	-0.001532848846609693
84	0x3faf0f6eb7fbecf7	0.06066461559199781
85	0x3fa3b608f1e5841d	0.038498191383730986
86	0xbfbb13cfd0a29c80	-0.10577105373032403
87	0x3fb183ea5a6aa99c	0.06841911990583188
88	0xbfb2d4aed86f854f	-0.07355778488228747
89	0xbfb03eed8eacfd08	-0.0634602044419702
90	0xbfb671b4f5c3f728	-0.08767252922185931
91	0xbfb5e836b94f0eff	-0.0855745508588903
92	0x3fb6e5c0f45467ce	0.08944326367455277
93	0xbf96d6b1bc0a2353	-0.022303368665720424
94	0x3f985dcfa06d3ffa	0.02379536072413655
95	0x3fadca713d9626e2	0.05818513752735811
96	0x3fb8c0434667b118	0.09668369740365212
97	0xbfbad53e4b92b1ae	-0.10481633515400432
98	0xbfc1a4951cbfdee7	-0.1378351583841699
99	0xbf85f9f6db57119a	-0.010730675286034597
100	0xbfbd6667aa090871	-0.11484382535221173
101	0xbf97e81b60e50f1c	-0.023346355236994673
102	0x3fc124bea2b303ee	0.13393385834027022
103	0xbfb6faaad3e2c550	-0.08976237938874942
104	0x3fbb248d4d436f43	0.10602648865045432
105	0xbfba0109f24443ee	-0.10157835163796822
106	0x3fa89b2587335689	0.048058674577686374
107	0xbfb39d0173afce4f	-0.07661446642287582
108	0xbfb6fe06ef685bd9	-0.08981364579118124
109	0x3f9a48c0082eefe7	0.02566814470240777
110	0xbfc504f9e368637c	-0.16421435932059214
111	0xbfb26ea954778ae4	-0.07200105964833942
112	0x3f9565db05ce1313	0.0208963606160238
113	0x3fbd365d2df5a905	0.11411077854214476
114	0x3fbf739936a764e0	0.12285764297793689
115	0x3f97ef780cdeca04	0.02337443903497595
116	0x3fbd92d4a52b3c2d	0.11552170784419565
117	0x3f9fe0ddba79fd81	0.03113123369848614
118	0x3fad985abea53ec0	0.05780299737182082
119	0xbfc2251ded6b5cd4	-0.14175771801703851
120	0x3fbe13c7b9b71fc7	0.1174893215567173
121	0x3fb7bf55989c413c	0.09276328063811418
122	0x3fc25ea8bc132fab	0.14351376708361605
123	0xbfbf630baba47ac5	-0.12260506573191339
124	0x3fb174983b711243	0.06818534327710161
125	0x3fc03c1d30b83322	0.12683453444369613
126	0xbfc00e550ff81f86	-0.12543738631961449
127	0xbf9aaeeb245a6965	-0.026057886213132337
128	0x3fb58d75022acc94	0.08418971350583809
129	0xbfa55175cd26dd8a	-0.04163711671156552
130	0x3fa77e8cbbfc9ec6	0.04588737292061533
131	0xbfbbc1ead86c42ed	-0.10842769416582217
132	0x3fb35509c25556f2	0.07551632875887629
133	0x3fb3c6b647a6639c	0.07725085496202982
134	0x3f9892fe3afb6cea	0.023998234128936348
135	0xbf6e98c745838a45	-0.0037349597952112423
136	0x3fb9413a3afbfbea	0.09865154209181495
137	0x3fc4ccdaabcc0043	0.1625016535617779
138	0xbfb1b6d420807d03	-0.06919599336150743
139	0x3fbff85b100e29ae	0.12488335744834586
140	0x3fbbf3361fdba182	0.10917986181050846
141	0xbf60295c18a07462	-0.0019728468660234347
142	0xbfb220d98b10dcc7	-0.070813747836712
143	0x3f51d911ccf1875f	0.0010893510659788148
144	0xbfc25089114fd42d	-0.1430827459841181
145	0x3fb15639701270d5	0.06772192941793105
146	0x3fb476fc29f4aa25	0.07994056724843597
147	0xbfa3a075ff0bafb0	-0.03833359468794073
148	0xbfba67c16baf405e	-0.10314568404214827
149	0x3f8530b45b7336ab	0.010346802750429282
150	0xbfbe65ac39470334	-0.11873890303014606
151	0xbfbea302a08c2938	-0.11967483920685573
152	0x3fb9ec263e8cbe50	0.10125960375875676
153	0xbfa5f7b1e9360014	-0.042905387609607853
154	0x3fbf48ff079b59d3	0.12220758376802303
155	0xbfc1f32ad3985c86	-0.14023337680621156
156	0x3fa9a8d2caba972c	0.05011614536969797
157	0x3fb9e6822c700d05	0.10117353043465378
158	0x3fb735433162456c	0.09065647082959111
159	0x3fc54984dc20def9	0.1663061213346209
160	0xbfb95d72b1d18a21	-0.09908215371391595
161	0xbfae5bb8df6e55a1	-0.05929353454045417
162	0x3f9685c499915177	0.021994659302735777
163	0x3f72e75bf4c4f00f	0.004615172580368933
164	0xbf81a4b6e9970924	-0.008614949229813158
165	0x3fc258ff35f8afd3	0.14334097037624235
166	0xbfc322ad21109abf	-0.14949573626036813
167	0xbfc2a6ced8f593dc	-0.14571557611193853
168	0x3fafc188fedbaa42	0.06202343092975983
169	0x3fbaab30988c231f	0.10417464947034859
170	0xbfc4e2d0e653ea06	-0.1631718754432116
171	0xbfbf35423c042665	-0.12190641370048068
172	0xbfaf3a66ae1bd97a	-0.06099243998862654
173	0xbfbdeaf8e75d53cb	-0.11686664246128868
174	0xbfc0de5d480bb79a	-0.13178602235660436
175	0xbfa8c9678ed2a0dc	-0.04841159456674557
176	0x3fc670b1426772c5	0.17531409971606685
177	0xbfac244aee6de972	-0.05496439133181043
178	0xbfb3f5dc76a96721	-0.07797029397025003
179	0x3fa242bba434d600	0.03566538218948878
180	0xbfc02f3261504232	-0.1264403319514869
181	0xbf8ff35938b32e4f	-0.015600869219631578
182	0x3fb725442b13338e	0.09041238834033846
183	0xbfb5b399b192b79c	-0.0847717340973006
184	0x3fadab4e4ba0dad2	0.057947584850287406
185	0xbfb9ca24ce2b0c2c	-0.10074071916010102
186	0xbfbc7d215d3d1e77	-0.11128433729492736
187	0x3fc0f7e716486bec	0.13256538951904362
188	0x3fc2cd9292068b0b	0.14689857607034926
189	0x3fc23036c1434190	0.14209637104660233
190	0xbf86acca11bc159f	-0.011071756998272174
191	0xbfc3474d59215bdf	-0.15061346866670441
192	0x3f9e4ebcc6da5057	0.02959723437977887
193	0xbfc4c070abfacf22	-0.16212280652472894
194	0xbfa4f28208eea1bb	-0.040912688818312636
195	0xbfc26ba932606fe4	-0.14391055068779146
196	0xbfb31e12ccc04c39	-0.07467763422782604
197	0xbfa5de11dc32be75	-0.04270988285986458
198	0xbf7b67a4f78eb817	-0.0066906398796344945
199	0xbfb349f5af4f2d48	-0.07534728555690606
200	0xbfb945e828718a13	-0.09872294413938958
201	0xbfbba40e5483ff38	-0.10797204554910145
202	0x3fc027d5a70e8848	0.12621565491741848
203	0x3fa9acb8061157cb	0.050145865193072924
204	0xbfb37c0605923b53	-0.07611119876876886
205	0xbfb5cac7cd06337e	-0.08512543445085716
206	0xbfaa0a467abd348d	-0.0508596443965895
207	0x3fc0e68146065086	0.13203445357487825
208	0xbf74178d45418520	-0.0049052732830159596
209	0x3fae412a07879070	0.05909091321862625
210	0x3f96d7c554f41ee2	0.022307475385814686
211	0x3fbbdfe24fbd439a	0.10888494917641225
212	0xbfa29fab5b919719	-0.0363744305875981
213	0x3fb1cff8be5b6099	0.06957964560877129
214	0xbfb5762e61f22126	-0.08383455172782259
215	0xbfc1e739c7296327	-0.13986894821825865
216	0xbfac20195bf8bea3	-0.05493239638996996
217	0x3fa1bb86b7fd8b75	0.0346338367078464
218	0xbf8af542b2b09a7d	-0.01316310985391777
219	0xbfb3e052986e4d3f	-0.07764164182144827
220	0xbf9ea8f4b9a89c19	-0.029941390830710988
221	0xbfc0c0089723df9a	-0.1308603990544242
222	0x3f8adc427e107f27	0.013115424606496241
223	0xbfc0162fdbab6377	-0.12567709184693474
224	0x3fb8e918ef9ff77e	0.09730678415504987
225	0xbfa3295f7dbed31b	-0.037425026035100305
226	0x3fbb1a4cd2f38948	0.10587005758455803
227	0xbfbb8200a7147a99	-0.10745243147946794
228	0x3fac6d941cf00221	0.055523518116391786
229	0x3fba23510eddf2b0	0.10210138905490385
230	0xbfb4256d3dac9bca	-0.07869608646124884
231	0xbfb146c76ad1d830	-0.06748625142958598
232	0x3fc55055a1089db8	0.16651411402675165
233	0xbf6d10ad7205c528	-0.0035479915242652323
234	0xbf5b95a9fb427ff5	-0.0016836318946289429
235	0x3f9a6dcb1e11fa28	0.02580945368799284
236	0xbfc149c426257a15	-0.13506366598717592
237	0xbfb495d6a0d13e42	-0.080411352407503
238	0x3fbed5376f784fe7	0.12044092627939983
239	0xbfa9dd71e7676790	-0.05051761579279834
240	0xbfa23b3a3684c36e	-0.03560811915884342
241	0xbfab1931819ccf80	-0.052926585265963944
242	0xbf819e213a59c315	-0.008602389901371002
243	0x3f94b00502267974	0.020202711349719363
244	0xbfa6cde32f323e65	-0.044539546500456585
245	0x3f93c07f861c0640	0.019289009628670195
246	0x3fba3f48d6a6a4c1	0.10252814522268051
247	0x3faab271633f736f	0.052142661442963305
248	0xbfbabc733bf5e446	-0.10443802083854434
249	0xbfa9bc90896e132f	-0.050266758705254204
250	0xbfc3b88398a2be3b	-0.15406842186847478
251	0x3fc4ba3f12574eef	0.1619337882572078
252	0x3fb75a23c16cb55b	0.0912191722133761
253	0x3fa97637cbf445e0	0.04973005642581163
254	0x3fc1025a50020fcb	0.13288430124896275
255	0x3fbfcf6f10bc5ab2	0.12425893934810509

linear.2.bias f8 [128]
0	0xbfcb528640c6e78e	-0.2134559456151774
1	0xbfc407c93d3a916b	-0.15648761262594788
2	0xbfc0713aa4a4c3a0	-0.12845547713507433
3	0x3fa1de96f918d66a	0.0349013499330056
4	0xbfc3048e24490330	-0.14857651492823143
5	0xbfa7af29a7257bae	-0.04625826039659074
6	0xbfc302fc6da141d8	-0.14852862694762226
7	0xbfa8cb32c35cbe9d	-0.048425279949126245
8	0x3fc5061257c79477	0.1642477921115277
9	0x3fae6ef9abd74b52	0.059440424181636545
10	0x3fb49a85cd5915b2	0.08048282874468418
11	0x3fba85b55e85a50d	0.10360272939364652
12	0xbfb01459e7fbbee1	-0.062810534607475
13	0x3fb6405dfb7b43ee	0.08691966428456485
14	0xbfb7f1deead935df	-0.09353440507512499
15	0x3fb90067a637fc01	0.09766242797921622
16	0x3fb39f5d27ec16be	0.07665044998801826
17	0x3fc401d9faed9a69	0.15630650284147699
18	0x3fb0ca578998dda3	0.06558749303154925
19	0xbfa4967700841504	-0.04021045571611562
20	0x3f82d69353489a4c	0.009198332766641525
21	0xbfb7fa5b367e1b40	-0.09366388397584746
22	0x3faf5a298f748b93	0.06123475910342004
23	0x3fd7653593e1ec0d	0.36555232469226057
24	0xbfbb9624ddf050d1	-0.10775976580072501
25	0x3fb09cc1ff15cc3f	0.0648919341818308
26	0x3f947ce49b558568	0.02000767896732239
27	0x3fbbec931cb5b780	0.10907859278606047
28	0x3fb0c7f70738c891	0.06555122305215579
29	0xbf919f1bd4c9dd43	-0.01720851408250935
30	0xbfb7843914bc1362	-0.09186131244866894
31	0xbf9fe015eb598d7f	-0.031128256311047316
32	0xbfa7061158be1c7f	-0.04496816833766903
33	0x3fa5dfb32e062db4	0.04272231995409062
34	0x3f9c5b018a3568db	0.02769091039713421
35	0xbfceb30e8d297543	-0.23983938114808198
36	0x3fb0c3a7d9c66c17	0.06548546854757863
37	0xbf8245c1d707b0c8	-0.008922113775917132
38	0x3fb74f64559ec08b	0.09105517473540396
39	0xbfad4e34600fcc2b	-0.05723727867725644
40	0x3f945b12fe42220a	0.01987867047185613
41	0x3fbf66bb91a55a76	0.12266132646377934
42	0x3fae5e40f0927f66	0.05931284844086697
43	0xbfaa57892b4113f1	-0.051449095277838704
44	0x3fbdc16482d642f4	0.11623218721639345
45	0xbfb85bd927de0cbf	-0.09515149329495197
46	0x3fa8f5b867f163c2	0.04874969738802505
47	0x3faef66f4cc2a643	0.06047389804855332
48	0x3fb1adf1bb9fe71d	0.06906042891196447
49	0xbfb558b05ad11c6c	-0.08338453499992377
50	0x3fb24b80f1ad4b14	0.07146459484401319
51	0xbfc4b043171c8cdf	-0.16162909153454216
52	0xbfaa2475548632e9	-0.05105940491475797
53	0xbfbc34b5356f16c7	-0.11017925791301329
54	0xbf7af4d84b239642	-0.0065811585393241185
55	0x3fc4b64c0101c464	0.16181325959363158
56	0x3f953afecd1e3c28	0.020732861775794614
57	0x3fc5e702f58dbdc3	0.17111241331029534
58	0xbfc39aeb732d54c8	-0.1531652748477994
59	0xbfae265342a621a0	-0.05888614834390471
60	0x3fa730e2c4ab8127	0.045294844157753915
61	0x3fc538314837ed38	0.16577735925953063
62	0xbf7e4a486680eef1	-0.007395060361939918
63	0x3fc4348be271eb11	0.15785358960041454
64	0x3fbd89af958b68ad	0.11538216973295574
65	0x3fb6eac3ec9d913b	0.08951973463769473
66	0xbf8797c83b222342	-0.01151997023068108
67	0x3fa70e4ff9365b9f	0.04503106991904037
68	0xbfb8bf91d5d3551f	-0.09667312116956282
69	0xbfaeaa9e661b43d7	-0.05989546772401127
70	0xbf9a4751811d6e23	-0.025662683015395992
71	0xbfa68465af99d02d	-0.043978860555313616
72	0x3fa3aefc34ba4738	0.03844440597198545
73	0xbfb4e6b157543ebc	-0.08164509183938667
74	0xbf7eba802549016f	-0.007502079552580517
75	0x3fa89b03cd89a93d	0.0480576694870529
76	0xbfaaa020bfffa75c	-0.05200292915090074
77	0x3fb45c98d74d702d	0.07953791862877387
78	0x3fa8a3c2fda314b5	0.048124402486373986
79	0xbfb8f6a108797bdc	-0.09751326043031788
80	0x3fba3f5e2a3b58e9	0.10252941638040948
81	0xbfba820f93988652	-0.10354707101262164
82	0xbfba72d067032653	-0.10331442370365922
83	0x3fb23a717acd203c	0.07120427368238408
84	0x3fa4d761cc7d9de7	0.04070573445533992
85	0xbf9eec0349b51b9a	-0.03019719254850948
86	0xbfb6607c19d487f3	-0.0874097407400141
87	0xbfb16d6285fca2db	-0.06807533045924734
88	0x3fd91cf97598c3f7	0.3923934601216951
89	0x3fc1c6cb9832f9f8	0.13887925082777008
90	0xbfa695f415043f40	-0.04411280399847195
91	0x3fbc0e920975d97e	0.10959732752767157
92	0x3fb33d22069945e0	0.07515156422711966
93	0x3fa8e5d552b14c46	0.04862848886900699
94	0xbfb1a7f1c4933bb6	-0.06896887826154238
95	0x3fa373fc765926ff	0.03799427933388521
96	0x3fbfaa2fdc8bd310	0.12369059690884066
97	0x3fa2e16679a61e47	0.03687591776821058
98	0x3fa6899709840a33	0.044018478309244456
99	0xbfa6d2827816f5e8	-0.04457481113375278
100	0x3fa5e17cef2a4778	0.042735962099995584
101	0xbfa44e5cdffcfe01	-0.03966036066276147
102	0x3fbdee1d58eda850	0.11691459103681834
103	0x3f70677b8f825ebe	0.004004938753631114
104	0x3f762f21bf58f464	0.005416042161923238
105	0xbfb00f4df0e3bade	-0.06273352748005886
106	0x3fb645bf0d80c783	0.0870017440763871
107	0x3fa95dca756406c5	0.04954369242660798
108	0xbf985e1e55afd056	-0.023796533565431176
109	0xbfc25c3a131b2aec	-0.1434395402232761
110	0xbfb183483a8f03ea	-0.06840945653586031
111	0x3fc5eecec0d5e7cb	0.17135033050345636
112	0xbfb9b846417841c3	-0.10046805475599911
113	0x3fc9f979e725be06	0.20292590891357082
114	0xbfc157350f07656e	-0.13547385438759413
115	0x3fa06721450fb351	0.03203681915315449
116	0x3fb2a64ae58ea562	0.07284992317604158
117	0xbfa06dc21faa7060	-0.03208738934083111
118	0xbfbb9a2b2b50b7fc	-0.10782117660048124
119	0xbf84598165cf6429	-0.009936343116281847
120	0xbfb07c92a9a554cc	-0.06440083162063387
121	0x3fc62b01cb987628	0.17318746987523181
122	0xbfa4d0723c025aba	-0.040652818513242164
123	0x3fb6d42ec8eeb850	0.08917515187815295
124	0x3fa4db246d13ab2a	0.040734422984164034
125	0xbfc0205bf2f78dfb	-0.12598752368567986
126	0xbfa4e7e13937e548	-0.040831602320347715
127	0xbf6cc94f2071ebfe	-0.0035139604038341146

linear.4.weight f8 [128, 128]
0	0xbf9351261fc68ea8	-0.01886424607222517
1	0xbfb87a6207c907f5	-0.0956174153334642
2	0xbfa277b09f28d057	-0.036069411686555135
3	0x3fa21f694528f86d	0.03539589852560785
4	0x3fb9a475872e9b91	0.10016569662421505
5	0x3fc21f71f8eedd64	0.14158463149008604
6	0x3fba9edd610ae125	0.10398658389283762
7	0x3fbc6449c1895e49	0.11090527510656857
8	0xbfc2eeb12b837dad	-0.14790930390061643
9	0xbfb0d41b0a17280b	-0.06573647495602601
10	0x3f5861b8b258ea84	0.001488142364350382
11	0x3fb690460725ead5	0.08813893961443438
12	0xbfb546a3ba882799	-0.08310912422180507
13	0x3fa163394ba733cf	0.033960142598153824
14	0xbfc31dd652b4dac8	-0.14934805906678705
15	0xbfc094f7cff20ebe	-0.1295461430892057
16	0x3faea2eedf1f6ed3	0.05983683084170157
17	0xbf84e8b1bf8cb8f5	-0.010209454210408067
18	0x3fb1760ed35d26f1	0.06820767078638902
19	0x3f96b197310e1d51	0.02216182934674055
20	0xbf78201bc7d83ebf	-0.0058899960690863
21	0x3fba851bd4b150d2	0.10359357779208558
22	0x3faf6ca8731171ea	0.0613758697952312
23	0xbf7d3dc1c52c1525	-0.00713897410856149
24	0x3fb452b7655e1890	0.07938715195459367
25	0xbfae6cf49bbaeb0d	-0.05942501450541302
26	0x3fbf9aae3d271554	0.12345398896203125
27	0x3fc3670b57ceea4c	0.15158216273796865
28	0x3fbde5e5398f18db	0.1167891755604588
29	0x3fb873f7869aec61	0.09551951442965524
30	0xbfb48b7c90edb5ba	-0.0802533963994482
31	0xbfb6f90717833b2c	-0.08973736118353476
32	0x3fb7054cf556d7f7	0.08992463102080693
33	0xbfc2eb110323e948	-0.14779865887960342
34	0x3f9a67065556c4f4	0.02578363319270678
35	0xbfaa119beb44a87d	-0.05091559645582409
36	0xbfa570193ae21a5c	-0.04187086910046808
37	0x3fc1613773e96a71	0.13577931556467918
38	0xbfaf077a2f83653f	-0.06060392217632193
39	0xbfbfc95fa94ac630	-0.12416646845920165
40	0x3fb1dcb51fcf9d76	0.06977397944102912
41	0x3f7a37636d7c4878	0.006400478734365327
42	0xbf65dbc88a599348	-0.002668277435804365
43	0x3faa5d2c949da1fe	0.05149211229474203
44	0xbfa3e642f1cec3a0	-0.0388661308455831
45	0xbfc2fea04206ebc7	-0.14839556907631232
46	0xbfb922ad64e7155c	-0.09818538392490467
47	0xbfab6af819808d84	-0.05355048476510674
48	0xbf78985b1e0d3c6a	-0.006004672934820746
49	0xbfbc457be7f29d52	-0.11043524182115519
50	0xbfb746b819f50233	-0.09092283853261378
51	0xbfbfc37e84284a99	-0.12407675482271897
52	0x3f98979d7fd6d856	0.024015866210639857
53	0xbf8b8dfea8341775	-0.01345442725006383
54	0xbfbe3bda93285cdb	-0.11810079663006283
55	0xbfb487565a3283f4	-0.08019008352358964
56	0xbfa9621c6cb9cce8	-0.04957665278643636
57	0x3fb6c792ca7b80be	0.08898274844568996
58	0xbfa71651651c47d2	-0.04509214743860891
59	0xbfbf146fd08c58a1	-0.12140559045323808
60	0x3fb58a5e2f8dfa93	0.08414257679940311
61	0x3fc251d91292212d	0.14312280089166887
62	0xbf9be13f9ac72bd5	-0.02722644216718691
63	0xbfb12d434e1ec41a	-0.06709690720778419
64	0x3fbeeb6017d23de3	0.1207790430219045
65	0x3fb73eaecdf125d9	0.09080021407967055
66	0x3fc3ef631f2bd1e3	0.1557430174067483
67	0xbf9b1779242e6556	-0.026456730683638817
68	0x3facd1073a6ed76e	0.05628225887578152
69	0x3fc2b29104e81d0f	0.14607441653809203
70	0xbf9ed1188bc31b65	-0.030094512491611342
71	0x3fb4f33e72270c31	0.08183660780837056
72	0xbfc13c2ba1e93cb1	-0.1346487560826737
73	0x3fba06b6d0647add	0.10166494929988397
74	0xbfc08a8c01c4c7bf	-0.1292281159053896
75	0x3f94046d6a2babda	0.01954813919557439
76	0x3fad59e08081e3d0	0.05732633179372437
77	0x3fba21025cc78f52	0.10206618085026989
78	0x3fc14fec98cd3b3f	0.13525159321803845
79	0x3fc04d3f04abf9e4	0.12735736587633462
80	0xbf9121dedcbc8d2f	-0.016730768416107707
81	0xbfac6f585e33b3e4	-0.055536996363890784
82	0xbf8e282dac96d671	-0.014725071744446457
83	0xbfb223e27997f51d	-0.07086005657761914
84	0xbfb76ec7597d11a3	-0.09153409895686208
85	0xbfc284fe3dab0696	-0.1446836281884784
86	0x3fa44053fe210066	0.03955328442725729
87	0xbfb08521d778b72f	-0.06453143606696864
88	0xbfb873a40eba7d6f	-0.09551453933317132
89	0x3fb311689d2a29aa	0.07448438488987699
90	0xbfaa8d54c2ccea74	-0.05185952070174418
91	0xbfbef050bf9d5854	-0.12085442236033944
92	0xbfaac7e34752f72e	-0.05230627294211697
93	0xbfb30845a5a40456	-0.07434497159921824
94	0xbfc146ed3a274bc9	-0.13497701015020727
95	0x3fbaf11a344d8fbe	0.1052414300625619
96	0x3fb0f46eb91235dc	0.06622974413240662
97	0x3fa43422adeed671	0.03946026204304765
98	0x3f82fe14ba9920f0	0.009273683495067492
99	0xbfbd7d36ef98d4a9	-0.11519187306915292
100	0xbfc33c42faadf631	-0.15027653923236664
101	0x3fa6a901a9156357	0.044258167162019184
102	0xbfb5f0aba193186d	-0.08570358938877272
103	0x3f9a5e44bf418ac4	0.025750230954495704
104	0x3f9e04abfe08b60f	0.02931469667435321
105	0x3f9e24563c2865f0	0.02943548910307031
106	0xbf9e180d95c8265d	-0.029388630167920805
107	0xbfb77be636c50cf9	-0.09173430287505714
108	0x3f945f222635edae	0.019894155103867987
109	0xbfbbee838839e15e	-0.10910818172294998
110	0xbf9f97506bcb1a39	-0.030850655154404747
111	0xbfb083819e551857	-0.06450662723099874
112	0x3fae15ed8ff5459b	0.0587610471944899
113	0xbfb62fc5e3bf448b	-0.08666645822747136
114	0x3fa42e0104ee67c6	0.03941348252483538
115	0xbfb399bd07dde18f	-0.07656461183603923
116	0x3fba346ae9c83a62	0.10236232955524252
117	0x3fbec4c92521ef3d	0.12019021183544694
118	0x3fa137d055c888c9	0.033628950568770195
119	0x3fa5074fdb6fb6f7	0.041071410690944825
120	0xbfadb902926df9ab	-0.05805213963957397
121	0x3fc14922a339d3a5	0.13504441232694578
122	0xbf88f3b7e344c1c7	-0.012183605788408948
123	0x3fb11dc17d56c111	0.06686028776198706
124	0x3fa771f19f81e0eb	0.0457911975108248
125	0x3fc2894cb5b83237	0.1448150527288747
126	0x3f7e105d97eaafa1	0.007339826201739814
127	0xbfb67a9b368a7867	-0.08780832368435797
128	0xbfa57ad272373585	-0.04195268291696678
129	0x3fadfc574de777c2	0.05856583429316188
130	0x3fbea21aba3dc6c4	0.11966101691157421
131	0x3fadcd899098090f	0.058208750630017396
132	0xbf8c07d819046301	-0.013686836493933098
133	0x3fb545c7dd7b5fb8	0.08309601933740296
134	0x3fa05429067dcfdf	0.0318920917915475
135	0x3fb4039043a14bc2	0.07817937518238607
136	0x3fb08c4aa7285d68	0.0646406801318925
137	0xbfbf405f1a56b939	-0.12207598107372498
138	0xbfbe44919de50a81	-0.11823377709246509
139	0x3fbf2018f22834f2	0.12158351814305826
140	0x3fb985983926b62f	0.09969474215787309
141	0xbfb197501a1b591d	-0.06871510159848922
142	0x3fae89a146671499	0.05964378342063376
143	0xbfbbae0f785e9410	-0.1081247013922424
144	0xbfc3d80078a9bd30	-0.15502935306310794
145	0xbfa7d74cc8f0f30e	-0.046564483193355696
146	0xbfc26cb3f26b484d	-0.1439423497855067
147	0xbfc18f53c9373b1e	-0.13718650174129093
148	0xbfb15679b6ac3f04	-0.06772576055322693
149	0x3fab216416b9453a	0.05298912789715833
150	0xbfaa309f7856e566	-0.05115221351611403
151	0xbfc03ee81a7a7541	-0.1269197587288691
152	0xbf75fe97ff0bf0f9	-0.005369752631619423
153	0xbfb66d24492f8f3c	-0.08760287081491652
154	0xbf235c9699584d2c	-0.00014771784178489158
155	0xbfa16b460ce5a2f5	-0.034021557878821364
156	0xbf994e519e09a071	-0.02471282507977474
157	0xbfa43bf1aa2a5b1c	-0.03951983644690513
158	0x3fb3c9c43aa2def2	0.07729746276424601
159	0x3fa5efbe6176a0fb	0.042844724080454775
160	0x3f9b5cdb1b683d71	0.02672140459804723
161	0x3fbcf6a767112f75	0.1131386400822388
162	0x3fbbbdbca478224b	0.10836390509951703
163	0x3fbbb4eca504a581	0.10822943714869916
164	0xbf7489ef4aa2b125	-0.005014357311818683
165	0x3f86e5e4190c114c	0.011180669798257846
166	0x3f5d797c7f66dcf2	0.001798984126805622
167	0xbfc22f79827cdf7f	-0.14207381125902072
168	0x3f9bdfaaf9731a27	0.027220412707516097
169	0xbfbb82f7e8a5752d	-0.10746716909257677
170	0x3fc194b504e442ea	0.13735068072175888
171	0xbfbea68f7f2160e1	-0.11972901204842713
172	0x3fb807d26b585474	0.09386935349205477
173	0xbfb386675b0fc938	-0.07626958821473273
174	0x3fa1a5d23c3d9df2	0.03446824059829713
175	0xbfc2015cb639a050	-0.14066656968793945
176	0x3fa4f7fadf0791e0	0.0409544369938748
177	0x3f91ab698cb6e6f9	0.01725544854500691
178	0x3fb690f6e7de7aa9	0.08814948235383703
179	0xbfb16cd9db4a2f41	-0.06806718448404771
180	0x3fbb3355b6712a21	0.10625205711509313
181	0x3f868ef84a31d048	0.011014880909194016
182	0x3fb89daf45f401e7	0.09615607698288607
183	0x3fad6ba87ba056a7	0.05746199139700297
184	0x3f88118281b2e280	0.011752147276966385
185	0xbfbafde810ac9fd6	-0.10543680579269163
186	0x3fbad340cea65431	0.10478596730384095
187	0x3fbcb1e89dc160d3	0.11208967067193791
188	0xbfc02f46e77c5421	-0.12644277861605338
189	0xbf831fb57c5ce209	-0.009337823732139776
190	0xbfb2b92f0b41f076	-0.07313818001597547
191	0x3fc01f38c51ea225	0.12595281243308523
192	0x3f90905849ad059c	0.016175631996934933
193	0xbfc0d6aeebf706bd	-0.13155161401487261
194	0x3fb3d6b330e6a483	0.07749481147642893
195	0x3fc38bbe671c9571	0.1527021411394958
196	0xbfbb027a3203c8c7	-0.10550655098976157
197	0xbfbeb6b095efe572	-0.11997512493680576
198	0xbfba620a5e004c8e	-0.10305847926092523
199	0xbfc491e5fa868361	-0.16070246441543204
200	0x3fb386ce8242dd3d	0.07627573661999505
201	0xbfb950aa1ce2aec1	-0.09888709264003649
202	0xbf96ef79d396d6c8	-0.0223979030031021
203	0xbfa90fa49e7f1bc8	-0.048947471950263444
204	0xbfb587adace28a59	-0.08410153837989166
205	0xbfa58b762a43fca0	-0.04207963243424584
206	0x3f9b39328f95f62e	0.026585378659993157
207	0xbfa276b7bc9e69b1	-0.03606199433780278
208	0xbfc2dac2143dd55c	-0.14730096805912296
209	0xbfb45908a56f6bbc	-0.07948354758211357
210	0x3fa767061e45db48	0.04570788497487982
211	0x3fb9890e09a9d1cb	0.09974754081651509
212	0xbf97095523bfb5bf	-0.02249653845495003
213	0xbfb012b1fe669e7c	-0.06278526745756524
214	0xbfc02e0ce36de23f	-0.12640534501021425
215	0x3faeeaa48f6138e2	0.06038393259278664
216	0x3f97410749b0ede8	0.0227090014197823
217	0xbf91c20454592d7c	-0.017341678283896197
218	0x3fb102185a3fd92d	0.06643821910242727
219	0xbfa5d526ed8a2b2f	-0.0426418461766701
220	0xbfb09e348baa9534	-0.06491402063200696
221	0x3fa92e25e203a2ad	0.04918020614588179
222	0x3fbfb32914edaaf7	0.1238275219053938
223	0x3fa52509b7401796	0.04129820215170736
224	0xbfb6a4264a624cee	-0.08844222370162289
225	0x3f956862f5b48ae3	0.02090601563134954
226	0xbfb27f68c79fb3f4	-0.07225661157254121
227	0x3fb9fd6b8fc5f3e7	0.10152313480462248
228	0xbfb883de124c7f68	-0.09576213785885346
229	0x3fa9a447f2e671a1	0.050081489945316145
230	0x3f91cde6019130d9	0.01738700279774794
231	0xbfc046790a30d01d	-0.12715065953818874
232	0xbf48ddbe3f298936	-0.0007588557185267744
233	0x3fb25049906eb130	0.0715375878923552
234	0x3fbbe38b5cee0cbd	0.10894080179973549
235	0x3fc0963c07111461	0.12958479256681968
236	0x3f98ecdf25cdeaf1	0.024341093714137455
237	0x3fc03c8e6ac458db	0.12684803212386594
238	0x3fb8c24200f296c3	0.0967141392053135
239	0xbfc278947d20f348	-0.1443048106174507
240	0xbf422873c46e9ed6	-0.0005541386861880003
241	0x3fb010e004467caa	0.06275749306085979
242	0x3fb9b23f90f270eb	0.10037610329385742
243	0xbfc1767d2d807e21	-0.13642849656842862
244	0xbfacf04caef2f190	-0.05652084003074542
245	0xbfb72e42d9dbfb99	-0.09054963892775304
246	0xbfb6e055f7d3b2b3	-0.08936059284651314
247	0xbfb6e45e2db2222e	-0.08942211738224934
248	0xbfba610bddbed75c	-0.10304330981929638
249	0x3fc143066ad77907	0.13485794274215143
250	0x3fbcc5cf653ce32b	0.11239334317805276
251	0xbfb2fa2790cc0871	-0.07412955555995084
252	0x3fb2d7a6b5ab9b5d	0.07360307631789227
253	0x3fb65c30df48dc4d	0.08734422160419904
254	0x3fb70b630fcc8610	0.09001750121799312
255	0x3fb50f4c3dfb8cc8	0.08226467622039302

linear.4.bias f8 [128]
0	0xbfa62089e30c761d	-0.04321699997511195
1	0xbfb72c3199584462	-0.09051809304971095
2	0xbfc224eb8dc3f3a5	-0.14175171301022008
3	0x3fb399817c589d0f	0.07656106267733186
4	0xbfb9df3afdf25769	-0.10106247615689558
5	0x3fae3ec105fef929	0.05907252500718336
6	0x3fc5b31f1e0ebfdc	0.1695288559690188
7	0x3f8988561b9a960c	0.012467072217371665
8	0x3fc2ede3b587d49c	0.14788481105612028
9	0x3fb80df5b65fc252	0.09396300985805198
10	0xbf89fb7ffe0e1c99	-0.012686729374548998
11	0x3fb2cc8ac8a94120	0.07343356512979371
12	0xbfbf131a91c1be02	-0.12138525064960251
13	0x3f9ed11f79a09954	0.030094615744155576
14	0xbf9a55314cedff3c	-0.025715608902373108
15	0x3fbe0072f6b03f91	0.11719435236613963
16	0x3fb03b5bd84a1d5f	0.06340574293618804
17	0xbfb658e8996a3bc2	-0.08729413743479511
18	0x3fad742da4def464	0.05752699506363326
19	0xbfc26de69facd6c1	-0.14397890850675846
20	0xbfb1b09a842b3e6c	-0.06910100676327041
21	0x3fbb8859771a5dea	0.10754927785671212
22	0xbf9c0b687a0157d7	-0.027387268492326058
23	0x3fbd4c8b8cfc2ca1	0.11444923584001511
24	0x3fb29df3e3936030	0.07272266679808648
25	0x3fbf5872102857f6	0.12244332212898698
26	0x3f8aa678ff4e9fe8	0.013012833873133858
27	0x3f97a205853372f4	0.023079000716154277
28	0xbfa9b85732b85cc2	-0.050234532300402104
29	0xbfc35e3ae429d9df	-0.15131317272944408
30	0xbfb193127bfbf415	-0.06865039374311295
31	0x3fa5d70dfe1c6159	0.042656361836807384
32	0x3fac79bc59b4683f	0.05561627001789348
33	0xbfac8dbe2f91c877	-0.0557689126079745
34	0x3fbb239f814914a1	0.10601231485732622
35	0xbfa44f091ae841d5	-0.03966549352128693
36	0x3fbd2edee68007d0	0.11399644019550625
37	0x3fa66d0183d5a36a	0.043800399153787264
38	0xbf87f51a2bdafa7a	-0.011697964156494257
39	0xbfa46c7ca4eca957	-0.03989018929708504
40	0x3fbac0706ff45e26	0.10449888928666748
41	0x3fa32392b94d0a31	0.03738077651953054
42	0xbfc14a1bafff82d9	-0.13507410138756518
43	0x3fb87ff57d7fd8f5	0.09570249856901454
44	0xbfacb7d6db1fd17d	-0.05609008240563449
45	0xbfae32b052c78676	-0.0589804745720927
46	0x3fbae171d6ef37c1	0.10500251290724717
47	0xbfc1139b9ad6b4c8	-0.13341088352664188
48	0xbf935bf3b919dfb9	-0.018905456707642296
49	0xbfa8dfddba8ae2fc	-0.04858296301012463
50	0x3fc6f09ae395d146	0.17921768295821944
51	0x3fc96ce64ea13467	0.19863585318890672
52	0x3fbc4d4ab90c17d3	0.11055438058619353
53	0xbfa6c23bc99854ee	-0.044450634344835524
54	0x3fbbcd2bcc4c0494	0.10859941232412701
55	0xbf744a85dedd757f	-0.004953883106137424
56	0xbfb118dfaa813d2d	-0.06678579247203649
57	0x3fb61557efc43eeb	0.08626317599941628
58	0xbfa3e19a116ecfaf	-0.038830580356630555
59	0xbfceb1aedc5dfc50	-0.23979745636094885
60	0xbfc0169b64736276	-0.1256899109346425
61	0x3fa8bff663449d6c	0.04833955728309544
62	0x3fa4bbad01c89f6f	0.040494352786764824
63	0x3fc13b916fdfe48f	0.1346303745520214
64	0x3fc23e5f34b5577e	0.14252843927050302
65	0x3fb47afe5d0c4fc3	0.08000173350984512
66	0xbfb4075954e7f063	-0.07823713610554388
67	0x3fb0381a2e433b78	0.06335605267962119
68	0x3fab5b10607ff8f5	0.053429137973568
69	0x3fab2eb316c6afd9	0.05309066441563432
70	0x3fbb53d6f4502de7	0.10674804176976914
71	0x3fcc7288161921b4	0.22224522665989144
72	0x3fb46d8f1a333f08	0.07979673757222028
73	0x3fb4727577c28a09	0.07987150358034269
74	0x3fb20f651891656c	0.07054740762523232
75	0xbfb60ffbbabea16c	-0.08618138608165332
76	0x3fc10e8bc5359726	0.13325640801775157
77	0x3fb87dd739fcb847	0.09567017713263325
78	0x3fae8812387218b3	0.05963189066919607
79	0xbfc4092ba60bbb90	-0.15652986152369097
80	0x3f9cf7046a2f59be	0.028286046010032477
81	0x3f931e2f9e071c14	0.01866983797097184
82	0x3fb0176afba39f17	0.06285732883008809
83	0xbf94169b1f632ac3	-0.01961748484681426
84	0xbfb67c435f15520d	-0.08783360549325199
85	0x3fbb3dc9d5e8cb27	0.10641156647106396
86	0x3fb6cce33d92dd99	0.08906383755935678
87	0x3fb86da6679e1e18	0.09542312650420859
88	0x3fb2a44661755b7d	0.07281913642269262
89	0xbfa5a79813131f91	-0.04229426606030907
90	0x3f9bce773b267b90	0.027154791817902757
91	0x3fb8b69fbd2d3d64	0.0965366207940313
92	0xbfb68ab60cb3026f	-0.08805406389275004
93	0x3fc37c18077c6542	0.1522245441963524
94	0x3f8ebe2b7e1b774e	0.015011157785405207
95	0xbfabc44dafca0881	-0.05423205157150424
96	0xbfa402c3b96ce02f	-0.03908359182827358
97	0x3fba973e4668dbe6	0.10387028902992732
98	0x3fa2ecf242af6ebf	0.036964007034581574
99	0xbf969aeb5803ada5	-0.022075345274897313
100	0x3faf27ae851aae97	0.06084962248618558
101	0xbfc303c2e91b150c	-0.14855228788489006
102	0xbfbe926a2a05346d	-0.11942161107909195
103	0x3fc2ff05daa9ca94	0.148407680291332
104	0xbfb40799109cc7fe	-0.07824093490197012
105	0xbf8be6fa6c8ca8f9	-0.013624149739900991
106	0x3faef4b10a23d15e	0.06046059845712891
107	0x3f899a38cb4fad8c	0.012501186089102466
108	0xbfc4de50497ff331	-0.16303447331292767
109	0xbfc0cb953709f9e9	-0.1312128561730355
110	0xbfb00531f62198a1	-0.0625792718798004
111	0x3f91f5edcc2886a2	0.017539706788858418
112	0x3fc25ca40030f2cd	0.14345216760002302
113	0x3f6a363422417571	0.0031996744383337374
114	0xbfc49948f2e9f000	-0.16092788563753402
115	0x3fb4290d23de18a3	0.07875139356301246
116	0x3f9445a7d42493f6	0.01979696495358848
117	0xbfb5d8a5617557f7	-0.08533700589518377
118	0xbf67c0f6b4260042	-0.002899629443334135
119	0xbf766d9e2455d2dc	-0.005475633375102897
120	0xbfac8de924b3dccb	-0.05577019284276615
121	0xbfba5606da1bd979	-0.10287516426965294
122	0x3fb803f59b25ac25	0.09381041562817012
123	0xbf8a1fd260a753f2	-0.012756007742533246
124	0x3f935c3aa2719fd0	0.01890651337126298
125	0x3f840c94419dfbd6	0.009789617779231746
126	0x3f9a603d0372ede6	0.025757745109087703
127	0xbfaa57e4a56bdc42	-0.05145182151130047
