run/pinn_model.pt (torch, 276772 bytes, 8 tensors)

linear.0.weight f8 [128, 3]
0.05243050703142561 -0.08671947518516758 0.20623409930217376 0.061107230979565316 -0.3207834422114502 0.3541010722521478 -0.23588822649244612 0.03905835910032802
-0.18740064551231292 -0.09610069155483829 -0.10782246820566459 -0.3747636735174795 -0.06205843439515572 0.1944898369101822 -0.10039828980641569 -0.05977502025540336
-0.5124508670088653 -0.4380142243059349 -0.14291361292060206 -0.3701839300628651 -0.37629668417408163 0.054452233849835684 -0.3349522181022596 -0.4683628359093718
-0.21303823801736746 0.22966042167324888 0.040284036460921414 0.15726534011336196 -0.017640396716723836 -0.42016099587078065 0.16919713454300583 0.0007455165442292754
0.3258907886563074 -0.041802203265437876 0.05271663666856318 -0.08845855598473934 0.025743835901720885 -0.040383794771046054 0.11970857749833679 -0.22446686192651977
-0.2511951628733604 -0.3484996070824123 -0.03932131027817855 0.16053761539340655 0.6156337054070667 -0.06106929612584366 0.015017145113054443 -0.17323483113646235
-0.01884110456719424 -0.12413319173698825 -0.06666532651479468 -0.06143274561152885 0.018995987475558637 -0.4650088017385764 0.1520211023142766 -0.5391719839090491
0.29333187713386444 -0.11115701713949892 -0.06341699434813244 0.1446605684833291 -0.073306021605947 0.4286001385014701 0.5381699558500875 -0.1271240556439245
0.16311716788337924 0.11551460773293387 0.12210006946921982 0.27151754351106555 -0.4995128456648959 -0.08820870846241001 -0.027973815355908985 0.21849996552094372
0.20706980326219573 -0.16415869600741387 -0.204191433927667 -0.03237398783366419 -0.3104153594444064 -0.02540196684091492 -0.16568981622966047 0.23709534230163806
-0.03874918846062307 0.10995011965304655 0.12393708432187284 -0.191801348417036 0.029238033480038395 0.26370745250323624 0.157650772332431 0.2164226192477113
0.19661615763722345 -0.08086671505490109 -0.08267332292779683 -0.019513560847372647 -0.3169894684727235 0.10653147237591304 -0.14055417782223628 0.2476380342885807
-0.04402935444125107 -0.20203499246149453 -0.188764832267642 0.03152264694425961 0.09864712080321496 0.034488292805590154 0.05988413582526951 0.047893119537137534
0.1855920868066139 -0.09188271948030154 0.28043542074037653 0.24550394957458008 0.07982973074964601 -0.15709600719835187 -0.11821345939582377 0.04115132037777457
-0.06002232918172343 0.25459943863399176 -0.07976203374808642 -0.16247745452661727 0.006486925885406642 0.06990947462062849 0.15776309429334828 0.4180431191171234
-0.0959098758010754 -0.022365062537031237 -0.2549462177035529 -0.06622757503092382 0.0004280856659626343 0.170667071590543 -0.006201266880283717 0.47573187753508017
-0.22446606651671228 -0.03457121203763199 -0.10727806037198917 0.40454429746631043 0.011290897181831506 -0.6175160965079448 -0.1350144412767453 -0.026519936375893824
0.07443314002547566 0.02121208134493798 -0.12795081798682997 -0.13719698474103068 -0.27784758509357166 0.08716126273832016 0.19975758288776022 -0.2169303361822057
0.09166351075234236 -0.11460119464638514 0.17670138596988608 -0.053217467683982576 0.46589618273422895 -0.09065467300295382 -0.0700439789571212 -0.24859058970793318
-0.06824287985272876 -0.15369999291663455 0.07266485551584696 0.1985002322856794 -0.04328850719046233 0.20968143379240978 -0.3031810688962611 0.17963390835958948
0.6169983147394624 -0.10881299437527894 -0.08694739654550843 -0.09264709879163324 0.26156749996729844 0.507376185936201 0.29945763458538127 0.14088395733186174
0.20258339129024386 0.13790948194049155 0.19900843739145757 0.09274531031694176 0.5600866615902809 -0.29834051077503393 -0.10933484431758726 -0.23192341288973478
0.034638134795367335 0.11236214498546795 0.21792525570778692 -0.23153866197934206 0.13129227397297133 0.15441792979133265 0.18102116946590172 -0.06749130479243387
-0.2999413384101887 0.09852687581851506 0.11111255539416107 0.1706769157879539 0.4827750245327461 0.12131882804599571 0.1741447764516665 0.19470860753295832
0.17434515133177864 -0.17109348081464923 0.14878026070031958 -0.04671611490425436 -0.09330300436389245 -0.02851056362135927 0.1700212078538436 -0.1122416619444097
-0.29772655567381207 0.39595758186764535 -0.09267754055467581 0.38542200064622334 -0.07028526726705107 -0.12198461023286661 0.5302629707028209 0.15308347749276793
-0.168337437695016 0.020080006685466407 0.13150128415789303 0.2690357276819163 -0.3554756387708575 -0.15894031507687142 -0.06531287100964063 0.5186163839041996
-0.08018236999116748 0.03911713210449993 -0.33896399900739527 -0.1945003846176241 -0.2307599797291709 0.17339583910052597 0.1217965420118074 0.03682264642522101
0.15770992847304244 -0.012157069042596315 -0.11059771092129042 -0.19192466572773148 -0.02277323004569522 -0.12203142449319196 0.3180793959627963 -0.07052759722704284
0.4678538238266258 0.15791400979638484 -0.0683825335918084 0.07391103971470143 0.21832018217118812 0.032518065323520515 -0.23906044258341874 -0.24194292735797723
0.10524958239592937 -0.22178628580395757 0.15192061458202272 -0.11760031981858211 -0.20399762958809223 0.2668421302066228 -0.2388957747416522 -0.045588733075403697
-0.11993316732170438 0.11477941029932917 0.01991589820377303 -0.4254899232594917 -0.2942216545428464 0.006035169069009908 -0.06978943115827738 0.024133053279221203
00000000: d27c 06e2 2bd8 aa3f 5bb9 d85d 3f33 b6bf
00000010: 3d53 e903 e165 ca3f a673 366d 7249 af3f
00000020: 0160 5946 b787 d4bf e84b 338b 97a9 d63f
00000030: 9cf3 25dd 9531 cebf 8952 f10d 75ff a33f
00000040: 17c2 dc8d befc c7bf 0bdc 590f 0e9a b8bf
00000050: e3a2 b7d6 409a bbbf 1c21 5fc6 20fc d7bf
00000060: 7618 5684 1fc6 afbf 6980 7700 0be5 c83f
00000070: 8cfa 4acb b3b3 b9bf 4eb9 3ada d49a aebf
00000080: 7b84 535c ff65 e0bf 45ea 24d0 6c08 dcbf
00000090: 16d7 d246 fe4a c2bf 04fc 47f0 17b1 d7bf
000000a0: 2dbd 07b0 3e15 d8bf 638b 28c7 29e1 ab3f
000000b0: 0633 9e6d db6f d5bf ce1f b91d a8f9 ddbf
000000c0: d980 8a44 d644 cbbf 95d6 2240 8365 cd3f
000000d0: 2512 4df6 1ba0 a43f fa64 4a4a 4521 c43f
000000e0: 4c7a f2fb 5210 92bf 8177 14f2 eae3 dabf
000000f0: 2635 b86f 40a8 c53f 092c 8a96 d86d 483f
00000100: dc2c d609 65db d43f 7802 da2f 1967 a5bf
00000110: dfa7 e4cc acfd aa3f c47e 014d 38a5 b6bf
00000120: 58ff 1595 975c 9a3f 33f8 a84b 2fad a4bf
00000130: 1bf2 67a9 38a5 be3f 984c 8183 54bb ccbf
00000140: 2416 5de0 9413 d0bf b19e c54b d14d d6bf
00000150: 927d 5c3b ec21 a4bf ae3d f21f 7f8c c43f
00000160: 9f3c e174 45b3 e33f ffeb 4c8b 7944 afbf
00000170: 546c 1e19 4fc1 8e3f 152d 2117 8f2c c6bf
00000180: 2218 bf1f 154b 93bf 2ac4 db5e 31c7 bfbf
00000190: 1c80 2895 fa10 b1bf 7a29 9ce2 1c74 afbf
000001a0: 1fdb d923 af73 933f f66f f446 b4c2 ddbf
000001b0: a1ef 5e6f 6d75 c33f b9e1 b99a e540 e1bf
000001c0: e082 ca10 f3c5 d23f 73c6 5549 c974 bcbf
000001d0: 6260 bc9c 183c b0bf a80d 54cd 3c84 c23f
000001e0: c7bc 65f5 2ec4 b2bf 4f31 7b46 2f6e db3f
000001f0: c51b 0233 b038 e13f e544 c3de 9945 c0bf
00000200: 2bd5 bcfa 05e1 c43f 2058 6c86 5d92 bd3f
00000210: 21aa 353d f341 bf3f ede5 6a1e 8b60 d13f
00000220: 0502 04ba 04f8 dfbf e785 118e d894 b6bf
00000230: b152 64f8 2aa5 9cbf 6377 0b8f cef7 cb3f
00000240: 5509 8068 4381 ca3f 3d59 5af3 2603 c5bf
00000250: c3dc 6be5 f122 cabf 612f f9c5 5293 a0bf
00000260: 0d59 3f62 d8dd d3bf 88dd 5723 f902 9abf
00000270: 474a feea 5235 c5bf 4b17 9ce2 2359 ce3f
00000280: 66ad 5e02 efd6 a3bf 1ee3 19e8 b025 bc3f
00000290: c48d ec3b 57ba bf3f d0d2 6353 f28c c8bf
000002a0: c06c 6236 93f0 9d3f b69f 0d39 95e0 d03f
000002b0: f9af ad87 e62d c43f 5b4c e483 bcb3 cb3f
000002c0: 1262 75df b72a c93f 8ae9 7e58 aeb3 b4bf
000002d0: 28fe 3932 142a b5bf bd00 ace6 5cfb 93bf
000002e0: c512 1132 8e49 d4bf 046a d985 a545 bb3f
000002f0: ae05 88e6 adfd c1bf 71f1 4165 9ab2 cf3f
00000300: ba40 c7fa 038b a6bf 5e86 a25a 48dc c9bf
00000310: b6ba 9c2e 7229 c8bf 69fb 6a83 bc23 a03f
00000320: 33c2 b10d f040 b93f 8cc7 6313 73a8 a13f
00000330: fe66 d629 22a9 ae3f e718 3b6c 7285 a83f
00000340: d98a 9d43 7bc1 c73f 9d45 3c3b a085 b7bf
00000350: 2013 2e68 a7f2 d13f 7f17 3b65 ac6c cf3f
00000360: 8d76 d1a2 b86f b43f 92e2 9fd2 b81b c4bf
00000370: 9355 0dbe 3c43 bebf ae65 6b2e c911 a53f
00000380: dc01 bb29 3fbb aebf 3bd4 a071 5b4b d03f
00000390: 2f15 69de 486b b4bf 22bb c3ac 0fcc c4bf
000003a0: 6169 78e8 0892 7a3f 9a17 2d5b 96e5 b13f
000003b0: 9eba 40c1 9431 c43f 9341 3bed 37c1 da3f
000003c0: 9cd5 edb3 8c8d b8bf ee9c adf0 dde6 96bf
000003d0: 59a4 d1f0 0951 d0bf 81e8 d954 4af4 b0bf
000003e0: 87ff 68ef 150e 3c3f fa23 7e29 6bd8 c53f
000003f0: bf06 1de7 7f66 79bf d661 eb1d 6472 de3f
00000400: 1322 60d7 4dbb ccbf 3b5f 2b62 51b3 a1bf
00000410: 0042 e030 9376 bbbf 9bab d9c3 0de4 d93f
00000420: 7a93 1b91 ae1f 873f 9f2a e81d b1c2 e3bf
00000430: 0fbb e238 2748 c1bf 2cb3 b4cd 0a28 9bbf
00000440: c2e3 25de 0c0e b33f d65b a0ae 9eb8 953f
00000450: 2dfc 5f41 b160 c0bf eb48 49b9 ab8f c1bf
00000460: 46f7 cf3c 41c8 d1bf 096c f054 3350 b63f
00000470: 9fc2 d00e a891 c93f 90d8 b48d 5fc4 cbbf
00000480: 88f8 ea84 4277 b73f 9db8 16ff 8056 bdbf
00000490: 2903 f3a8 269e c63f 2baa 8ee6 513f abbf
000004a0: 282f 0b39 3ed1 dd3f 90fa c607 2535 b7bf
000004b0: 5e0d e7f6 66ee b1bf 5ec8 7102 d1d1 cfbf
000004c0: ecfe 2689 5d78 b1bf da76 7cfd 70ac c3bf
000004d0: 3556 02fa 299a b23f b52b f5a2 7468 c93f
000004e0: e6f4 5945 e929 a6bf c0bf 5b5a d7d6 ca3f
000004f0: b93f eb91 5167 d3bf c81b d470 3efe c63f
00000500: 86c7 ef3f 73be e33f 62be 381c 2bdb bbbf
00000510: 28a3 a240 2f42 b6bf d01c 6163 b8b7 b7bf
00000520: f695 839c 85bd d03f b5af abfb 6c3c e03f
00000530: 153b c55a 502a d33f 6bbd a24a 7c08 c23f
00000540: 8df5 26a8 40ee c93f 3f11 5f95 04a7 c13f
00000550: 48b8 1cc5 1b79 c93f bf2b ab1a 28be b73f
00000560: 2c98 cedc 3aec e13f f971 36cc 0218 d3bf
00000570: 1344 a84c 5efd bbbf fae0 c498 aaaf cdbf
00000580: 2bf5 47f0 16bc a13f f25f 05fa c3c3 bc3f
00000590: 8a62 1e8b f9e4 cb3f e1fd 7a12 0fa3 cdbf
000005a0: 9637 776b 2fce c03f 8955 2f7b f7c3 c33f
000005b0: 33af 5ea1 b32b c73f 1c0e d932 1c47 b1bf
000005c0: b72c cc27 3d32 d3bf 39e6 6aad 0e39 b93f
000005d0: f6c8 9757 df71 bc3f 76e6 bebd bdd8 c53f
000005e0: 4666 6c37 c9e5 de3f b9ba d82e c00e bf3f
000005f0: 9d87 d043 604a c63f da47 cd2e 36ec c83f
00000600: 18d4 9721 f150 c63f 3b30 5424 64e6 c5bf
00000610: e4c5 ff48 3b0b c33f a77e 6bb3 2ceb a7bf
00000620: dd88 5ca8 b4e2 b7bf 1b87 6089 df31 9dbf
00000630: 1de9 ad43 41c3 c53f 0bc8 4c9b debb bcbf
00000640: 8543 f1ae f30d d3bf c962 2e78 5e57 d93f
00000650: 408c c11d b7b9 b7bf 8acd fb09 c1aa d83f
00000660: 6f77 4d1c 37fe b1bf 94c2 9027 623a bfbf
00000670: 7959 ae0c eaf7 e03f 8bd7 b148 3d98 c33f
00000680: 11d8 cbc6 148c c5bf e5f5 1170 da8f 943f
00000690: 268a 6bb9 08d5 c03f 725c f6a0 e137 d13f
000006a0: 2cea c2e4 1cc0 d6bf 5bb3 a2ff 2758 c4bf
000006b0: ad88 fe24 58b8 b0bf e739 0163 8198 e03f
000006c0: 12ed d3f0 d486 b4bf 8b4b 3426 2907 a43f
000006d0: 5a85 900e 96b1 d5bf b0fd 7e7b 63e5 c8bf
000006e0: eac9 1403 8b89 cdbf 9a80 19b9 d531 c63f
000006f0: ece3 b4e4 0e2e bf3f 9c07 4cfc 6ada a23f
00000700: 6cea 85c4 d62f c43f 1415 a02f cee5 88bf
00000710: 165e 6baf 2150 bcbf d454 4cc9 fc90 c8bf
00000720: e509 1599 dd51 97bf 6255 4891 733d bfbf
00000730: e743 ccae 695b d43f 693c 8ebb 180e b2bf
00000740: b735 292a 51f1 dd3f dded d3b9 8636 c43f
00000750: ecf9 6489 8481 b1bf f553 637a d5eb b23f
00000760: adb2 3d6d eaf1 cb3f 0efb 2f36 35a6 a03f
00000770: 74df 5457 8899 cebf 4a21 4060 fcf7 cebf
00000780: 7de4 4efa a2f1 ba3f ed59 1d36 7e63 ccbf
00000790: b2e7 9b7b 2272 c33f 19b5 9ef7 0d1b bebf
000007a0: a56c c525 981c cabf bfac 9b03 f113 d13f
000007b0: 5680 d501 2394 cebf 23f7 3f0b 6857 a7bf
000007c0: f337 5aa7 f0b3 bebf 8262 7df5 2e62 bd3f
000007d0: 3d9b d24d d564 943f 0f55 4b16 3a3b dbbf
000007e0: 9756 0210 87d4 d2bf f786 6f5c 55b8 783f
000007f0: 0e66 6e5c b8dd b1bf 3cf7 58ca 55b6 983f

linear.0.bias f8 [128]
0.07470765230374658 0.15948825178431605 -1.209729280560894 -0.7274898163150423 0.2243355563806108 -0.6758719297763655 1.0536939212782643 0.20936903636413295
-1.1517630786659998 -0.15365892908929857 1.3632255303916136 -0.12448351772832393 -0.5875661748270818 -0.1482199048673969 0.3707428774104886 -0.1479590287321697
-0.21396096754507618 -0.7439288057262933 1.5663989510238168 0.7522770771031991 -0.08908254846974505 -1.0593432494911972 0.804554963720444 -0.8921212659851738
0.33694831896385774 0.20299888220383616 -0.8402846984160042 0.8318968564920545 0.0906537952485933 0.923030562773818 0.12871854540525207 0.4400748539578241
0.549102520057847 1.3654985709196534 1.072954443259633 0.30317745797141393 0.18301619395365382 0.4626348865948785 -0.3671137097748597 0.8517733812568102
-0.7481139948882037 0.13613949119619007 0.5460915550345172 0.1289795121537769 -0.09533705070422134 0.03159849276592729 -1.311737050861565 0.15505478499547265
0.33009583150742294 -0.42494643298305856 -0.24034884993224073 -1.39295061330227 -0.12165309338122186 1.0898245145780527 0.9900047296969122 1.9925742140438978
1.013711252711784 0.041214890692743665 -0.8743273444058515 0.020703935055140968 -0.7780854255429192 -0.5968434756242134 -0.09126819703956505 0.106719135726463
0.8621739707981446 -0.4184352555068334 0.48576778398677933 0.6839576947407373 -0.08636754987644316 1.0104993286604693 0.08891435393912961 -0.4152192485415574
-1.2583121067534142 -0.23875098643628173 0.0832710914994824 0.18711776299531424 0.3782550006730315 -0.8074681368356027 -0.3489490943914281 1.291621745119162
0.18102752404407607 -0.8833670683272431 -1.8503333989526005 0.11948398063897137 -0.44858669594989303 0.7074846800586029 1.4522533254756693 0.2618741923288368
0.9875504617677614 0.5433442544601216 0.346441611433362 -0.04531546027126477 -1.4581688125613534 -0.4625702997263101 0.31519722783773796 -0.02182196438112366
-0.484536181261929 -0.37270892179616 0.3110209471393913 0.14210890198909185 0.505924385857467 -0.5481131657512931 -0.1550938242759546 0.039341370356829955
0.08506862477657816 -0.9874333823937809 -0.09172725457287248 0.7159344927986763 0.413401145639376 -0.7357554168593616 0.5342396143269834 -0.3620834859074292
-1.2419004236070168 -0.6563656166692498 0.5282279759118328 0.8319997561623044 1.485356432794966 2.1165434096568 1.0976607574635817 -0.4484083873176444
0.6723783401786132 0.6125476384259347 1.3299330999728427 -1.4083766188638835 0.44739632868144624 1.0173160366996736 -0.5449181867199911 0.5628509452494154
00000000: dbd0 676b 0a20 b33f cd42 c16c 1c6a c43f
00000010: c45c 1017 0d5b f3bf 7ee0 27b9 9847 e7bf
00000020: 3e0a fe0a 07b7 cc3f 9390 552b bea0 e5bf
00000030: 7425 3e28 eedb f03f 684f fdc5 9acc ca3f
00000040: 9cc5 391f 9f6d f2bf 54a5 9685 18ab c3bf
00000050: f2aa e192 c5cf f53f 83c0 88dd 26de bfbf
00000060: c3c7 2394 57cd e2bf 18c7 02ae def8 c2bf
00000070: b8fd 6c55 40ba d73f 60bb c64a 52f0 c2bf
00000080: df01 1daf 1263 cbbf 51b2 64c8 43ce e7bf
00000090: 0d2d b258 f80f f93f eb09 7660 a712 e83f
000000a0: 5f67 5228 1dce b6bf 56d9 3ce8 11f3 f0bf
000000b0: d570 200d eabe e93f 381e afe5 418c ecbf
000000c0: a315 99ae 8f90 d53f fe52 180c defb c93f
000000d0: acd4 60bc 9ce3 eabf 1fea 0828 e69e ea3f
000000e0: 60da d94d 1635 b73f 044e 0a64 7789 ed3f
000000f0: 6cbe 736b d979 c03f f89c 62b8 2f2a dc3f
00000100: a096 b972 3f92 e13f b85a 8d07 15d9 f53f
00000110: 415e 3e47 d22a f13f e8c8 b76c 4267 d33f
00000120: ceac d51b 136d c73f 9a79 fa5a cf9b dd3f
00000130: 4a5c 5980 ca7e d7bf 2c3e 0340 ba41 eb3f
00000140: 1f31 b7c2 8cf0 e7bf 14dc 30d3 046d c13f
00000150: 55d7 2fff 9479 e13f 10fa 4691 6682 c03f
00000160: 5529 df4a 0268 b8bf 6faa 107a ad2d a03f
00000170: 396e 66fd dffc f4bf 386a 52cf d5d8 c33f
00000180: 20b3 3744 4a20 d53f b0b3 0d86 5232 dbbf
00000190: 358b 0b49 c0c3 cebf e738 1195 8649 f6bf
000001a0: af92 8739 a824 bfbf 76de 87d4 eb6f f13f
000001b0: b5df 1d66 1eae ef3f 3dbe c27f 95e1 ff3f
000001c0: b5bf 5f4a 2938 f03f 8360 443f 1e1a a53f
000001d0: d817 c756 7dfa ebbf f462 d78f 6933 953f
000001e0: 416f 0668 13e6 e8bf 0e62 147d 5719 e3bf
000001f0: 2327 7341 5a5d b7bf 8273 cdfd f151 bb3f
00000200: b24b 01de ed96 eb3f d54b 79aa a4c7 dabf
00000210: 6c1c 6bc2 d116 df3f e049 583f fbe2 e53f
00000220: 42ac 270a 2f1c b6bf 72a0 1358 012b f03f
00000230: 8843 5052 17c3 b63f bdf6 49c1 f392 dabf
00000240: 1cab 2ae0 0b22 f4bf 46d7 506f 648f cebf
00000250: b747 b116 4151 b53f 1064 4890 79f3 c73f
00000260: ae1a 5c76 5435 d83f c2ab 086b c7d6 e9bf
00000270: ef51 1895 2e55 d6bf 906d 2190 7baa f43f
00000280: 04fb b8ef e82b c73f 6786 9a03 8b44 ecbf
00000290: c32a b331 f79a fdbf f082 3d8d 8096 be3f
000002a0: 91a1 21f9 a4b5 dcbf 25ba 68e9 b6a3 e63f
000002b0: cccd a6fb 6d3c f73f 4c00 eef8 8bc2 d03f
000002c0: c726 0e6d 039a ef3f ef05 6c7d 1363 e13f
000002d0: ed1b c56f 192c d63f d18d bc87 9633 a7bf
000002e0: 7ef8 1fd2 a854 f7bf 133a 5b75 c09a ddbf
000002f0: a896 56fe 302c d43f 30d6 673d 7f58 96bf
00000300: eaea 0f0b a402 dfbf f6ae 8285 76da d7bf
00000310: 966a 1567 c4e7 d33f 43be 41df 9f30 c23f
00000320: ef36 7056 8830 e03f 2515 2d9f 248a e1bf
00000330: 73d4 894b 1dda c3bf 02f4 1f56 8d24 a43f
00000340: dfc2 54b1 0ec7 b53f b884 8be4 0d99 efbf
00000350: b2d7 8af6 6f7b b7bf d7c1 1474 efe8 e63f
00000360: 789a 2914 2a75 da3f 7a81 a8f1 4e8b e7bf
00000370: b062 f8ac 7d18 e13f b238 9936 602c d7bf
00000380: ae7d 84fa d2de f3bf 8e06 3a77 f200 e5bf
00000390: 83f4 2b5b 3ee7 e03f 03e8 dff3 bd9f ea3f
000003a0: 221f 5c1b 05c4 f73f 8252 a84f aeee 0040
000003b0: eb89 f6b9 0490 f13f 3102 b217 b9b2 dcbf
000003c0: 9663 b394 1f84 e53f 6a01 4981 fd99 e33f
000003d0: 2705 24ee 6747 f53f 018b e7eb b588 f6bf
000003e0: c562 0236 24a2 dc3f 9824 352e ed46 f03f
000003f0: cda7 de43 f86f e1bf 3dce 4bfc df02 e23f

linear.2.weight f8 [128, 128]
-0.0017731003557630617 0.1523676198200485 0.1317426489921311 0.08630830153535753 -0.043874633948241704 0.23294754023032127 0.06947967733913386 -5.587870087887414e-05
0.0602441754737098 -0.12080090859845581 -0.09487292015452828 0.019490783469434034 0.10758776364916017 -0.035661553647695576 -0.10406859001167855 -0.04962997644751599
-0.09427847565107525 0.15485770279575017 -0.007642003062984724 -0.06985914240037394 -0.14432227749016205 -0.02036587987492075 -0.06462472681903045 -0.06642392097899337
-0.07069594419618382 0.11844890335925728 -0.01242288571759709 -0.047776998010847296 0.13248835132802164 -0.12939505928831269 -0.11729591425374539 -0.02544990060938877
-0.012408907027968609 -0.0018146823322194618 -0.15838377815300822 0.13710348923734386 0.014212938215592521 -0.0016103934401398708 -0.06104402216095826 0.02010117017903919
-0.014256781161732854 -0.19215057483110184 -0.05307175748232909 -0.12569113444246802 -0.06134575067327133 -0.02087038203858779 0.04015174544100263 0.16285986011571327
0.0549170364482858 -0.2150970973635354 0.098131229787929 -0.017538893346003278 -0.07946426272172885 -0.18820536222158896 -0.14117354369180918 0.04771398199241527
0.010668984084443644 -0.032438225521362274 0.10927497814723842 0.02964516161799571 -0.2168176441699583 0.05180242031436442 0.023443109604566442 -0.06113808018838231
-0.013139637531426569 0.09661866852365592 -0.07580331044759316 0.01895998472512445 0.00670084390659537 -0.10084082749652085 0.19199808879667477 -0.1074178293625542
-0.13868103276212254 -0.06559772680094164 -0.12117290834995656 -0.0658621411900245 0.03984309602406224 -0.0355756220366882 -0.04465836304194514 0.04728466580169327
-0.09857182672121738 0.02813458812151178 0.13908801912648575 -0.053815325955574644 0.05995735177569825 -0.03310937548857585 -0.12401914308556884 0.0585114561493118
-0.07858147771697664 -0.041906607282371326 -0.1391100635893667 -0.1051281467882228 0.08348455494305287 -0.10337944966969176 -0.08075697715549188 0.13345283012796247
0.05110178362794122 -0.0897738501742362 -0.18213923816052816 0.032846681760259344 -0.18862667930915136 0.016223791359790147 0.17018916721006072 -0.04301657232940719
0.08224908171996059 -0.06394502944411373 0.014761617146395341 -0.09107175456919396 -0.13065858351687015 0.06407068564872798 -0.17297262428776078 -0.11984798779848614
0.022180969352690958 0.11295179740573374 0.05319393829223735 0.04557132654414585 0.14061323146232219 0.011254767507471508 0.02200515132006369 -0.15394200190066873
0.08070317848646484 0.12488983215431615 0.11350531287579418 -0.15664673113021918 0.1198547685304702 0.12123682004275595 -0.057897971039626545 -0.06103742757379753
-0.04460103883441008 -0.06142763092856477 0.11411684936766538 -0.029772982021721232 0.16817323420517427 0.17937402861378876 0.08754974439243793 0.09395131921821026
0.05907455596757399 0.08237463560500978 -0.15041408492869937 0.03503011300362796 0.07789010333698469 0.11002940801618602 -0.1006061907215005 0.07730532996862823
-0.09039951402948072 0.10588272219669463 -5.7375007385415974e-05 0.010453373846240581 -0.21033304836214983 0.019470048587493613 -0.03585492813914818 -0.19839834911428722
0.07273588653138788 0.001530229491196325 0.26951114573541995 -0.012768595434426407 -0.016210254878051313 0.16887403888891636 0.2125901436896633 0.13809450516561436
-0.22038967174348337 -0.02087900182562522 -0.07911299917553945 0.053750323458097625 -0.018899547006944007 0.08683836964735572 -0.06732079377539887 -0.1065014534531258
0.11760384632975175 0.03797716670968166 -0.05438352705722968 -0.03293135602849283 -0.07204785967209194 -0.06277454023871214 -0.01645301983590461 -0.06172438461770586
0.045064972852296464 -0.037245050264394224 -0.12630491536300903 0.025316153882458788 -0.12788651613830163 0.007757258492634373 0.11021147695001376 -0.03794261043366489
0.0926620062061537 -0.03263501120165105 -0.036281009343573 0.11878833322773201 0.08397340605589451 0.03603303182132678 -0.11266398781848005 -0.23807784759540476
0.08138829649607585 -0.11006553848281109 0.08278040548290146 -0.08771975814236647 0.007211444813638173 -0.08289890660422475 0.0542665740761286 -0.13114569113502236
-0.047919440852718355 -0.12953592144869364 0.020883848648469757 0.11709973622876373 -0.18718495209071412 -0.22732751160128958 -0.17310926653691647 0.17869453428711574
0.03104216925489641 0.004976020429689472 0.01566042808106487 0.0732424135084931 -0.052118605250629634 0.009403453032825046 0.0020639932551005796 -0.03907473066269249
0.08681989966807406 0.017030182333714828 -0.1539345310261314 -0.039444891531514516 0.07968219497325121 -0.18887375861197284 -0.0706257176337014 -0.10922305770104548
0.06146451726713079 0.034824562127298786 0.08848212754481195 -0.029465180975428922 0.04444998769761668 0.09678704033988708 -0.007368331558952574 0.003413956543239051
0.058130723759835225 0.0701778956439647 0.0428209433769318 0.010339639564424852 -0.11038032384142116 0.05282786557448701 0.26055574242335455 -0.11937199653761765
0.00773439113866144 -0.08433318792096081 -0.06616558255728162 0.12702932630515867 -0.027233728438763687 0.05805357782429335 -0.030394870139164427 0.18887990861210555
-0.09835423602023426 0.04373608269791648 -0.1033667811802089 0.08558320884800592 0.1642962063166029 0.06855137406771045 0.18075456510550406 0.18584413092031568
00000000: 1304 9802 ec0c 5dbf 1f59 0c3c c880 c33f
00000010: 1d6e 7470 f1dc c03f 09b9 7704 4d18 b63f
00000020: c803 dd6b bc76 a6bf 2487 7c99 39d1 cd3f
00000030: 9980 e88d 6bc9 b13f c205 e48a e94b 0dbf
00000040: 473e de16 53d8 ae3f 6fe8 c1ef ceec bebf
00000050: c6f7 5679 9749 b8bf 896d 4c56 64f5 933f
00000060: ecaa 5226 df8a bb3f d865 482d 3b42 a2bf
00000070: 0718 a436 3da4 babf f095 7cab 1969 a9bf
00000080: 8e5a a359 a222 b8bf bc4d 8590 60d2 c33f
00000090: 3106 b493 384d 7fbf a8ab efeb 49e2 b1bf
000000a0: 19c6 f302 2779 c2bf 5875 1110 cbda 94bf
000000b0: 1a5f 3300 3f8b b0bf 9de0 4678 2801 b1bf
000000c0: ad4e 4820 2119 b2bf b0d1 2cd6 aa52 be3f
000000d0: 413e 087f 2b71 89bf 9a50 ea07 3a76 a8bf
000000e0: 0d04 07d8 60f5 c03f e221 f46d 0490 c0bf
000000f0: 169c ace3 1a07 bebf db10 37eb 890f 9abf
00000100: 47f1 e94e d769 89bf 90ad 3f51 54bb 5dbf
00000110: d929 b16d eb45 c4bf 858f 386d 9b8c c13f
00000120: 2e3f 8746 ac1b 8d3f 4197 2eca 7a62 5abf
00000130: fd60 987d 2941 afbf f507 1fb2 6695 943f
00000140: 65dd afc6 a832 8dbf c751 67d9 6398 c8bf
00000150: 54a8 74ad 382c abbf cfec e9a7 a516 c0bf
00000160: 84d1 c7d1 b568 afbf f737 3ea1 0b5f 95bf
00000170: cfc4 1703 c58e a43f 8b99 8386 97d8 c43f
00000180: fcc6 13f7 151e ac3f 6b09 523b 4d88 cbbf
00000190: 59c9 a7d6 201f b93f cf03 5135 b7f5 91bf
000001a0: 1430 9719 c557 b4bf 2a37 d601 1d17 c8bf
000001b0: 62be 9b84 f911 c2bf 7f4f 7090 f76d a83f
000001c0: 1339 cbcd 9ed9 853f e850 823b be9b a0bf
000001d0: 61db 69e9 71f9 bb3f e723 891e 4d5b 9e3f
000001e0: 28ef 7339 aec0 cbbf ad2a 35ca d885 aa3f
000001f0: c8ca 4574 7801 983f 420e e68d 7d4d afbf
00000200: 0a86 d44b f4e8 8abf a4fe 7d45 00bc b83f
00000210: e90a 4d83 d867 b3bf 31eb 4e09 3f6a 933f
00000220: c46a f316 5872 7b3f 7cfa 3258 b4d0 b9bf
00000230: 3f5b 23b4 6493 c83f 2a96 1e20 bc7f bbbf
00000240: 15f8 24d2 4cc0 c1bf 064f 4d3b 03cb b0bf
00000250: 7a36 860e 3005 bfbf 15a8 745e 57dc b0bf
00000260: b31a ca74 5066 a43f d367 5dca f736 a2bf
00000270: 0f1f 8401 76dd a6bf 88ed 701a b235 a83f
00000280: 7b19 13d4 003c b9bf b529 793f 50cf 9c3f
00000290: 6df3 b4de a2cd c13f 786b 01b2 ae8d abbf
000002a0: 8c12 10e2 bab2 ae3f 812e d449 b6f3 a0bf
000002b0: 0166 a1f3 b7bf bfbf 388c 34ad 36f5 ad3f
000002c0: efa2 dd6c ea1d b4bf 2738 8767 c874 a5bf
000002d0: 6f95 d4ca 5bce c1bf 7031 58a0 ade9 babf
000002e0: 4a97 3369 3e5f b53f ece8 685b 1377 babf
000002f0: 0e81 ce3f 7dac b4bf afa7 7a7a fb14 c13f
00000300: 7907 e652 032a aa3f 0ecb 8846 6bfb b6bf
00000310: a5e1 9bab 5650 c7bf a886 e2bf 47d1 a03f
00000320: e197 6445 eb24 c8bf e5cd 3a35 f89c 903f
00000330: e47c a635 c2c8 c53f 4780 aea6 4406 a6bf
00000340: c0fe 1c9c 460e b53f 2048 3492 b35e b0bf
00000350: fee9 09b7 563b 8e3f 73ca 767f 7a50 b7bf
00000360: 2ac5 92a3 6bb9 c0bf 785b 7ebb ef66 b03f
00000370: 42a9 358a f723 c6bf dffd 1594 5bae bebf
00000380: d981 daa7 9bb6 963f a4cd e1b3 68ea bc3f
00000390: 2907 9f62 3c3c ab3f 4eee 48fa 1f55 a73f
000003a0: 9cfd 4147 9dff c13f 200b f352 bd0c 873f
000003b0: 8e85 0db5 8488 963f 3f73 d21b 5fb4 c3bf
000003c0: 9b59 48a8 f6a8 b43f e0a9 b4b0 c7f8 bf3f
000003d0: e449 b926 af0e bd3f 6b63 9d05 000d c4bf
000003e0: 2aa7 1b57 cdae be3f b998 2751 6009 bf3f
000003f0: 3c6a 3d88 cda4 adbf 06da 8536 4c40 afbf
00000400: 48a5 5286 f2d5 a6bf 1561 d143 7173 afbf
00000410: 0de9 f407 c336 bd3f 0ecb 5900 cf7c 9ebf
00000420: 90a4 7c56 b386 c53f 5ef1 5269 baf5 c63f
00000430: 5a4d f0f8 a869 b63f 2451 7593 310d b83f
00000440: 771a d02b 053f ae3f e784 f10d 8116 b53f
00000450: 2532 d0cb c440 c3bf a897 738b 77ef a13f
00000460: 5bb0 8316 9bf0 b33f 3a1b 0725 e32a bc3f
00000470: 2b8a ecca 53c1 b9bf 3591 0538 48ca b33f
00000480: b5b6 542c 6c24 b7bf 7bd7 0b4d 211b bb3f
00000490: 5fab 1c3e be14 0ebf c972 6b16 9468 853f
000004a0: b4e0 fd7d 31ec cabf 6c40 bdd7 f4ef 933f
000004b0: f521 84bf 935b a2bf 4c5c 83fa 1d65 c9bf
000004c0: 52db e5ad d19e b23f 741c af67 3f12 593f
000004d0: e3d4 35ad ab3f d13f b127 74de 6b26 8abf
000004e0: 2a85 3eca 6b99 90bf 13ee 151d aa9d c53f
000004f0: 7fad 4c61 2736 cb3f 6fc8 b8ab 14ad c13f
00000500: 0dd9 4190 ba35 ccbf 6986 0e18 4e61 95bf
00000510: 1dbd 25e0 bf40 b4bf 83cc cd92 2985 ab3f
00000520: 0d56 3721 675a 93bf ca60 ac15 0a3b b63f
00000530: 4629 9b7f ef3b b1bf 99c1 8ee3 ad43 bbbf
00000540: 71be de21 491b be3f b190 0642 be71 a33f
00000550: 1cca 4d5c 28d8 abbf ae84 4ff2 60dc a0bf
00000560: b1d6 0981 ba71 b2bf a3c1 5805 fe11 b0bf
00000570: d86c 7678 0fd9 90bf a9f8 98aa 569a afbf
00000580: fc04 3191 c112 a73f 279b a581 c811 a3bf
00000590: 2c72 676c c22a c0bf e251 f153 7aec 993f
000005a0: b1e9 34da 955e c0bf c70c 8538 13c6 7f3f
000005b0: 20e8 24c1 d136 bc3f a3fa dfbd 366d a3bf
000005c0: c6b7 3c7e b2b8 b73f 74a1 a143 89b5 a0bf
000005d0: 9b6a 31a9 6c93 a2bf 8305 5c86 e968 be3f
000005e0: 5e69 bef8 477f b53f 9024 7fea eb72 a23f
000005f0: 4e08 1e0f 8cd7 bcbf d583 a9bc 5579 cebf
00000600: ea50 ba07 ddd5 b43f 1047 3350 412d bcbf
00000610: 5976 4cbe 1831 b53f fb3a 6f54 cd74 b6bf
00000620: c68f 1a7a bf89 7d3f 0243 bddc dc38 b5bf
00000630: c68a d811 d4c8 ab3f a7d6 37cb 61c9 c0bf
00000640: 1d2d 9c9e e588 a8bf 34c2 2311 a294 c0bf
00000650: 8fd3 d65b 9362 953f 3b07 7991 3ffa bd3f
00000660: 8237 c42f adf5 c7bf 2f80 e761 1119 cdbf
00000670: a78e 34c7 7128 c6bf b659 5e66 76df c63f
00000680: d698 fcb6 84c9 9f3f 7be9 2750 bc61 743f
00000690: 8d52 cc89 4909 903f 55f7 b2ca 03c0 b23f
000006a0: b311 2132 4aaf aabf 6bb1 f619 1e42 833f
000006b0: 604c f4f0 81e8 603f 0db1 9764 9a01 a4bf
000006c0: a364 b735 d439 b63f 6d42 ac30 5c70 913f
000006d0: 0bbd 3d70 20b4 c3bf cd86 3eee 1e32 a4bf
000006e0: d6cd 7b65 0d66 b43f 8fcf 27ec 032d c8bf
000006f0: 7847 7eeb 8614 b2bf 6a8c cbd4 0af6 bbbf
00000700: b5b2 0df7 4678 af3f 7058 de66 86d4 a13f
00000710: 3de1 15c4 c3a6 b63f 7b08 a4d2 1e2c 9ebf
00000720: 340f f016 26c2 a63f 0abb ef14 09c7 b83f
00000730: 1409 2671 412e 7ebf ea6c 80f6 95f7 6b3f
00000740: 65f2 e16a 4fc3 ad3f d063 b1b6 2df7 b13f
00000750: 658c c66e a0ec a53f 80c8 40ee f22c 853f
00000760: b052 0589 e241 bcbf cb78 eb05 410c ab3f
00000770: 5a92 1ffe f1ac d03f 70f2 2fc5 298f bebf
00000780: 549d ebcf 18ae 7f3f d283 161c dc96 b5bf
00000790: d54d 3445 3af0 b0bf 6e89 0e39 7f42 c03f
000007a0: 5b75 f893 28e3 9bbf 749e 57d4 32b9 ad3f
000007b0: e202 db34 d51f 9fbf 9f23 2e83 372d c83f
000007c0: cd45 2143 be2d b9bf bb76 af69 9364 a63f
000007d0: c66a a9d0 3e76 babf adc3 16fb c7e8 b53f
000007e0: 784b 7e78 a807 c53f 4478 b735 958c b13f
000007f0: 418c dd30 f722 c73f fb67 3a90 bdc9 c73f

linear.2.bias f8 [128]
-1.5329393001653393 -0.21163399388798382 -1.0099728447487477 0.21279744792537658 -0.37330657333160744 0.6106043566340538 -1.1490155159754225 -1.4605533388972904
0.7637883895099629 0.4443505737649715 0.624418045161007 -0.8985819639000385 -0.3551437404893061 -0.41526279800821575 0.14118170757097234 0.8426120445593547
0.8139609786227614 0.4202386568196393 -0.7417303393324063 -0.27921383256695137 0.2114627046322573 -0.9912005499408635 1.6234735753032368 -0.35104157752600806
-1.450844473199279 -0.7060036011208147 0.10615527766439684 -1.1726641308777983 0.10867938777774246 -1.604890827186438 0.780636332165153 -0.9143277803064969
0.5295536754792157 -0.41378375847446414 -0.6051113766644045 -1.507528938811278 0.9798540016522299 -0.07807290320641018 1.799943430025859 -0.7746993852476742
-0.7652921521767522 1.5334710449099527 -1.9531189902079544 0.06795609366276989 0.8795191848503069 -1.566481153212682 0.32066256675129806 1.0012964753174933
0.6669822382825638 -0.22832257581423196 0.6545171167084566 -0.6390276593865138 0.3464044785728839 1.4553150340189727 -1.1385715075971734 0.215358432787141
-0.3031786886363215 1.386123148557657 -0.11139347021775631 -0.23820715335477632 0.6479217317136209 0.38015641852629534 -0.29060155674675053 0.1698322830525739
0.7815285465558967 0.41818634457298415 -0.3072517234095227 0.25686879412934444 -0.41190797866057266 -0.3717126069402523 -0.6408212057425496 0.8470463972331244
0.7029612172867323 -0.342114925561965 -1.1552998692910268 -0.2200499872242835 1.03134124570152 0.45780524578286813 -0.7755550203295442 -0.6862290882136961
-0.904273521833479 -1.1289397007447688 -0.7222491849048284 0.4666586222459179 -0.17317140711398343 -0.1357523331638962 -1.6923782668954872 -0.7893202789845701
-2.5512955824473442 0.5574366541496373 -0.8069607815772075 0.3876450247564194 0.9625639873496796 0.5168346369439123 -0.55040655714259 1.1873586997154741
1.1439448911905434 0.7938809215466355 0.8382326070116702 -0.4006989744396774 -0.1598873133587185 -0.7277286418518102 0.17149387041199196 -0.9370007426934394
0.25950762847190834 -0.6047586037209409 1.5559898625979678 0.5813061112450563 0.5091701716137638 -0.536130392523484 -1.8035217899355287 0.22490739180359035
-1.0706583649766441 0.17167772001991022 -1.0370970304905833 -0.2700525244802973 0.07987786979576014 0.2556179097676849 0.28106710005114754 -0.019164110489482293
0.21556956295249177 0.7410480012165025 -0.5044844795120106 -0.9381899209348208 -0.5922352775732583 -0.4438171431274541 -0.530104505329509 0.28506529299387806
00000000: 8369 0f5c eb86 f8bf ae41 3c9d d216 cbbf
00000010: 0cb4 2049 d928 f0bf 3481 c15f f23c cb3f
00000020: 40d4 f540 41e4 d7bf 6c3a d125 128a e33f
00000030: 4760 fb17 5e62 f2bf 1b0a 8a2d 6d5e f7bf
00000040: 4850 4059 f470 e83f 7fe1 9163 3d70 dc3f
00000050: f9f5 5f8d 3bfb e33f 5c3c 77f6 2ec1 ecbf
00000060: acf6 b1cf acba d6bf 1835 2c6a aa93 dabf
00000070: 0bc7 6700 3e12 c23f d323 d388 adf6 ea3f
00000080: 11f5 ece4 f70b ea3f 558a e3ad 30e5 da3f
00000090: 0147 bc43 41bc e7bf e9d0 ddb1 a3de d1bf
000000a0: 7a10 5cbc 3511 cb3f 3fbe 3837 eab7 efbf
000000b0: c08f 7d6d bff9 f93f 44ab c017 7777 d6bf
000000c0: 7092 bfb1 a836 f7bf 1382 35dd 9497 e6bf
000000d0: 52cb dd05 fe2c bb3f 9fff b476 3bc3 f2bf
000000e0: 6934 4190 69d2 bb3f 81a8 0601 a2ad f9bf
000000f0: ccff 960b f9fa e83f a0b3 4755 2c42 edbf
00000100: 511d b58c 1af2 e03f e0e1 90df 6e7b dabf
00000110: c8c1 a688 125d e3bf 077d 1faa d61e f8bf
00000120: 106f 7ec7 f65a ef3f 9bad f9f5 95fc b3bf
00000130: 2fc7 697b 91cc fc3f 94d7 7b5d 56ca e8bf
00000140: e481 aff7 457d e8bf e404 34ef 1889 f83f
00000150: 3f3c c2b2 f93f ffbf 5073 d80f 9265 b13f
00000160: 695f e46a 0525 ec3f d494 ad8a 4e10 f9bf
00000170: 33e3 4f49 bc85 d43f 566b f173 4f05 f03f
00000180: bbf7 8d22 eb57 e53f f7c1 0796 ac39 cdbf
00000190: d1eb 5de1 cdf1 e43f 80be 4922 ea72 e4bf
000001a0: 5c24 aab0 7d2b d63f 5ed1 c76a f848 f73f
000001b0: ae98 d4c1 9637 f2bf f289 de78 dd90 cb3f
000001c0: f560 2296 4767 d3bf fb89 7477 8f2d f63f
000001d0: 1cbe 924f 4884 bcbf aa7f aa6e 927d cebf
000001e0: 6b7c 025b c6bb e43f d8d5 3b96 7b54 d83f
000001f0: ff36 9945 3799 d2bf 6306 c272 10bd c53f
00000200: bb22 8b27 4802 e93f c5c8 64a8 90c3 da3f
00000210: 15bf eb21 03aa d3bf e180 89cf 8970 d03f
00000220: 85c0 5348 b35c dabf 306f 94ac 23ca d7bf
00000230: d5eb 2779 9b81 e4bf d8f2 c90b 011b eb3f
00000240: ac4a d385 a87e e63f 7ac6 3000 36e5 d5bf
00000250: 3bd9 3ab7 1b7c f2bf ad87 4e15 992a ccbf
00000260: e5dc 94ad 5f80 f03f 3dc7 a45f ae4c dd3f
00000270: 590c 12c3 58d1 e8bf 9a22 6eb4 96f5 e5bf
00000280: ac3b 5d06 cfef ecbf 4cad 5d13 2310 f2bf
00000290: 1b53 9752 aa1c e7bf 2454 3c20 bcdd dd3f
000002a0: 0214 140d 7b2a c6bf 73b6 a51b 5560 c1bf
000002b0: ba6f cc3b fb13 fbbf ccdd 099a 1c42 e9bf
000002c0: 2e53 88a8 0d69 04c0 6542 e564 85d6 e13f
000002d0: 28eb c06a 9fd2 e9bf b44c f213 2dcf d83f
000002e0: e82c bffd 52cd ee3f 02a7 e3ca e889 e03f
000002f0: dccd 4d36 ee9c e1bf 7e62 fed5 6bff f23f
00000300: 426f 8128 994d f23f abc1 5ef6 7867 e93f
00000310: 4bca 3130 cdd2 ea3f fc95 b04f 0da5 d9bf
00000320: 53e3 f5fe 2f77 c4bf 73b6 a393 8d49 e7bf
00000330: d925 71da 82f3 c53f e745 46fb e8fb edbf
00000340: fe5b 56e2 c59b d03f 1698 1eb7 2e5a e3bf
00000350: bd40 4ca0 55e5 f83f 0766 1846 0f9a e23f
00000360: 1cc1 653e 1f4b e03f d1f5 c8ec fa27 e1bf
00000370: f957 16aa 39db fcbf fd68 36f2 c3c9 cc3f
00000380: 5f37 6caa 6a21 f1bf 60fb 7718 89f9 c53f
00000390: b7c5 4b0e f397 f0bf 6316 3662 8a48 d1bf
000003a0: 666a 7246 e072 b43f 6b57 ae38 0b5c d03f
000003b0: 18e1 acdc 00fd d13f dead 3caf c19f 93bf
000003c0: 756d 728f c897 cb3f a7b6 3f4c aab6 e73f
000003d0: 53ff 9aa2 bc24 e0bf 9c42 7bde a605 eebf
000003e0: 39de 9665 97f3 e2bf 81bd c804 8067 dcbf
000003f0: ac47 3bb9 9df6 e0bf 0a89 a87f 823e d23f

linear.4.weight f8 [128, 128]
0.02984395273816594 -0.0459361437693346 -0.019271431955138935 0.07680163097455277 0.06135654038812263 0.1335393981417826 0.12819354432079344 0.13072764049869287
-0.13036073730464642 -0.05648228349543462 -0.002782888338415199 0.03146367979428935 -0.08564999915696918 0.025081131706416907 -0.15674639253329048 -0.08164182808566137
-0.01153804649537228 -0.028523346688477738 0.12264774233326653 -0.015799514887118657 0.04886103390815534 0.06697706123517028 0.013110091138507545 -0.14485581123935196
0.06551745705210507 0.03792332321015639 0.09376125504507674 0.19784233206641402 0.11934396934571492 0.11167355281675541 -0.09672651075816441 -0.09535585544812267
0.08278601385305535 -0.17113029200591307 -0.0064117082239900395 -0.055790993403269665 -0.01725249063388808 0.20987325415079175 -0.06437800734178055 -0.14688695193745635
0.0558421160351225 -0.05383221816602774 -0.04848010877612884 0.04417030061424352 -0.052359202170402304 -0.12800918971471115 -0.18682701418109682 -0.09380932291234587
-0.044063654607802386 -0.1933043765548249 -0.04556696197222962 -0.07605001784639197 -0.10498637191989449 -0.11983267072355387 -0.12326335270681471 -0.14856714676994726
-0.025534786864691256 0.10284599633330656 -0.046676875918603325 -0.07346721427678453 0.05446629888793853 0.1628752392834482 -0.032579074261890016 -0.05012212158533252
0.10604292613578714 0.08031496308901571 0.13189100567081988 -0.0647973318812684 0.0026006263111377327 0.1806712063981825 -0.05448413755551299 -0.041852162373819335
-0.10624149999531864 0.05618394661728378 -0.09830368561233743 0.0387801725274467 0.069198670699375 0.11583791582586336 0.11840628020428226 0.11861928248604706
-0.06591974486159968 -0.10340357710900147 -0.03224483199882024 -0.0907662718881037 -0.10617991978061797 -0.16509734385779973 0.022022809447840786 -0.05731742216029205
-0.09874104634741925 0.029321844910420947 -0.1750910200686367 -0.11624690958149861 -0.010973877141534125 -0.13383634273074063 -0.16376850919510869 0.08942181880755441
0.011479660261271497 -0.03573935689444838 -0.01381209888999355 -0.06986926985017324 -0.21758785649529488 -0.011994940175908238 -0.13251158761327375 0.0013963973790693852
0.016183839652370916 -0.02292183800751818 -0.19288330419190478 -0.06630298794084973 0.004424818806424993 -0.15434232944752968 -0.025343274253729734 -0.15784192688918292
0.0989951397036846 -0.13784626996436844 0.06507460341833834 -0.05550567853034556 0.04319323821485798 0.11823171098190045 0.007028267086252573 -0.009636287439840071
-0.013241581462904072 0.14423812638704475 0.014349755349479139 0.01967528379486373 0.10375128357063189 0.2222630398469138 0.02168880518753144 -0.008204974940916303
-0.12075628075460697 0.005839851958094971 0.1937917549995434 -0.07796578776980354 0.025509585122896042 0.0886156576269908 -0.06644783341689507 0.07146853967655256
-0.030534753761093186 -0.1733604033451148 -0.1250220670220691 0.1260656299232224 0.13769931966219245 -0.054032113086098926 0.09431109064968303 -0.1908513165430736
-0.07574053183004975 -0.038373352578089305 -0.18077041590904483 -0.07350926275636022 -0.14880169272426122 0.15118184746898233 -0.024949691576698685 -0.003726099431691834
-0.010617915838159794 -0.19895373485809426 0.06585493110736014 -0.033331454972474535 -0.07249181648368583 0.005029401667693722 0.027091030518308544 0.01626766224938288
0.03286555614666204 0.10711529449611133 0.1268483985772794 0.19563866496377583 -0.07765449341542321 -0.1006352418098996 -0.0892968576531261 -0.1605007563678058
0.021455786335017747 0.004486732147287772 0.15938297592831155 -0.15153301425893348 0.1338996907761218 -0.016995743251897955 0.14106733904902438 -0.12809395728426126
0.14987316731614642 0.10315043174655486 0.02879229107513952 -0.10098554290685628 0.21381846178231673 0.009028887456945892 0.08851074982235321 0.07387762558956552
-0.042566575053213804 -0.15230512218988496 0.09208154514981289 0.03575923028126289 -0.10484331118002896 -0.11671888159162326 -0.08933477803874856 0.0037888565918424706
0.011189266793690124 -0.18310644288134217 0.16953343559994583 0.19033380177410408 -0.13264952636996175 -0.16140974466588798 -0.09631290694010901 -0.0983730609261852
-0.06621917505949475 -0.06044963183276563 -0.05099652943802185 -0.07967554433501771 -0.1237753416130813 -0.002380646155281689 0.07112797782023375 -0.04312583491188263
-0.12517616186015082 -0.023857168901997742 0.15505048159019005 0.18189302140065008 -0.020742137467619638 -0.05014706779282733 -0.1735389774084966 0.0010108316654397838
-0.028490965116079514 0.05326535025674902 0.17406626832283165 -0.08440499826270342 -0.14470078710742731 0.03449561304433619 0.14267036032332528 0.05334170039719989
0.00880171485660226 0.09469314003954324 -0.09401857111077339 0.08437247780426452 0.01053814153528147 0.11319819170549725 0.11207557723783737 -0.07539515935881279
-0.13328069117237967 0.15851477833558905 0.28288945233924234 0.07046115504097675 0.01753128782310462 0.1641882107783771 0.1675171991878354 -0.09665614837640832
-0.0483158479322046 0.09179033740470512 0.055008636431827844 -0.21058790618420484 0.030593267648527066 -0.08246175696102317 -0.09636461454911631 -0.03484251142468416
-0.1244810496004328 0.12680161596694256 0.03768339058123021 0.001688356083305449 0.05821459973726484 0.003104806390072204 0.1004728596837388 -0.04318635436493474
00000000: b5a4 f9c3 698f 9e3f 9b25 6336 f184 a7bf
00000010: e546 fae7 e3bb 93bf a3ae 508d 45a9 b33f
00000020: 7cb2 b9dc 1f6a af3f a38c dfa9 d117 c13f
00000030: e443 3564 a568 c03f 4b04 50ee aebb c03f
00000040: a6f4 b31f a9af c0bf 4224 d5f0 3eeb acbf
00000050: c778 dccc 23cc 66bf 44e2 74e7 011c a03f
00000060: 9b17 4889 28ed b5bf 61f2 b341 deae 993f
00000070: a425 d90a 4410 c4bf ea12 9d95 7ae6 b4bf
00000080: 07db db62 42a1 87bf f444 cc64 3935 9dbf
00000090: bce6 3faa d765 bf3f 8c6d ee7e bf2d 90bf
000000a0: 3259 5e3d 5004 a93f bc55 969f 6825 b13f
000000b0: e9ef 7fa5 76d9 8a3f e34b f49d a28a c2bf
000000c0: ae1a 5b87 c0c5 b03f e6f2 e291 af6a a33f
000000d0: daee 0cd4 bc00 b83f e1ab fec4 e552 c93f
000000e0: 5a8e 508d 538d be3f 7114 2d51 a396 bc3f
000000f0: 58cd 5c90 11c3 b8bf 02bd a1c8 3d69 b8bf
00000100: cda8 10d6 7631 b53f 129a c2ef 98e7 c5bf
00000110: e3f1 22d2 2943 7abf 6223 2818 a390 acbf
00000120: d539 300c a3aa 91bf d9fd 7075 20dd ca3f
00000130: 1f56 1dbc 137b b0bf 63e7 630f 31cd c2bf
00000140: b677 387c 5697 ac3f 390b fd80 e58f abbf
00000150: df65 6683 62d2 a8bf bd71 2f59 7d9d a63f
00000160: 09dd ee49 d3ce aabf 22c1 b4e9 9a62 c0bf
00000170: d064 f595 f2e9 c7bf f6ea f745 e303 b8bf
00000180: 222b f7e6 828f a6bf 9c02 bda3 32be c8bf
00000190: 5cc9 e586 8d54 a7bf 27ae 8293 0378 b3bf
000001a0: 92f0 eb09 63e0 babf 0900 c099 5aad bebf
000001b0: 0ccc abe4 2f8e bfbf c287 518e 3f04 c3bf
000001c0: 250a fa89 ca25 9abf adad c67e 1d54 ba3f
000001d0: 1a86 190f 08e6 a7bf b3a2 a552 bfce b2bf
000001e0: 416c eab8 01e3 ab3f 8d79 0689 18d9 c43f
000001f0: 7340 fa54 34ae a0bf 47c0 0752 9ba9 a9bf
00000200: 80b0 b913 a125 bb3f e5c5 d87b 858f b43f
00000210: 8311 fff1 cde1 c03f ac50 4cd5 8e96 b0bf
00000220: 9a13 939e e84d 653f 458f 67ed 3b20 c73f
00000230: 6544 e749 58e5 abbf c82a 5389 a56d a5bf
00000240: 7937 f597 a432 bbbf 6219 906a 24c4 ac3f
00000250: 5400 c82a 6e2a b9bf 902c 7aa9 feda a33f
00000260: ef9a 940b 01b7 b13f d2df 1bbc 8da7 bd3f
00000270: c24f 1ebd df4f be3f d2da f352 d55d be3f
00000280: 285b 57cc 1de0 b0bf b6fa f825 a878 babf
00000290: e3c5 cc05 6582 a0bf 0fd9 5659 753c b7bf
000002a0: c41c f372 9b2e bbbf ac4a 43e6 e821 c5bf
000002b0: cdc8 60b9 258d 963f 16c6 568b b558 adbf
000002c0: a3c1 d5dc 1747 b9bf d068 cbb3 8b06 9e3f
000002d0: 4250 82ee 6169 c6bf 0ee2 e982 5bc2 bdbf
000002e0: 5837 77db 7879 86bf 4cbb 859d 8c21 c1bf
000002f0: 09c8 8dd3 5df6 c4bf e1c8 532b 59e4 b63f
00000300: 1a7d 21eb a582 873f 5d5d 15d2 6d4c a2bf
00000310: b251 2c88 8449 8cbf 0d7c 00d5 f3e2 b1bf
00000320: 58b7 d33b ebd9 cbbf de1b 2f9e cd90 88bf
00000330: 24ed 91c3 23f6 c0bf 1518 d244 eae0 563f
00000340: 6160 1f18 7f92 903f 700e 6d82 d278 97bf
00000350: 636d b96d 66b0 c8bf 9541 d58c 3bf9 b0bf
00000360: 9075 0741 c21f 723f e8cb ae4c 7dc1 c3bf
00000370: 6191 5f58 96f3 99bf ea9c f60c 2a34 c4bf
00000380: c382 7dd7 be57 b93f b4af af52 f2a4 c1bf
00000390: f65f 7bad baa8 b03f 5a6c 0f84 3d6b acbf
000003a0: ef11 1593 6c1d a63f 7173 04f4 6e44 be3f
000003b0: 6933 8714 acc9 7c3f 5e91 459b 30bc 83bf
000003c0: 6cd9 a4fa 661e 8bbf 0a97 d519 6576 c23f
000003d0: 04f2 738f 6763 8d3f 43fb c0f1 c125 943f
000003e0: 4798 dab1 718f ba3f d642 a083 1d73 cc3f
000003f0: 7809 e113 9735 963f 762f 4918 c5cd 80bf
00000400: 6fac a034 e2e9 bebf 5fa7 c652 87eb 773f
00000410: d18e fa10 2bce c83f 669d addc 90f5 b3bf
00000420: a476 5947 2f1f 9a3f b3e4 6b07 84af b63f
00000430: 1766 6aa7 b902 b1bf 3a8a 9a20 c34b b23f
00000440: 4865 2ea3 8044 9fbf 0ff2 6477 ac30 c6bf
00000450: 7dad 911c b900 c0bf 9abe d526 eb22 c03f
00000460: 66b6 509d 21a0 c13f 74f2 46dd 18aa abbf
00000470: 1990 fd89 c524 b83f d7bb 79e1 d06d c8bf
00000480: f413 3143 bb63 b3bf f5b6 b80c aca5 a3bf
00000490: fff2 3428 7c23 c7bf fcdb 7dc7 80d1 b2bf
000004a0: cf89 eb11 ef0b c3bf e066 5041 ed59 c33f
000004b0: 4005 7875 698c 99bf 85a1 6c66 3286 6ebf
000004c0: de6d 368a d8be 85bf 0ef8 50e4 5077 c9bf
000004d0: 0dee 6267 dedb b03f 19db 110a d210 a1bf
000004e0: 9e6a 06dd d28e b2bf ff29 e6ba b599 743f
000004f0: 4642 5d48 c0bd 9b3f 75b7 5f55 78a8 903f
00000500: e928 a111 c1d3 a03f ff1f c36e e86b bb3f
00000510: dd3d b87d 913c c03f 511f ed11 b00a c93f
00000520: 0a50 9b35 2ae1 b3bf ba08 6630 3bc3 b9bf
00000530: 6f78 41ab 28dc b6bf 689f caed 498b c4bf
00000540: bab7 7972 81f8 953f 6f8c 6afd ad60 723f
00000550: 455c 934e a966 c43f 67d2 400e 6f65 c3bf
00000560: 76fa 6904 a023 c13f 10a1 c005 5567 91bf
00000570: 2de9 df9b 7e0e c23f 9af1 acfe 6165 c0bf
00000580: 48dc 1540 0b2f c33f a473 eb12 1168 ba3f
00000590: 4db5 2df2 b97b 9d3f 535c 2744 30da b9bf
000005a0: f26a 5142 675e cb3f d557 c6c2 bc7d 823f
000005b0: 92d9 d4f7 a3a8 b63f 8535 d0e1 a4e9 b23f
000005c0: 7e37 833f 49cb a5bf becf 68f7 bb7e c3bf
000005d0: cdcc fbf8 a792 b73f ea22 2da9 084f a23f
000005e0: b6fa b8e0 02d7 babf f9ff 42e3 49e1 bdbf
000005f0: 6064 12de a4de b6bf ff9b d6e4 ce09 6f3f
00000600: f499 8ff7 65ea 863f 6d5e ee2b 0870 c7bf
00000610: 207a bd88 45b3 c53f 48b8 f8a6 db5c c83f
00000620: 4460 cbe0 a8fa c0bf e03f 4c13 13a9 c4bf
00000630: c38e 7d71 f6a7 b8bf ec41 7c17 fa2e b9bf
00000640: 23a6 3f67 bdf3 b0bf dfce 8d0f 41f3 aebf
00000650: f7a6 4a94 371c aabf f3bb 35d1 9d65 b4bf
00000660: 8d87 47a4 bdaf bfbf 3d47 2bac 9380 63bf
00000670: 5a8a 9172 7135 b23f 8453 1ee5 9614 a6bf
00000680: a1cd b6c0 c505 c0bf 0140 d680 036e 98bf
00000690: 5f57 d4b5 b1d8 c33f 6ba9 2441 4548 c73f
000006a0: da4d 4a48 6d3d 95bf 852b 5260 e0ac a9bf
000006b0: d27f 4674 8636 c6bf a203 783c bc8f 503f
000006c0: 60c2 9e4d bc2c 9dbf bbb6 b992 9845 ab3f
000006d0: eb43 e4b0 cd47 c63f 6841 28e3 909b b5bf
000006e0: 597a 2a2e 8e85 c2bf a904 c3b3 68a9 a13f
000006f0: 713e d9b9 0543 c23f 4221 7075 9a4f ab3f
00000700: a69f a92b a206 823f 5219 a043 cf3d b83f
00000710: 182e 23e0 9911 b8bf b20f da48 6f99 b53f
00000720: 9687 096a 0595 853f 3669 5783 8efa bc3f
00000730: 9ab5 ea2a fcb0 bc3f 070a b9df 184d b3bf
00000740: da06 e378 570f c1bf 5d28 7156 364a c43f
00000750: 9e8b 8b5c dc1a d23f da14 8a04 be09 b23f
00000760: b890 6dcf b8f3 913f fd47 d789 1e04 c53f
00000770: 25bf 031e 3471 c53f 3ee7 3b14 75be b8bf
00000780: c6a1 7ed5 dabc a8bf a1f4 3d51 927f b73f
00000790: 5fcb f18c 172a ac3f 6f44 ff64 8bf4 cabf
000007a0: 16e0 1c70 d753 9f3f c67b 51b5 361c b5bf
000007b0: dbe7 faf3 59ab b8bf 7bb7 28ae e0d6 a1bf
000007c0: d66f 0175 fddd bfbf 5a38 d40c 093b c03f
000007d0: a72c 4cc4 3c4b a33f 85ec 5a8a 7aa9 5b3f
000007e0: 90e5 0ad4 4dce ad3f 6d15 fc3c 406f 693f
000007f0: 632d 7ade 96b8 b93f 4900 4397 851c a6bf
