run/pinn_model.pt (torch, 276772 bytes, 8 tensors)

linear.0.weight f8 [128, 3]
0	0xbfaf191a28b64ff1	-0.060738389463182225
1	0xbf91c492951bc5a9	-0.017351427412852925
2	0x3fca3c2340843f82	0.20496025705551452
3	0xbfc01a0dd19a8d33	-0.12579510435635086
4	0x3f79612a03fc3c3d	0.0061961785538776045
5	0xbf924b96022966bd	-0.017866462594929845
6	0xbfd514242156b7b1	-0.3293543172429692
7	0xbfc35628d74cd41b	-0.1510668803472591
8	0xbfd03287b8edb233	-0.2530841165487658
9	0x3fb421a81b7117eb	0.07863856000867002
10	0x3fc44605b87ddbc0	0.1583869124258097
11	0xbfbb94013d18a096	-0.10772712461096243
12	0xbfa69b94b44bc2ec	-0.04415573788526736
13	0x3fc76c6d4f0f2acf	0.18299642906489175
14	0xbfcce3430aef88fe	-0.22568548234909963
15	0xbfbd7aa7d21fc53c	-0.11515282516463271
16	0xbfc49cfd67e6d578	-0.1610409505207533
17	0xbfd05b72ffddb5f8	-0.25558161723060335
18	0xbfc131d89418baec	-0.1343336794975224
19	0x3fbea9040e07858c	0.11976647703661153
20	0xbfc1b3d4ec4346b2	-0.13830052887219818
21	0x3fae00d9bc23853b	0.058600239006191455
22	0x3fb85590b639844f	0.09505562256664855
23	0xbfc666b533723b05	-0.1750093938066685
24	0xbfc53d725f71f553	-0.16593770656974502
25	0xbf94203a400e1434	-0.019654188308340717
26	0xbf7a9e2f4f3f7613	-0.006498513033844871
27	0x3fa6e7ba71aaaf5c	0.04473669660123278
28	0x3fb5d791c7b1b6e5	0.08532057881685835
29	0x3fbb12f3d96c6264	0.10575794275463007
30	0x3fc66df427d96316	0.17523052163849034
31	0x3f8f0840ac5e9ee9	0.015152459392836675
32	0x3fd1169c14051059	0.26700498538071354
33	0x3fb1cd3f495c678a	0.0695380739311117
34	0x3fbaa959e4c0673f	0.10414659342532405
35	0x3fc91885712aa93c	0.19606082940783576
36	0xbfd83c4d85f96d6f	-0.3786805923789051
37	0x3f8c1df1f88ee147	0.013728990934268949
38	0xbfa42e823abc8b45	-0.03941733328817646
39	0x3fbcdf949cefdbe5	0.11278656798809512
40	0x3fb96ad9d0c3d76b	0.09928666445543192
41	0xbfc0b761efb8565b	-0.13059639172631674
42	0xbfa7b1074955815a	-0.04627249498548976
43	0x3f69699fdb1284dc	0.0031021234686511145
44	0x3fb1aac1fd4ba766	0.06901180681202632
45	0x3fcb36c1f87b15a2	0.21260857231952196
46	0xbf842c2aa32f34d6	-0.00984986601351993
47	0xbfc07b6d8ebc27ae	-0.12876672238809078
48	0xbfc11b2e966873f6	-0.13364202827588628
49	0x3fa5e18cd108977a	0.042736435429374844
50	0xbfc437b7d3107525	-0.1579503803813306
51	0xbfcbaa744f4bd4b1	-0.21613935348401506
52	0x3fb48dd497a08ae6	0.0802891607459447
53	0xbfc6a9e77e4a61f1	-0.17706006685763456
54	0xbfc9e50d625ee87a	-0.20230262091883217
55	0xbf3c0f94944997cf	-0.00042817475722356236
56	0x3fbbffeffea558a7	0.10937404601040389
57	0xbfc67d3d18f6c528	-0.17569698065703077
58	0x3fbedfb65390e27c	0.12060107746300192
59	0xbfbbf605787ebd85	-0.10922273818754576
60	0x3fab9bb8d9617ef5	0.053922440086123936
61	0x3fa102b28b724786	0.03322370483614549
62	0x3fc85b131ea09d5e	0.19027937884787155
63	0x3fcb3e120e4aae6f	0.21283174226606458
64	0xbfb5fe5a68bbdf1c	-0.08591237122515988
65	0xbf952f14f92c1fa6	-0.02068741579844837
66	0x3fce8a2233c466b3	0.23859050300307202
67	0x3fb4257b1f403918	0.07869691384278032
68	0xbfc0eccdc8953ab3	-0.13222667974556188
69	0xbfb61a8b6d7efe05	-0.08634253905528773
70	0xbfb40e98bf89f434	-0.07834772754900216
71	0x3fbe93e28f326461	0.11944404598252013
72	0xbfc619a6e2680b0f	-0.17265783362389484
73	0xbfab919daa0b4d4d	-0.05384533596739036
74	0xbfa06ce037257a86	-0.03208065674947584
75	0x3fb0cbd28fe37009	0.0656100846567257
76	0xbfcad9664c225ca2	-0.20975950925342085
77	0xbfb77b4d4082c91d	-0.09172518563244521
78	0x3fb9b868664c5822	0.100470089888717
79	0xbfb1fc084fb23c97	-0.07025196023663437
80	0xbfcdf37b3fbe42c0	-0.23399296390973312
81	0x3fc73c8959031a4b	0.18153492780966682
82	0x3fb48c0f784224ac	0.0802621525382558
83	0xbfc86f9ce357cb4d	-0.19090615368585376
84	0xbfd225fc18d9b6a3	-0.2835684054069622
85	0x3fa2dce01d6837e5	0.03684139594052719
86	0x3fa1396015fc94f9	0.03364086407081319
87	0x3fce4086f40b8768	0.2363442126871249
88	0x3fc05b734f507329	0.12779084561125245
89	0xbfa34a66d71b66da	-0.03767701507395112
90	0x3fbf27b78027ee8f	0.12169978026207161
91	0x3fc70173da6d6039	0.17973182835953752
92	0xbfc5ec3dbf1f6ed2	-0.17127200920264457
93	0x3fc806c97bb746dc	0.1877071241456666
94	0xbfca247abdd4a4a0	-0.20423826474260398
95	0x3fb9e90e235e60d9	0.10121239055149846
96	0xbfc85c9bb3458591	-0.19032617810721011
97	0xbfcc583eba220be6	-0.22144302452588177
98	0x3fc318739bba9df2	0.14918370346025217
99	0x3fa0094d5555f89c	0.0313209692640026
100	0xbfc954a85204f183	-0.1978960419163621
101	0xbfb47d25dfd1f615	-0.08003460611686138
102	0xbfca766830cceca3	-0.20673849470936032
103	0x3fb4f227cee81087	0.08181999970844532
104	0x3fbf7c50704ab379	0.12299063436030434
105	0xbfc18796b5af037b	-0.1369503390433485
106	0xbf8dbd46bd69c26c	-0.014521172194890762
107	0xbfc1af1c38bf8136	-0.13815644045735959
108	0xbfc5ea13cb894896	-0.1712059730367101
109	0xbfb9b8ea9757a9ce	-0.10047784991153394
110	0xbf96939b13c52439	-0.022047446328802265
111	0xbfa92bdda716eaf9	-0.04916279472987201
112	0x3fc89353c145f42d	0.1919960683552814
113	0x3fc35e69ceaa733c	0.151318765555425
114	0x3fc70b8eb47bfd03	0.18004020512305638
115	0xbfbb0a7a78717661	-0.1056286377001583
116	0xbfc581ef7ba2dbe2	-0.16802781617090462
117	0x3f8c6e266b4fbc77	0.013881969594846872
118	0x3fc9156dad8d2fda	0.19596644376940625
119	0xbf93dcb4f3ad4b00	-0.019396617291316254
120	0xbfd20527a0428331	-0.28156462335941784
121	0x3f998245c7693b10	0.02491101293190484
122	0xbfcc54a586ae90b6	-0.22133320881142077
123	0x3fc1be4d3da2898e	0.1386200476600376
124	0x3fbd387dc29358dc	0.1141432380712532
125	0x3fcc2be41c216d85	0.22008944867671346
126	0x3fc39e16f3c0e246	0.15326201345466667
127	0xbfb77d0f04ddc4f7	-0.0917519938355048
128	0xbfc2d07e3078130f	-0.14698769919063934
129	0x3fb2a866ffc96487	0.0728821157912468
130	0x3faed09dadec333f	0.06018536327437695
131	0xbfbb1f4536f1939f	-0.10594589797399444
132	0x3fd3ac5161e53db2	0.30739244995217085
133	0xbfc2016b8ee2948c	-0.14066833950815683
134	0x3fb60f81789c023b	0.08617409891667986
135	0x3fd253cbb1851445	0.28636448226854255
136	0x3fc8d57956b18d3e	0.19401470883449606
137	0xbfa620597096b5e5	-0.04321555613874376
138	0x3fc22aa8514b6a0d	0.14192680329763654
139	0xbfb23d2db749a5c5	-0.07124601101681723
140	0xbfc8f25c66fa354e	-0.19489626911346608
141	0xbf9a9ab54625950a	-0.0259807895721638
142	0xbfc49b74734bb8d6	-0.16099410657574847
143	0xbfa92fac5a7231d9	-0.04919184307172814
144	0xbfb85fbc19e579c4	-0.09521079666362825
145	0xbfc5a41f5c268bbd	-0.169071121211429
146	0x3fce80eb5ebaf200	0.23830930829525698
147	0x3fc6a9286b0b8d6d	0.17703728892147855
148	0x3fc567f9f50f2c8e	0.16723560777458996
149	0xbf87958ee9708bd1	-0.011515728472721339
150	0xbfb5cc12168d303d	-0.08514512110304025
151	0xbfc3fe8b0e6a5712	-0.15620554164768713
152	0x3f870f1961431f61	0.011259268074709618
153	0x3fc46283b3cb4959	0.1592564227963276
154	0x3fbabca25a7482e7	0.10444082935692799
155	0x3facdecab6e404f3	0.056387266946339575
156	0x3fc2bbee0bde68ad	0.14636016444712166
157	0x3fc61acf75208b81	0.17269318789575652
158	0x3fadbf7cf8811cce	0.05810156377315821
159	0xbfb2fe64734c6eec	-0.07419421973139223
160	0x3fbfcc76bf5b4ec9	0.12421362087053035
161	0xbfb6cf45525cbd97	-0.08910020123288685
162	0xbfb498dd22ddc0a1	-0.08045751668191993
163	0xbfa73b430eafadb6	-0.04537400774264759
164	0xbf957808d1b016d3	-0.02096570758660372
165	0x3fcfe0c1788ee54d	0.24904650103216355
166	0x3fac734e64d7f34a	0.05556721669197502
167	0x3f8709e19a1c7448	0.011249315753554381
168	0xbf9b7aa294ec2869	-0.026835003222949547
169	0xbfc1f2ba8b5d3422	-0.14021999173056182
170	0xbfb4b56634bab323	-0.0808929327710755
171	0x3faae4970df5d8e2	0.05252525372900309
172	0xbfbd195979de143a	-0.11366805291443507
173	0xbfce740b2226374e	-0.2379163662666834
174	0xbfba9526acc02d88	-0.10383836476846942
175	0x3f92b57ecbb0efcc	0.018270474607774465
176	0xbfc899eaafc11dd8	-0.19219716626888217
177	0xbfcb4b87513b47d4	-0.21324244943985937
178	0x3fcb590effeee28f	0.21365535256133625
179	0xbfa7d669bd27b249	-0.04655771669408588
180	0x3fd0e37e0ca50db5	0.263885032986049
181	0x3fc43266bfd92ae0	0.1577881275901154
182	0x3fc7ece115818a15	0.18691648054216672
183	0xbfbecc0eb394055b	-0.12030116924508631
184	0xbfaccdb56b3a3770	-0.05625693258217168
185	0x3fc561e5d0fd3f30	0.16705010132363318
186	0xbfb39a3755d9bc90	-0.07657190175972262
187	0xbfc5ea19db7e4eb2	-0.17120669572306252
188	0x3fc9e567cbb5d0ef	0.2023133988074117
189	0xbfb2465134034a1a	-0.07138545532078702
190	0x3fcbec596c8d58b8	0.21815030861279694
191	0x3fc56a88107f6f35	0.16731358342701133
192	0x3fc808ce6925e4eb	0.1877687467020118
193	0xbfa469f4c0b6add9	-0.03987088062725847
194	0xbf929799bd4e984c	-0.01815643518389036
195	0x3fb0c49b7e65dfcf	0.06549999080550538
196	0x3fa9e569961e4beb	0.05057840306758251
197	0xbfa3cc1bc6b06c7a	-0.038666599277541416
198	0x3fc746ea227dbc0c	0.18185164150369848
199	0xbf84ef738bd77134	-0.01022234220993621
200	0xbfc58b94a2da4272	-0.16832216216836887
201	0x3fd5cfad507a5441	0.3408005987087713
202	0x3fba99bdcbe26c29	0.10390840747497578
203	0x3f2c2d58948cf2a6	0.00021497446348374866
204	0x3fcbc19fa1c52f2a	0.21684642218530686
205	0xbfcd03058ac40b34	-0.22665471339868193
206	0xbfb6eacc377beb28	-0.08952022890654787
207	0xbfc1592d70a2aef7	-0.13553398132113845
208	0xbfc6d7f792f69b78	-0.17846579242651806
209	0x3fb704a65d72355b	0.08991470128440453
210	0xbfa6dc7186acc74f	-0.04465060013752852
211	0xbfc7ed406d9f05f2	-0.18692784645649813
212	0xbfc70d79ec2610ac	-0.1800987628049645
213	0xbfb536dae203cb6b	-0.08286827104511267
214	0x3fabcbc1eca3cd87	0.054288921486569434
215	0x3fc0c725dfec9041	0.13107751306336193
216	0xbfce963726d83e3b	-0.2389592113181481
217	0x3fc7b770a2909c1e	0.18528564393747698
218	0xbfc7cf90d4349148	-0.18602190362538296
219	0xbfcc2c0a02ff3a06	-0.22009396692597266
220	0x3f612c76822045c5	0.0020963968863802773
221	0x3f67bb34e049877c	0.0028968842255360765
222	0xbfc219a25beb0428	-0.1414072941607014
223	0xbfb90312c086ee85	-0.09770314407699672
224	0x3fc6c1a526539a58	0.1777845799581026
225	0x3fbcf487427e726a	0.11310620664011997
226	0x3fa48fdd4fdcb33b	0.04016009902838965
227	0xbfadb805298c5174	-0.05804458744219945
228	0xbfc667c24ca83303	-0.17504147284525837
229	0xbf9f477ee71e912c	-0.03054617200508962
230	0x3fc663f12ce3c0a2	0.1749249905765327
231	0xbfc0cc29a6cb18de	-0.13123055118757682
232	0x3fc4eb0f4cd31ccc	0.16342345477298748
233	0x3fc4db0a22719657	0.1629345577413683
234	0xbfd13b5a2063ef1c	-0.2692475620567494
235	0xbf68d1a8375f5bee	-0.0030296597933374613
236	0x3fc05a3932034f31	0.12775340024983842
237	0xbfb163b805b38176	-0.06792783869923888
238	0x3fba1c17cbd03852	0.10199116445457548
239	0xbfae4edb035da259	-0.05919536987386626
240	0xbf72be34367df0c5	-0.004575923878175019
241	0xbfc403be2e1b7b5b	-0.15636422396979807
242	0xbfa68f3521c66cd0	-0.04406133687299418
243	0x3fbedcbabede132a	0.12055556449747643
244	0xbfcdd8fca7c97ffa	-0.23318441574792798
245	0x3fc52b84d9b27152	0.16539059285868035
246	0x3fc788a36ed20d49	0.18385737334402055
247	0xbfc18e7b87eaa301	-0.13716072212744027
248	0xbf8eb030abdd8638	-0.014984493489183057
249	0x3fc21649699c55c0	0.141305138175694
250	0x3fb792830ed731f6	0.09207934486693845
251	0x3fb428b7bceca672	0.07874630319988699
252	0x3f817bebbe12d1d3	0.008537141550143545
253	0xbf873be306db5e3d	-0.01134469380069369
254	0xbf9295e072857669	-0.01814985941870476
255	0x3fc86798ee07d266	0.190661541200501

linear.0.bias f8 [128]
0	0x3fb957abcec070cd	0.09899400518083042
1	0x3fc3fa143e39f736	0.15606930769347976
2	0xbfa0a5bba9f50bde	-0.03251444291756632
3	0xbfbdfbb1b7e80125	-0.11712179889582737
4	0x3f976d5607c09bf4	0.022878021453063682
5	0xbfb9a2e8b03193e2	-0.1001420431289968
6	0xbfaf0138625bc01c	-0.060556184775009764
7	0xbfb0047ba8d69b04	-0.0625684058382881
8	0xbf9b6179aeefeaf1	-0.026739026357954058
9	0x3f765eb56f9ec57b	0.005461415037573909
10	0x3fb7f20064c46ccc	0.09353640041483685
11	0x3f82174b786d40ea	0.008833493816979805
12	0xbfaa23c25ef41695	-0.05105407151317568
13	0xbfae3b1203443ed8	-0.05904442109942715
14	0x3fc2f415f990e8ab	0.14807390867082879
15	0x3fb47cec3a236f5e	0.0800311700763223
16	0x3f5684737a383160	0.0013743522366694502
17	0xbfc45064601cdceb	-0.15870337193494008
18	0xbfa265ddd04cc143	-0.03593342941019497
19	0x3fa5f90d909d1200	0.04291574850370594
20	0x3fb3afa36751ae5d	0.07689877769888072
21	0x3fb601d890af9739	0.0859656670796455
22	0xbfa89b9d39ac5122	-0.04806224183099263
23	0x3fa0f380e247325d	0.03310778391059863
24	0xbf82d05abd5e9b29	-0.009186467079258147
25	0x3fb0b9f92b58603e	0.0653377276252067
26	0x3fa970a95e6978e6	0.049687664770987
27	0x3fa2ff71d330bb20	0.03710513785369174
28	0x3fa0b7242faef94f	0.03264725763391373
29	0xbf911c7ee180fda5	-0.016710264695800742
30	0xbfa2405802442760	-0.035647154118193525
31	0x3fb679ddac7d06dc	0.08779702626363978
32	0xbfc2ed922ef4b5e2	-0.1478750924374444
33	0x3fae78aa1ce2c35b	0.05951434710130484
34	0xbfa2904b61017f5a	-0.036257129279646264
35	0x3fbc208b9aa250e1	0.10987160229916838
36	0xbf9da6c404212af9	-0.028956473114059886
37	0x3f78ca2fd4e8da89	0.006052195398800316
38	0x3fb9ca43f3648285	0.10074257557108453
39	0x3fb83604daa9902e	0.09457426393925125
40	0x3f031df64bb48bd2	3.6462859009732084e-05
41	0xbf8bd1f8936de4ea	-0.01358408164900245
42	0xbf73dd035b1d69ef	-0.0048494464006929435
43	0x3fae7cad77632196	0.05954496462215102
44	0x3fb8111c6950a7cb	0.09401109286468949
45	0xbfa15d2e54300d31	-0.03391403939897442
46	0xbfaf19e62d1c5287	-0.060744469648999426
47	0xbf61536b5d3c636c	-0.002114972778042226
48	0x3fa334481dd7e0bd	0.03750825275705114
49	0xbf9141e4fc75665d	-0.01685292998204201
50	0xbf814b34aebff278	-0.00844422491354034
51	0x3f89dd3fade4481d	0.012629029745344461
52	0xbfc51e16b2ad7243	-0.1649807331513263
53	0x3fafa26faa8fe195	0.06178616482788183
54	0x3fae5676ef58fec9	0.05925342246746152
55	0x3fc60d2b54314c7d	0.17227689372029778
56	0x3fba5daad4cb1391	0.10299174971721771
57	0x3f902faa7a925f34	0.015806831103503075
58	0x3f963041576c9ec9	0.021668454132991486
59	0xbfb95cda4459560d	-0.09907306832004555
60	0x3fa0e1fc28102a07	0.032974128618736435
61	0x3f969ab677c28638	0.022074557361184882
62	0x3fb18e3403c52220	0.06857609836618694
63	0xbf8a44bea208addb	-0.012826432533151902
64	0x3fa2f18f73d02b87	0.03699920929655947
65	0xbfac027ec798b42f	-0.05470653711777406
66	0xbf8376eaee3bfb4b	-0.009504161258062324
67	0x3fcb10767085681b	0.21143990034289648
68	0x3fc2c406edf32f7e	0.14660727137231427
69	0xbf864363d3103839	-0.010870723608629717
70	0x3f60b17f781e53a9	0.0020377626069127586
71	0xbfae0f7e8edd344b	-0.058711962642157355
72	0xbfb6a37d2e3329f1	-0.08843214395452727
73	0x3f896f6cc54527fa	0.0124195573522634
74	0x3f9a5124097e540b	0.02570015247291128
75	0xbfb416edda7f5a55	-0.07847487053309384
76	0x3fa3ea9eb13b0b28	0.03889938271961163
77	0xbfb05d03d7be2c55	-0.0639192964282967
78	0xbf7083ea95a4144a	-0.004032055230941254
79	0x3f98d5ec44ffa7fb	0.0242535512078703
80	0x3f936e1002b37264	0.01897454277501466
81	0x3f94d016fc2dfea7	0.020325049535584807
82	0xbf944d22085c3b19	-0.01982548881556587
83	0xbfac3a777ade5492	-0.05513356566295004
84	0x3f8fc286789df9ec	0.015507746272985089
85	0x3fa8b1bba2481e5c	0.04823099475839562
86	0xbfa5c43594eba7e8	-0.04251258318784307
87	0x3fb0cb0bb34a86ef	0.06559823157524723
88	0x3f9c16027daf802d	0.027427710458027988
89	0x3f85fe95fe3635c6	0.010739490337779222
90	0xbfc06c3ee60061c6	-0.12830339651624295
91	0xbf81df425c3146ed	-0.008726614416591139
92	0xbfb9d93ab3f76591	-0.10097090619765071
93	0x3fbe1e235c8a75c6	0.11764737138079004
94	0xbfba75abe8eababd	-0.10335802494476361
95	0xbfc0878ac16f3dc8	-0.12913641400380826
96	0x3f9af5f6e1f45c6a	0.026328904668016774
97	0xbf9af55c24c227c5	-0.026326598876529567
98	0x3fb753a85c3c9d07	0.09112026454805654
99	0x3fb6bbb0f47a5418	0.08880144089410213
100	0xbf84d6d77276e4cb	-0.010175402813603537
101	0x3f513883175dab7f	0.0010510711849416041
102	0x3fb99295dd6ab3e2	0.09989296584781429
103	0xbfa27fba99461d75	-0.03613074418086174
104	0xbfa4ac74ef56184f	-0.04037824079118534
105	0x3f9b68713b0fd612	0.026765603284692636
106	0x3fa43c1c7a1bf562	0.039521112352285184
107	0x3f62dd590d7f132b	0.0023028125105803063
108	0x3fad0de58db1a17c	0.056746648356070545
109	0xbf7d7d180af8c0cc	-0.007199376981177074
110	0xbf936ea708535e24	-0.01897679317775504
111	0x3fa757a8a0ec0523	0.045590657848160875
112	0xbf9c6cc99b1a0273	-0.027758741466188796
113	0x3fbd3738aa624898	0.11412386092914273
114	0xbfa309f7785dd4e8	-0.03718541473691933
115	0x3fa67efa228971e8	0.04393750831215809
116	0xbf8ef142019f9b2c	-0.015108600306076157
117	0x3fa480306be9d4ea	0.04004050557424839
118	0x3fbd9ed829754250	0.11570502292784934
119	0x3fb648851b976394	0.08704406665436998
120	0x3fb07f489c037981	0.06444219407010189
121	0xbf68f7cc15e9a807	-0.003047846417122638
122	0x3f90d3adb45eb4f9	0.016432489522846237
123	0xbf96cbd2d3c4132b	-0.0222619001151713
124	0x3fb1836e1d4b381d	0.06841171469861292
125	0x3fb5c1443d7ef66a	0.08498026372304826
126	0x3f60fc143dcc7349	0.0020733256664144145
127	0x3f80ad4fe3ef63f7	0.00814306654312878

linear.2.weight f8 [128, 128]
0	0x3fa62c38f5083578	0.04330614081491552
1	0x3fbe0f7be683cf6e	0.11742376687817366
2	0xbf610ca9d10c5c18	-0.002081233666455084
3	0x3fc200f29e9948fd	0.14065392250137868
4	0xbfa8202151468524	-0.04712013356334868
5	0x3fc1fd84467f10c9	0.14054921571926673
6	0x3fb335ddb89b945f	0.07504068142914509
7	0x3f988cad8f2f1092	0.023974143852470826
8	0x3fa72432c81fdac6	0.04519804661679454
9	0xbf9fa292680a2c86	-0.03089360008247557
10	0x3f9717f2691dd058	0.022552287736701565
11	0x3fbede3b79bc6f31	0.12057849618980467
12	0x3fb6898f78fde15f	0.08803650573634546
13	0x3f72959754387576	0.004537192467549791
14	0xbfb8ba026edc23bb	-0.09658827978650113
15	0xbfac2a627761624e	-0.05501086909561491
16	0xbfbe592ca3b77d70	-0.1185481929492107
17	0x3fc018bc063842a2	0.12575483611774013
18	0x3f80d792e9cadee7	0.008223674545078065
19	0xbfae346acb3068e8	-0.05899366121612265
20	0xbfb8d89a167ae150	-0.0970550827868284
21	0xbf9c2030f5677d14	-0.02746654985264481
22	0xbf9b57e9d214bf26	-0.02670255036099358
23	0xbfa0690c0b0d2d01	-0.0320514453402101
24	0xbfbff3747c5ae050	-0.1248085788346327
25	0x3fae9f05072b0dd7	0.05980697357656666
26	0xbfa7dba57ea49ea3	-0.04659764452872863
27	0xbf87d18755ef8fb1	-0.011630112943698952
28	0x3fc176d136f4dc68	0.13643851455137512
29	0xbfaafe529043f267	-0.0527215767960783
30	0xbfafe11b4ddf11dc	-0.06226430249765588
31	0xbf9bb42d32b6a6f4	-0.027054506511979562
32	0xbfa48a451bff5ca9	-0.04011741606489611
33	0xbfadf8ef2dd117a9	-0.05853984293257437
34	0xbfbfc542bdc07963	-0.12410370953191356
35	0x3fb5c13c6bacb3ab	0.08497979763769929
36	0xbf8c14b4e2cbe2db	-0.013711369677808552
37	0x3fbf919a943990e9	0.1233154880406492
38	0xbfbb1148a622dedb	-0.10573247963008774
39	0x3fbbe726abb8213f	0.10899583523144417
40	0xbfb52397268087ce	-0.08257431688301084
41	0xbfaadf50e9fc69b0	-0.05248501640581382
42	0xbfb0704692c98a78	-0.06421319087670863
43	0xbfb6325ed89ef869	-0.08670609272573561
44	0xbfaad2f421a46484	-0.052390698534687835
45	0x3fb722718d7a1dc1	0.09036931709316944
46	0xbf6ee5043974b809	-0.003771312952856047
47	0x3fbc37d07f10aabd	0.11022666074920102
48	0x3fafc3a0d77bcb12	0.062039400390764624
49	0xbfbd677c98ed0cf8	-0.1148603318552438
50	0x3fa8e66aaafd7919	0.0486329396942315
51	0x3faf7314c68df1b5	0.06142487453232396
52	0x3fa790d48758a897	0.04602684166123188
53	0xbfc4238dd555cbdf	-0.15733502308611855
54	0xbfc46697e5dcc9ec	-0.15938090060951937
55	0x3fc0b6b698f4be76	0.13057596653515063
56	0xbfa15fc4e1835d9c	-0.033933784988842336
57	0xbfbcddb42a225d4c	-0.11275793102901338
58	0x3fab9fd70c8921c6	0.05395385768912635
59	0x3fb3bdbea6af97e5	0.07711402482490788
60	0xbfb146f2d21a1bd4	-0.06748883847659154
61	0x3fb1c7b25feb21b4	0.06945338098296966
62	0x3fa5904f337f49fb	0.04211661819103437
63	0x3fb1193e36de7349	0.06679142798971073
64	0x3f934599d7535ae3	0.01882019402259062
65	0x3fc0f404e76ee3d9	0.13244687366912336
66	0xbfb42252ae07abe8	-0.07864872692850577
67	0x3fb84cfbd4dd02a4	0.09492467829569279
68	0xbface1f9168de568	-0.05641153717346975
69	0xbfbd08bf66318e9b	-0.11341472859344963
70	0x3fb83be267764a51	0.09466376329354743
71	0xbfa10337f9b757d8	-0.033227681382115015
72	0xbfbefc7d37f9f9a8	-0.12104017845738346
73	0xbfb07f07f8c815fd	-0.06443834136742761
74	0xbfbb03d68301e794	-0.10552731226371598
75	0xbf8512e8e1d20b85	-0.010289973632330316
76	0x3fb4b55a6279414e	0.08089222816602623
77	0x3f9fae6d45c30fbd	0.030938823111469328
78	0xbfa13e069aedb681	-0.0336763443109307
79	0x3fb586ccf0da82b9	0.08408814315999792
80	0xbfc13d060b37b90c	-0.13467479274499572
81	0x3fa0882c7206222c	0.03228892223257093
82	0x3fbc5648abd36783	0.11069158740011002
83	0x3f847e182c0ac279	0.010006131023460473
84	0x3fa550d5a5e789d5	0.04163234377098816
85	0x3fa7024e67ea460a	0.04493947046752218
86	0xbfb65a5aa9865b5a	-0.0873161949042304
87	0x3fb7dfcdb851f5bc	0.09325872182849698
88	0xbfa2cd11db752ee5	-0.03672080806663106
89	0xbfb51f0a0e79bda1	-0.08250487187773682
90	0xbfbef496826afe51	-0.12091961559325994
91	0xbfb69b6719a7b5dc	-0.08830875755639717
92	0x3fc05cf5231e5f2c	0.12783683981683092
93	0xbf85d35da66fc864	-0.010657054559463038
94	0x3f97d9663a46064b	0.023290250117048477
95	0x3f9a5771d5d7b1a6	0.025724199940599178
96	0x3fbb1f120111420b	0.10594284559307014
97	0xbfb8e94072c3bd84	-0.09730913926954626
98	0xbfc0eff52c92e9a5	-0.13232292820414418
99	0x3f5d9c096d9eed23	0.001807221610291184
100	0xbfbb1e7cf017eccb	-0.10593396054894126
101	0xbf9f502254c87a4f	-0.030579124855757474
102	0x3fc1b91067a8df45	0.13846020757204705
103	0xbfb79f38a455618a	-0.09227327358292406
104	0x3fb5e08b2603c0e4	0.08545751264660201
105	0xbfb62c4c80b30b8b	-0.08661344663691588
106	0x3fae5fb9496723f1	0.05932406445533179
107	0xbfb6a6adc3f93a76	-0.08848081621656853
108	0xbfb6428435f38d45	-0.08695246045276857
109	0x3fab95e0cd99925d	0.053877854440348406
110	0xbfbf40711c4a7fbe	-0.12207705441187408
111	0xbfb1012d351c035d	-0.0664242033635793
112	0x3fa0d0416f01742c	0.03283886413621703
113	0x3fb978963615e972	0.09949625797699982
114	0x3fbecfd03cc6f4ff	0.12035848125283975
115	0x3fa6b3f527b63152	0.044341717813127915
116	0x3fbd661dba66d964	0.11483941841911399
117	0x3faa5d0e015c6ce9	0.05149120108236522
118	0x3f9d6c7945af168c	0.028734106901330977
119	0xbfba55f8505ae793	-0.10287429773134553
120	0x3fc0e724ee5bbbcf	0.1320539630755477
121	0x3fb9866a4b51ed76	0.09970726336353217
122	0x3fc25e38dea21db3	0.14350043173565794
123	0xbfc14e639cb11601	-0.13520474577869382
124	0x3fafb7f059651b27	0.061950217163533154
125	0x3fc114998272fb9d	0.13344115132892123
126	0xbfc0748cee990a3d	-0.12855683946880161
127	0xbf76b94792f845bb	-0.0055477901328386215
128	0x3faeb226272a260c	0.05995291927417776
129	0xbfa55078a1761e9e	-0.04162957163776791
130	0x3fb18b0129a6bd82	0.06852729098203805
131	0xbfb66526352eb75b	-0.08748091505432624
132	0x3fbe901716aa413f	0.1193861418089499
133	0x3fb465e44313df7c	0.07967974317204879
134	0x3fa6e1add6903948	0.04469054454976856
135	0x3f6fcb0eb010b1b0	0.0038810049886903383
136	0x3fba4880692870d3	0.10266878669102945
137	0x3fc2cce8157ac0a0	0.1468782524948482
138	0xbfb4fbf7d8977dbc	-0.08196972883114645
139	0x3fbe02310beb178e	0.11722094098067101
140	0x3fbe6d00158999ac	0.11885071302240274
141	0x3f9062ef9c5ab798	0.016002410810578377
142	0xbfb5250dca312dff	-0.08259664713221325
143	0x3f422d1df367b1de	0.000554694771208338
144	0xbfbeca56cb9d4acc	-0.12027494879775275
145	0x3fb36931b7c29527	0.07582388626413615
146	0x3fb33aa4588ff65d	0.0751135555473978
147	0xbf6c02c3d52dc036	-0.0034192871911997947
148	0xbfbd80f170ad9894	-0.11524876595430761
149	0xbf7097c57055156f	-0.004050990338617096
150	0xbfbd7ac65b396d69	-0.115154645225109
151	0xbfc2c1cc4ad597ea	-0.14653924612065278
152	0x3fbebf93c52bbc43	0.1201107365011334
153	0xbfa88adf8e7aeb12	-0.0479345189500774
154	0x3fc1c43b3342ec4a	0.13880100253104138
155	0xbfbe7ad4b85d09de	-0.11906175137577388
156	0x3faac26298573c65	0.052264290901455714
157	0x3fbd480a0756176a	0.11438048056706199
158	0x3fbc2a445b839826	0.11001994356374264
159	0x3fc332fbd067e354	0.14999339748444618
160	0xbfbf3ac332e7639d	-0.12199039452333556
161	0xbfb0bcc0d2c2a970	-0.06538014550702598
162	0x3f947282c5137338	0.019968074110568085
163	0x3f85e04b2176f102	0.01068171211124325
164	0xbf80fab6c091bbe8	-0.008290698768375251
165	0x3fc21512822c7f5f	0.14126807552474482
166	0xbfc2903c52f316c1	-0.1450267224337747
167	0xbfc13d84d189167e	-0.13468990546441612
168	0x3fb7b93174f6bed8	0.09266957383692487
169	0x3fb0e56ab733a5d9	0.06600062344263992
170	0xbfc33f4cd165946b	-0.1503692648358624
171	0xbfbefb69fbf06deb	-0.12102377320154971
172	0xbfb4da88f5db642a	-0.08145957949035734
173	0xbfbdfe429a7c8156	-0.11716095229758614
174	0xbfbfbc5884671331	-0.12396767837988133
175	0xbfac3031f0a01d98	-0.05505519926378638
176	0x3fc45ba006fd877b	0.15904617635083781
177	0xbfaae37858372249	-0.0525167091069006
178	0xbfb5e1568735d3e8	-0.08546963501960614
179	0x3f974397c19245dd	0.02271878355947431
180	0xbfbe673d6a65cf5e	-0.11876281592941271
181	0xbf768abbf27a0dea	-0.005503400963451347
182	0x3fbab7d5f0631514	0.104367610157244
183	0xbfb49013a9325da8	-0.08032343750743698
184	0x3fb23e1f66ea1493	0.07126041662748354
185	0xbfb74817f08d0758	-0.09094380972694915
186	0xbfb76e7694e6f225	-0.09152928481393781
187	0x3fc32a23de6fdea9	0.14972351418667998
188	0x3fbf3d71442bb518	0.12203128732990753
189	0x3fc18397b1c8d558	0.1368283861244588
190	0xbfa4356231d324d2	-0.03946978433811811
191	0xbfc229dda70aa284	-0.14190264374089534
192	0x3fa24ca3df8ecafa	0.035740967788475644
193	0xbfc4abb4def9ef97	-0.16149006736293067
194	0xbf956d587a1fcd67	-0.020924932912703833
195	0xbfc1bdba26b9d02b	-0.13860251322660253
196	0xbfb216daf3c0f379	-0.07066124392527041
197	0xbfacb8461b78660a	-0.05609339795428177
198	0x3f8dbd0ff305e7d3	0.014520763973212702
199	0xbfb5d85032db8d66	-0.0853319286502959
200	0xbfb3b07c6991218b	-0.07691171243016563
201	0xbfbc8b35b63ee880	-0.11149917315825242
202	0x3fbe6c0eb6140229	0.11883632607715157
203	0x3fab14f65158d8c6	0.052894303731976275
204	0xbfb94baf7aa5fe18	-0.09881111854883107
205	0xbfb9666bc6aabdb2	-0.09921907043712144
206	0xbfb2cedfd6ae5d74	-0.07346915236700174
207	0x3fc3413a7299cd66	0.15042811008207052
208	0xbf88ea68d70939e0	-0.012165850698832636
209	0x3fa25653ac89344b	0.03581487160827431
210	0x3f7075e5ffb7c930	0.0040186867076832805
211	0x3fbe2d1b907df521	0.11787578847539183
212	0xbfa196f65e20afc9	-0.0343548765088993
213	0x3fb026602af64229	0.06308556603313122
214	0xbfb07076c460637f	-0.06421606344555462
215	0xbfc0869f5de9f6a2	-0.12910835347786526
216	0xbf9ecc0c67835b5b	-0.03007525808137799
217	0x3f9dd7af6528d986	0.029143086003580197
218	0xbfa00c7637894670	-0.03134507587368496
219	0xbfa56ad3d2138c37	-0.04183065356644316
220	0xbf9462d631e3fdbe	-0.01990828208454131
221	0xbfc196cd762a9d49	-0.13741462964865495
222	0x3f8e2e301b1f169e	0.014736533954315786
223	0xbfb9a4cb7f3cdc1f	-0.10017082077398286
224	0x3fb75fde077683f1	0.09130656892968127
225	0xbfa143e8be25a5fd	-0.03372123070841935
226	0x3fbb46d4e7c872fc	0.10654955538525351
227	0xbfbb331544f2055b	-0.1062482159923283
228	0x3fb29bf94be59715	0.07269247153234588
229	0x3fbaad25b053d25d	0.1042045169340979
230	0xbfa40075b2f6d88b	-0.03906600770589915
231	0xbfadfa2be1eb1331	-0.0585492814330223
232	0x3fc2d708d7b5c566	0.14718733341900786
233	0xbf773c06436bb3bd	-0.005672478166826642
234	0x3f9b6d374e5f0346	0.026783813627619744
235	0x3f97767f54a164e9	0.022912969150955673
236	0xbfbd1b75cfce1a05	-0.1137002594315178
237	0xbfb0f2e21cbe7815	-0.06620610429533287
238	0x3fc463b93aebf429	0.15929332139049393
239	0xbfb2dee1ee683ad5	-0.07371341772543911
240	0xbfa5383f3645029f	-0.04144475495787003
241	0xbfb023c735ec2981	-0.06304593149631012
242	0xbf5fd1088e7cba1b	-0.001941927295728291
243	0x3fa045ad91ca0ff0	0.03178160099653826
244	0xbfa363b65672569c	-0.037870119144981035
245	0x3f9bab5c755b4e66	0.027020878470308672
246	0x3fb8ba1185653ed0	0.09658917910314391
247	0x3fb0d6cb3c0bde33	0.06577749458289688
248	0xbfbd783187ef4bd5	-0.11511525696486953
249	0xbfa1265a369326e6	-0.03349573055454673
250	0xbfc0b8109b741859	-0.13061721411230812
251	0x3fc25ab725f3aff7	0.14339341500397015
252	0x3fb869d7764a20c7	0.09536501539162422
253	0x3fab26e134eae39e	0.053031003675136676
254	0x3fc049ae01334991	0.1272485261784593
255	0x3fc197047cf49205	0.13742118932090377

linear.2.bias f8 [128]
0	0xbfb73e9e349d5551	-0.09079922470603675
1	0xbf9e53ea66ea881a	-0.02961698773527397
2	0xbf935505af5d98e5	-0.018879021481006304
3	0xbf9ba25246ac8936	-0.02698639446601555
4	0x3f8cf06be61f4980	0.014130442581436808
5	0x3f93b20d82d907f5	0.019233904944719844
6	0x3f9193ad8f7ab11c	0.017164909250525814
7	0xbfb87702b5042736	-0.09556595725385084
8	0x3f7fe51a71be488b	0.007786849306187569
9	0x3f8c791d1eca4c28	0.013902881147521098
10	0x3fb58fbdcf102271	0.08422457032441756
11	0xbfb65cab7362242e	-0.08735152785278963
12	0x3fa999c7b3a002d3	0.0500013739365436
13	0x3fa5c48e193a2f34	0.042515221194746294
14	0xbf829e426cfc1dae	-0.009090918494179725
15	0x3f9de56e93e84f73	0.02919552591090686
16	0x3fac34c29d4e60b7	0.05509002847901583
17	0xbf9a0f88721e861b	-0.025449878659520402
18	0xbfa15f980b005fe6	-0.03393244871421057
19	0xbf97c4607b858228	-0.023210055865435703
20	0xbf8b64d3f09af269	-0.013375907688321935
21	0xbf93db34f7a9129c	-0.01939089547728888
22	0x3fc075b89bca3a46	0.1285925636952518
23	0xbf92c49009807d87	-0.018327951984358683
24	0xbfae17d2533b1c4d	-0.058775494251272244
25	0xbf8a1403e1fdf2b2	-0.012733488401630442
26	0x3f8540b2325f3e41	0.010377304231865671
27	0xbfac6f71c00e8b36	-0.0555377528137541
28	0xbf8b3bca6616c827	-0.013297635307797219
29	0xbfa332370e3eba82	-0.03749248551263397
30	0x3fb4df721efc44c2	0.08153451210479815
31	0xbf6171d1f9674703	-0.0021294690188619083
32	0x3fb3e2c03320a552	0.07767869232397587
33	0xbf75db15749008a0	-0.00533588772759877
34	0x3fb9f98300985782	0.10146349682358216
35	0xbfc7bab580504734	-0.18538540616332855
36	0x3fa59db3bcf6ebd5	0.04221879655548092
37	0x3fb452cd24cd03be	0.07938844822366684
38	0xbfa38cada6801219	-0.0381826654193313
39	0x3f8a73b2ec6f3986	0.012915990677268462
40	0x3f87371a4b828e57	0.011335568837529992
41	0xbfa7eb803b06bce3	-0.04671860428367738
42	0xbfc0875833aee356	-0.1291303875312006
43	0x3f965e33e7dd5b16	0.02184372999848979
44	0x3f822c44542188d9	0.008873494927858537
45	0xbf97541d2ddd1e9b	-0.022781806873608628
46	0x3f968bb9e147df1b	0.02201738774780813
47	0x3fb19b8474b74d70	0.06877925729286516
48	0x3fbdbfe634cc8ee5	0.11620940007247389
49	0xbfa55288989d8915	-0.041645306234174985
50	0x3f348b868b6f84fe	0.0003134921529959893
51	0xbf99eb9638d72c49	-0.025312754840154637
52	0x3f90017262094fe9	0.01563051913610983
53	0x3fd2bfee0d944b4b	0.2929644711122605
54	0xbf91c706751fd17e	-0.017360783480357515
55	0x3fc3d55ad5ced323	0.1549485725387508
56	0xbfabfa370d229035	-0.05464336428966058
57	0x3fc300d506526b3f	0.1484628945225612
58	0xbfab65beb93825af	-0.05351062785127724
59	0xbfb21691383233e9	-0.07065684911704263
60	0x3f8a9b08bf8db9f6	0.012991016717674757
61	0x3f9643831037349e	0.02174191271278813
62	0x3f67e37d16abf798	0.0029160922180144315
63	0xbfae6bbcf668339d	-0.059415726737007214
64	0x3fb11499ba1b0d59	0.06672058862300413
65	0x3fb229ab5836321d	0.07094832328420649
66	0x3fae167a88fe91a7	0.058765248511267125
67	0xbfa3e913d5601383	-0.03888761501006057
68	0xbf99bf8572b90cd5	-0.025144658209922028
69	0x3fae81c29164bf37	0.05958374047111053
70	0xbfa82584e46b6834	-0.04716124809574787
71	0x3fb1c5f5b61729f6	0.06942687697952707
72	0xbfbbfb3b92e530bc	-0.10930225693045065
73	0x3fa9d0dc47e9db52	0.05042160394525887
74	0xbfa5c77aedc606a2	-0.04253753807553308
75	0xbf82586823df6d06	-0.008957685084104227
76	0xbf9727a29c21d290	-0.02261213376955823
77	0x3fb0e85db31825b8	0.0660456239931112
78	0xbfa6623515c60393	-0.04371801272191713
79	0xbf844873f031f738	-0.009903817908930898
80	0x3f983afa5923b34d	0.023662482920303863
81	0xbf8cc9f15410e595	-0.014057050111761874
82	0x3f99bd4097a5350e	0.025136002784440108
83	0x3fb0f1ad0ccd7fda	0.066187682748477
84	0x3f8ef1b46f3f7523	0.01510945286275473
85	0xbf9a7d5710ec6669	-0.02586875954430071
86	0x3f9706547a7743f2	0.02248508450958648
87	0xbf6229a007683930	-0.0022171140256041152
88	0x3fc57fdb17645762	0.16796435014901606
89	0x3f897b3739da092c	0.012442046597474908
90	0xbf9c06cc2d27b96b	-0.027369680648854294
91	0x3f91b61708a9ac56	0.017296180633291712
92	0x3f9a1c8c77eb9e70	0.025499529666289822
93	0x3f9b597ceb0dd0da	0.026708556982570332
94	0xbfa56d9502189bb8	-0.04185166979396321
95	0x3fa217ecca399abf	0.03533878296439274
96	0x3fbc334ab81d1bfd	0.11015765185321409
97	0x3f8c50dfad50530c	0.01382612941419261
98	0x3f957a138fbcf2a7	0.020973497055126213
99	0x3f8d2e877b337a4c	0.014248903701113445
100	0x3f9634cd09efbf43	0.02168579457423837
101	0xbfb3ec6fbd7d982e	-0.07782648445353921
102	0x3fb2ad0f9740dac6	0.07295319979389622
103	0xbf83752de8e9d294	-0.009500845594837139
104	0xbfc2d977970c1542	-0.14726157069541485
105	0xbf910757e2eee3ab	-0.01662957499113175
106	0x3fb6022e82fb11bf	0.08597078988811456
107	0xbf8ef9684da94235	-0.015124144430189815
108	0x3fb11c8cfda2c27c	0.06684189979820049
109	0xbfbfb249b526d12f	-0.12381420776984407
110	0xbfa8d23a71763c81	-0.04847891459496002
111	0x3fa50331ea3a9987	0.04104000076522412
112	0xbfb13408f9aa69a0	-0.06720024199822783
113	0x3f93f598eb372f16	0.019491566997927277
114	0xbfb0e9180d3d1b8c	-0.06605673144541252
115	0x3f7d340cf6955165	0.007129717481195595
116	0x3f843f45079a92d6	0.00988630227522817
117	0xbf9002957514d07e	-0.015634856482578112
118	0x3f8265904c934b98	0.00898277982415667
119	0x3f9be9b1b467521c	0.027258659969293317
120	0xbf93dfce3f616707	-0.0194084383186697
121	0x3faa55d9b7c8d13b	0.05143623703443941
122	0xbfa16698795c1719	-0.03398586732332216
123	0xbf6c2b19f77dbd7c	-0.0034385211146667465
124	0xbfabde1bf52f20b1	-0.05442893379182701
125	0xbf875900006d5878	-0.011400222790751466
126	0x3f6b165fd90d9a63	0.0033065673855390706
127	0xbf64f007463f9c9e	-0.0025558607176097833

linear.4.weight f8 [128, 128]
0	0xbf8ae3d72a75fe1f	-0.013129883750251868
1	0xbfbcfe3416715510	-0.11325383708875258
2	0xbfa374e503de04aa	-0.038001209947659945
3	0x3fa0208dacd33dd3	0.03149836287195353
4	0x3fb6d3aacd520d79	0.0891672850867077
5	0x3fc1ca719796ca3c	0.138990592020109
6	0x3fbd7c6d1f9671ad	0.11517984410460853
7	0x3fbcaf75b2532402	0.11205230334884678
8	0xbfc37b7b3196fd99	-0.15220584794404315
9	0xbfb1230fc52e0fa2	-0.06694124759638823
10	0x3fa0db5f4e072c28	0.03292367770662735
11	0x3fb9b73d0ec5cc84	0.10045224772129485
12	0xbfb16af178c58bc7	-0.06803807447936015
13	0x3fa2c67dd7849ac9	0.03667062049708176
14	0xbfc507bbcd7ac8a5	-0.16429851086792727
15	0xbfc0d581305e7a6d	-0.13151564466257373
16	0x3fa43a026756bddb	0.03950507651768095
17	0xbf81def703a5cfdc	-0.008726053046053943
18	0x3fb512947eec7f00	0.0823147592423048
19	0x3f74d113e551f48c	0.0050822045496917816
20	0x3f657b6b1b180bf6	0.0026223270331242566
21	0x3fbb18e51f22c4dc	0.10584861765052572
22	0x3fa2dbe2fce67fb1	0.036833852168683186
23	0xbf7af0f1d1533913	-0.006577438926980389
24	0x3facf9c17d5f2152	0.05659298568167749
25	0xbfa7ddb0d75e13cd	-0.0466132414722221
26	0x3fb9705ba596d74d	0.09937069695191987
27	0x3fc2a46b250829b4	0.1456426554507978
28	0x3fbe52f7e7a5e0a4	0.11845349698512792
29	0x3fb6c308fed876cd	0.08891350004020211
30	0xbfb2017ee40896e3	-0.07033532206750297
31	0xbfb5c19735150e8e	-0.0849852089495988
32	0x3fbcc55e9668c5c3	0.11238661930180797
33	0xbfc24818a14608f8	-0.14282520174680946
34	0x3fa2c1a5ddacb6f2	0.036633666334052864
35	0xbfae2d1a9fcd696f	-0.058937866217734995
36	0xbfa409090e4180f5	-0.039131434431284896
37	0x3fc1f4d283f134df	0.14028388445368642
38	0xbfa727ccbb7add4c	-0.0452255228860233
39	0xbfbda3719563c1b2	-0.11577520272454114
40	0x3fb7839f0a1c5b15	0.09185213085980266
41	0xbf9462f3c393bb6f	-0.019908722698285638
42	0xbf680c06fbcc0631	-0.00293542255383341
43	0x3fb1300bfac7c3a5	0.06713938591543796
44	0xbf983efbe4d4414d	-0.023677764741536312
45	0xbfc43d7d13c45aeb	-0.15812648263155124
46	0xbfb6aa58f7a9fb0f	-0.08853679701313076
47	0xbfb68e7226229ded	-0.08811105185542774
48	0xbf86bde3ba91bfac	-0.01110437310327924
49	0xbfba410a86d35142	-0.10255494872700857
50	0xbfb653e91652ea82	-0.08721787257210603
51	0xbfbd0c5c13115f0d	-0.11346984353565066
52	0x3f7fb0e1ac776352	0.007737046754720494
53	0xbfb002609ec51b83	-0.06253627659053333
54	0xbfbcfaf51ba9cf7c	-0.11320430684446409
55	0xbfc193fa1c7f5394	-0.13732839957688425
56	0xbf9b23d18bb2d2a1	-0.026503824378510846
57	0x3fb98b8aa94655fb	0.09978548653301537
58	0xbf98d0df9a5f6968	-0.024234288975870127
59	0xbfc0c9c003b84d72	-0.13115692311894694
60	0x3fb3a613caa93032	0.07675288865829158
61	0x3fc3664e3acba9ac	0.15155961867215006
62	0xbf859bdd0160ff9d	-0.01055119190652914
63	0xbfa622e5135242c3	-0.04323497639518827
64	0x3fc2656886847747	0.1437197357963049
65	0x3fb7229f2500fbbb	0.09037203458227243
66	0x3fc36877ee0545ae	0.15162562486743297
67	0xbf9a96077b2667a2	-0.025962941066246643
68	0x3fb5eed27400eb96	0.08567538578146947
69	0x3fc3aea0bb6b5915	0.15376671935400368
70	0xbfa691dbf76abbf9	-0.04408156771875577
71	0x3fac7896e7522021	0.05560752462139385
72	0xbfc1227ca587fa4d	-0.13386495668960877
73	0x3fbae2e8ace249ae	0.10502485485839116
74	0xbfbf5f0bf2cec329	-0.12254404714509505
75	0x3fa8b4430a388e11	0.048250288961096406
76	0x3fb1b6442016cb11	0.06918741019653064
77	0x3fbba255682da1a7	0.10794576447881941
78	0x3fc1668f09319ed1	0.1359423441783663
79	0x3fbc489966bfe3f3	0.11048277624639961
80	0xbfa4044317ab60df	-0.03909501708921125
81	0xbfae76ede28a1feb	-0.05950110807776795
82	0xbf8750ed4c230222	-0.011384824644097572
83	0xbfb51b628276e1e8	-0.08244910893598212
84	0xbfb55faa684a5ab2	-0.08349099203256108
85	0xbfc22ee35c4e59bf	-0.14205591208583532
86	0x3fa140ebf9b73d8e	0.03369843886650435
87	0xbfad6959fa19863c	-0.057444392947911344
88	0xbfbb9cc5fee45eb9	-0.10786092255545555
89	0x3fb4581cd4c2bf6c	0.0794694919047722
90	0xbfb7eea5d4b15ab2	-0.09348522608466217
91	0xbfbe52eb7ea7572e	-0.11845275728350366
92	0xbf96f7170063ea40	-0.022426947974034883
93	0xbfb721278e5eba37	-0.09034964776831421
94	0xbfc07e1f2a5fcb7f	-0.12884893006375006
95	0x3fbabf8215cf33b5	0.10448468239265092
96	0x3fafc19e102b0e8c	0.06202405879369363
97	0x3fa24e0d879ec95e	0.03575174599190477
98	0xbf7d46c11198b4a6	-0.007147554564238911
99	0xbfbc5d0cac292971	-0.11079482272285703
100	0xbfc3ee8aa98f0731	-0.15571721343263215
101	0x3fa66b93186cbffd	0.04378947899965622
102	0xbfbb3ae5185e93fb	-0.10636741490323225
103	0x3f961732c7a8c2b0	0.021572869716865284
104	0x3fa8e053774f9355	0.04858647185736823
105	0x3f95051314d6e1e4	0.020527170321402624
106	0xbf9c4e2838772929	-0.02764189571988954
107	0xbfb7cc6d083a27f1	-0.09296304179056826
108	0x3fa29837b3965cd5	0.036317578003200936
109	0xbfc00478a47286bf	-0.12513645200401943
110	0xbf9f772a2ec7bfc5	-0.030728015046349606
111	0xbfa79dca30c13740	-0.046125715686328395
112	0x3fb1f29429bf3512	0.07010770816051018
113	0xbfb6bab9f03239f5	-0.08878671754994356
114	0x3fa2d829b4e53775	0.03680544217296148
115	0xbfb2b3cf7837d29d	-0.0730561893941037
116	0x3fb6a580081e480c	0.0884628314800297
117	0x3fc1291277e3bb76	0.1340659222982727
118	0x3fa4517f4f417cdc	0.039684275078565284
119	0x3fa45d1a3bfff844	0.0397728155366939
120	0xbfac6540ab90b2d2	-0.05545999616911036
121	0x3fbfd0094659e671	0.12426813094671176
122	0xbf69c56464b39254	-0.003145881729880432
123	0x3fa98d8c7a558839	0.049908056195605295
124	0x3fa6bfd03ddfc8ef	0.04443217044162561
125	0x3fc277421ac101f3	0.14426447206825763
126	0x3f71a2f0b1162151	0.004305782510876392
127	0xbfb590e757936d61	-0.08424230468829343
128	0xbfadb28eec8d2b89	-0.058002916694554214
129	0x3fb1c555a141532c	0.06941733538526468
130	0x3fbdb3a2484bb7bb	0.1160222460273123
131	0x3fb00f07b9d72e98	0.0627293423378269
132	0x3f474f6e0e83c3bb	0.0007113730798932108
133	0x3fb695b28ea75df0	0.08822170241125327
134	0x3f9e09670466381e	0.029332742351066192
135	0x3fb461f4e64ea2d0	0.07961969969495475
136	0x3fb024ec0daf217a	0.06306338628849587
137	0xbfbe238ad9b7b00a	-0.11772983374947912
138	0xbfc3e25786820958	-0.15534490649958843
139	0x3fbe9322fdc327ec	0.119432627633756
140	0x3fb18939636d22cd	0.06850012471580698
141	0xbfb1c61c1b39d300	-0.06942916550344691
142	0x3fb209b410afc0c4	0.07046056182275878
143	0xbfb9c3890bf06a48	-0.10063988248331512
144	0xbfc0da5ea0d2921b	-0.13166411259329966
145	0xbfa9408f99a9069a	-0.04932068587050971
146	0xbfc574e13e1952c2	-0.1676293900697115
147	0xbfbd4bc59fb841a9	-0.11443743848236089
148	0xbfb6c0e693c67d63	-0.08888093097492837
149	0x3fa958a883f9020c	0.04950453387255402
150	0xbf9ace92920cbdf1	-0.02617863670746873
151	0xbfc19997392d3d96	-0.13749971668083266
152	0x3f968d6cbec6b87a	0.02202386774450147
153	0xbfbd950b52a10f51	-0.11555548446000087
154	0x3f9d90c715eb040a	0.028872595513124856
155	0xbfa3ce60752d0fbb	-0.038683904937470946
156	0xbf9757f5b381f4fa	-0.022796477395321958
157	0xbf9f91783b71c9a5	-0.030828360202983202
158	0x3fb00ea002c667a3	0.06272316043614849
159	0x3fa1bffd72796c95	0.034667892669596835
160	0x3f6c40c3e1e3e4ef	0.003448851187496708
161	0x3fbf27c328c3385a	0.12170047516994612
162	0x3fbaeaecf2a46843	0.1051471798313353
163	0x3fbdd891e3707443	0.11658584406582499
164	0xbf7da2eb9e5d5c5f	-0.007235451111987506
165	0xbf84504612bf7e0a	-0.009918734976905891
166	0x3f4c93286de4ad56	0.0008720347794101506
167	0xbfc2c3b921be853f	-0.14659799716631913
168	0x3f7709df63c38fc7	0.0056246496353402125
169	0xbfb875c379b27555	-0.09554692956085849
170	0x3fc1c8f9998771da	0.13894577023064764
171	0xbfc330b18f16f520	-0.14992351042557406
172	0x3fb158936331b5fd	0.0677578084157275
173	0xbfb4f99b68210d26	-0.08193370144094966
174	0x3fa41d44ccbff6b9	0.03928580283534928
175	0xbfbb57c50b7945f0	-0.10680800943489266
176	0x3fa904ef25cf98d0	0.04886576973494672
177	0x3f95ec8d8bb7c63b	0.021410190251066146
178	0x3fb1b820c46cfc9e	0.06921582027006187
179	0xbfb4fff7b5946573	-0.08203075583550916
180	0x3fc1cc13d9e06c47	0.1390404523707238
181	0x3fa87521d3382f01	0.0477686472259773
182	0x3fb858c171801271	0.09510430356028522
183	0x3fb36d9bed4d8eb0	0.07589125197915325
184	0xbf7e8df17c724ce4	-0.007459586434509922
185	0xbfbe4a4d6d8469ce	-0.11832126544724206
186	0x3fb77ca04766436d	0.09174539321089777
187	0x3fc00d4bbca09770	0.12540575704877766
188	0xbfbd680846e5aeb7	-0.11486865740669826
189	0xbf942ea09bd1966e	-0.019709119329851914
190	0xbfb3f836c30e997a	-0.07800619375357157
191	0x3fb921e610eb1d15	0.09817350304648571
192	0xbf8b15c44324d763	-0.013225110339231077
193	0xbfc0a2aa6a07308f	-0.12996416260864804
194	0x3fb23e560dcb2a6a	0.07126367413290216
195	0x3fc421a9419c4061	0.15727725700026254
196	0xbfbcb18b40f7ea25	-0.11208410583632451
197	0xbfc08a31114ae9fe	-0.1292172750889477
198	0xbfb66097c0ef3553	-0.08741138897240334
199	0xbfc1673f7ce1981f	-0.13596337888446983
200	0x3fb5bc2013ea5859	0.08490181432930068
201	0xbfb68720e96275d0	-0.08799939821115932
202	0xbf98433400d5eb7e	-0.023693859625818707
203	0xbfb39424ac5d290f	-0.0764792366800615
204	0xbfb96171ab9f7aa7	-0.09914312782300759
205	0xbfaee1f63cde8891	-0.060317702226954435
206	0x3fa187f3e1e95a74	0.03424036152562318
207	0xbf93fe97c32e23bc	-0.019525882041793827
208	0xbfc04bd2136192ff	-0.12731386133523157
209	0xbfb0e657acc58910	-0.06601474731499857
210	0x3f9ddbb7f2daeab6	0.029158472249700217
211	0x3fbbaa01eb54a0c4	0.10806285853743974
212	0xbfa25959bfdea07e	-0.03583794085653923
213	0xbfb164a984ab1958	-0.06794223298047564
214	0xbfbd2f6269b05195	-0.11400427894870398
215	0x3fa9c929062ab4ec	0.05036285591391185
216	0x3f9c676d752362fa	0.02773829486327182
217	0xbf9e9c754455f66a	-0.029893715186963744
218	0x3fbd19a6dc612714	0.11367266540869664
219	0xbfa388858db0c444	-0.03815095286007211
220	0xbfbb1f25a0924153	-0.10594401521871548
221	0x3fad6bc48431aef0	0.05746282685944759
222	0x3fc03ed1de652e4d	0.1269171081461188
223	0x3fa5f72be496ac6b	0.042901393560293176
224	0xbfb4abd904f94434	-0.08074718829563282
225	0x3f9fbe0945b87f23	0.030998368149197774
226	0xbfa71706ad58dcb3	-0.04509755006841356
227	0x3fb46fe509ca37c4	0.0798323773289829
228	0xbfb2f65e498fc409	-0.07407178207337507
229	0x3fae1411580f45e8	0.0587468547815993
230	0x3fa232c5d991b491	0.03554361611245683
231	0xbfbee93368e3fa88	-0.12074586211017835
232	0x3f850aa9d2a77351	0.010274245015290314
233	0x3fb362f404d72e0f	0.07572865598847776
234	0x3fbdef1930dabeac	0.11692960207687503
235	0x3fc1084d79b009a9	0.13306587640552195
236	0x3f96b76240c9be29	0.022183928684567675
237	0x3fc3d74f40e1d4b3	0.15500822704385583
238	0x3fb83a679bb8471f	0.09464118530038633
239	0xbfc3bfd295575a1b	-0.1542914609151048
240	0xbf9412631928cb02	-0.019601391230206218
241	0x3fa92a02bee9cc2c	0.04914864140018724
242	0x3fb81f103f660f53	0.09422399089640736
243	0xbfc1ce3f6c81a79b	-0.13910668180625127
244	0xbfa048eae7a19f1e	-0.031806317115125035
245	0xbfbe0a6c72e92017	-0.11734655194698039
246	0xbfb92d0d5d4f536d	-0.09834369209359091
247	0xbfb4cc77c9482208	-0.08124493278604217
248	0xbfbd22a46286a969	-0.1138098469297454
249	0x3fc23ba41eb52836	0.14244510173222275
250	0x3fb7c159b2573f0a	0.09279404262565208
251	0xbfab3e2866d33f6c	-0.053208601524260185
252	0x3fb0007d70cf18c1	0.06250747684598236
253	0x3fb2d176d2630a46	0.07350866924665764
254	0x3fb63fb2ac981603	0.08690945352289962
255	0x3fb1fefe0ef55f1c	0.07029712548444106

linear.4.bias f8 [128]
0	0x3fa5b61c1ac0604c	0.04240501238399527
1	0xbfb2ffa7df33932b	-0.0742134971547556
2	0x3f9fc1d26b65f4a2	0.03101280956751807
3	0x3fab23b1b71a0ab8	0.05300670013550274
4	0xbfb4ea4287342a58	-0.08169952202676123
5	0x3fb34270c48f9b40	0.0752325515637553
6	0x3f9611348d40679c	0.021550007935821833
7	0x3fa02a9ea8e73081	0.03157516300015662
8	0xbfb37db9e45cc6e6	-0.07613717866186284
9	0x3fac34b96c3756c7	0.05508975454328673
10	0x3fb651a0569f3f06	0.08718301882549548
11	0xbf8c0258a5fe338e	-0.013676350179389531
12	0xbfa4ac1b3dfb2084	-0.040375567737613444
13	0xbfb48be8380d7a2c	-0.08025981300804891
14	0xbfa8ad804603bd87	-0.04819870810194531
15	0x3fa78581deb55d9a	0.04594045489892125
16	0x3fa843e6cf0a4868	0.04739304807039063
17	0xbf9f6639a6301819	-0.03066339566068885
18	0x3faba0ab765b229c	0.05396018810057976
19	0xbfa9aed84a229146	-0.050162085580526525
20	0xbf60abe6584f4326	-0.0020350932049740976
21	0x3fb131293e1706d5	0.06715638891094085
22	0xbf9021ca4494178b	-0.01575389903611994
23	0x3f763931b534e020	0.005425638362162061
24	0x3f79db08de7f0a87	0.006312403340361989
25	0x3f4c0969033cb7ae	0.0008556139714295163
26	0x3fa60228e82e5938	0.042985227911389534
27	0xbf8e78f618310858	-0.014879152882830635
28	0xbf942e9e7c40501d	-0.0197090876900604
29	0xbfa524836c92a474	-0.041294199946897786
30	0xbfa8d7b76e8d6ebf	-0.0485207865192172
31	0x3fa6da83c2c877fd	0.044635884787780335
32	0xbf959bf8ac3c3f34	-0.021102796089564183
33	0xbf862ab229bf887d	-0.010823623560956225
34	0x3fac9c98134fbb66	0.05588221774802697
35	0x3f844b54b89c90f6	0.009909307369135405
36	0x3fbc230f72f9afac	0.1099099784566408
37	0xbf3f64f50e93cb99	-0.0004790399821807345
38	0xbfa145679dae1fd8	-0.033732641218250314
39	0xbf91126420d9d825	-0.016671719079077846
40	0x3fabdccc5f881d62	0.0544189325919955
41	0xbf91f6c8e35c9b84	-0.01754297149377805
42	0xbfa6066f8bafb50a	-0.043017850686604645
43	0x3fa21fea8b1913db	0.03539975116704116
44	0xbfa7751aad666566	-0.045815309206953356
45	0xbfb2566af0327f62	-0.07163112987700296
46	0xbf9fd4f8c5996264	-0.031085860310073335
47	0x3fb8733a8cf0b7f6	0.09550825062680687
48	0xbf9ab3b6f03ae78b	-0.0260761818051161
49	0x3fa632c352f83fb1	0.04335604083837497
50	0x3fabfa628b64943e	0.054644660487874294
51	0x3faa4f4b06d8eb05	0.051386208139282664
52	0x3f8f44673504ca85	0.015267187409880431
53	0xbf943e878750adb0	-0.019769780763608302
54	0x3f939f18bf7a336c	0.019161593138551522
55	0xbfa1fd04a6cb4053	-0.0351335004430672
56	0x3f55975a1ed40383	0.0013178234178783117
57	0x3fafcbb4a37d4c0c	0.0621010255405495
58	0x3fb0da786ad0945c	0.06583359344274825
59	0xbfbb3e17f27cf15e	-0.10641622228735545
60	0xbf89187ec350d64f	-0.01225375207477977
61	0x3fb1b6633683c2a3	0.06918926316189782
62	0xbf9094787eec8c29	-0.01619137072260571
63	0x3fa4144e42b5d543	0.03921742023787058
64	0x3f8284265077029f	0.009041117983430267
65	0x3f913c8bdef3c9ef	0.016832528574875324
66	0xbf8ff3219a224dd1	-0.015600454822822936
67	0xbf9528a24a2c2ab5	-0.020662818696147684
68	0x3fb48f456047b6c9	0.0803111419733923
69	0x3f96da66040d5023	0.0223174991582057
70	0x3fa40cb68798a2b4	0.03915949254252862
71	0x3fb8743b5d9bdf14	0.09552355800030582
72	0x3fb0ace6bd8a19eb	0.06513826491764234
73	0x3fbac90924234b2b	0.10463006145736801
74	0x3fadd28b28431065	0.05824694506148446
75	0x3fb33d572772cb22	0.07515473092170713
76	0x3fb2f1c268b6ed5b	0.07400145584590716
77	0x3f8c29dfa0782049	0.013751742443688058
78	0x3fa5c6012645c3d7	0.042526279375017566
79	0xbf80bc19cc13f102	-0.008171273746932165
80	0x3f6333f20b3c3f55	0.002344105474442341
81	0x3fa6c622fb9f0752	0.04448041268871229
82	0x3fb2fd85e070f01b	0.07418095330734824
83	0x3fa53a74af6c725d	0.041461607374206656
84	0xbfaad37eb6cede0a	-0.05239482862037555
85	0x3f91e3aa6ca996e3	0.017470038301687373
86	0x3f851ea5a9553299	0.010312360983016066
87	0x3fac3e11c80659cf	0.05516105238637047
88	0x3fb5c249d3e87cb2	0.08499585555590519
89	0x3f9969ef412a1cbf	0.02481817088348914
90	0xbf6b7d9315fe970a	-0.0033557770511433204
91	0x3f9675070559beea	0.02193079919965061
92	0xbf62d407e644cc00	-0.002298369816480683
93	0x3fb2c1035a5c927d	0.0732576461419487
94	0xbf98beb8673519d1	-0.024165040301591226
95	0x3f735adca39aac72	0.004725324508096583
96	0x3f5c4a6773224d92	0.001726723694933739
97	0x3f8e4f55307fd1e3	0.014799752752858225
98	0x3fa292ea49c502f6	0.0362771239329102
99	0xbf8c9a958a3a27ec	-0.013966720848902235
100	0xbf9034055d89ef01	-0.015823444208293406
101	0xbfbcb1f1b7f4e53d	-0.11209021321419228
102	0x3f6ac8c9a85d1b6e	0.003269571173322764
103	0xbfb4c3c5987a4aa3	-0.0811122414836896
104	0xbfb5ba6dfc9050d7	-0.08487594047648216
105	0x3f886a1aae36d456	0.01192112774047353
106	0x3f8e4fdb19878bce	0.014800750462148484
107	0xbf7b240e68325224	-0.006626182820714397
108	0xbfb21aad46bd8abd	-0.0707195565897036
109	0xbf92dcf8876aea71	-0.018421061768757633
110	0x3fa329c867f41a8f	0.03742815274204247
111	0x3f84f9d98c292173	0.010242175664772124
112	0x3f96aded43092962	0.022147853104152466
113	0xbf8b9fc0c1efb5e4	-0.013488298338383005
114	0xbfa547286bd44c33	-0.04155851665759549
115	0x3fad8a1a3bb48f32	0.05769426325630746
116	0x3fa7214ed5701c6d	0.04517599444812324
117	0xbf7b7cd43dc18738	-0.006710843150445282
118	0x3f3d4765f386a3db	0.0004467605499721119
119	0xbfb4f492dfda369d	-0.08185689892908461
120	0xbfa2119d780832cd	-0.035290642645212957
121	0xbf9b431f7d4cc6cf	-0.026623241446208475
122	0x3fa2ca8991c3cb3a	0.036701487582738015
123	0x3f83645bc2df7750	0.009468762287663829
124	0x3f83e09374337cc2	0.009705688460995513
125	0x3faa4e035e17420b	0.05137644313402142
126	0xbfa02136412c7687	-0.031503386932155535
127	0xbfa0555fb59b9a62	-0.03190135089771641
