run/pinn_model.pt (torch, 275748 bytes, 8 tensors)

linear.0.weight f8 [128, 3]
000000 c8 61 75 22 de 42 c3 3f 11 c2 03 b9 68 26 dc bf
       0.15047814066453058 -0.43984430377807465
000010 20 a4 c5 7b 24 2d c8 bf fa 21 56 9d 90 4f e4 bf
       -0.18887764018589426 -0.6347125123002677
000020 b1 11 16 b2 d1 cf da bf 12 f2 39 41 a2 ba e7 bf
       -0.41893427268248745 -0.7415324472381732
000030 76 db 18 84 a5 c2 d4 3f 87 2e 57 07 0e 2f c1 3f
       0.3243802824030618 0.1342484985201404
000040 84 e4 5a 89 d5 56 ec bf 19 42 73 71 9f 84 f0 3f
       -0.8855998690334137 1.0323786193513398
000050 6d bb 29 5f d3 53 cc bf b5 5b 65 41 8b 69 f0 bf
       -0.22130815645820281 -1.0257675699738062
000060 d6 b2 24 75 fb 40 e0 bf fb 1e a7 47 5b b4 e2 3f
       -0.5079324043232087 0.5845161818951675
000070 a4 30 af 53 7f 77 d7 3f f2 6c da a5 10 e6 c4 bf
       0.3666685406904071 -0.163271027548809
000080 eb 8d 65 38 f3 71 bc bf f5 1e fa 7a 51 76 ea bf
       -0.11111374022362212 -0.8269431497473919
000090 57 3e f5 b6 6e 36 d6 3f 71 7a ab 65 b5 e5 c5 bf
       0.34707229487410046 -0.1710726496157409
0000a0 63 ad 73 81 95 63 f3 bf 43 66 a7 ac a7 46 e5 bf
       -1.2118125015939192 -0.664874875273377
0000b0 fc e6 a7 11 61 95 d1 bf d3 ba fa 4b 98 76 ca 3f
       -0.27474238132673157 0.20674422941143308
0000c0 02 a5 aa 8c 25 6b c3 3f a4 70 eb db 9a 57 c7 3f
       0.15170735710606925 0.1823609899355506
0000d0 02 0f de 51 d7 32 cb 3f 8a ab 6f 96 fd 79 d0 bf
       0.21248904702598997 -0.25744571391140225
0000e0 41 4c cf a7 61 9d b7 bf 1f 4f f9 8f 23 c1 f2 3f
       -0.09224520060460951 1.1721530555705113
0000f0 f6 0f 2f 50 8b 80 e2 3f b1 3a ba 8c f1 3a c6 bf
       0.5781914297190258 -0.17367381450136102
000100 5a 41 d2 7b f2 84 a8 3f 3c c5 dd ec 14 fb cf bf
       0.04788930665484044 -0.2498499065946279
000110 ba d3 ec a7 7b 04 dc bf a6 4e 89 4c 9f 70 f1 3f
       -0.43777362250267127 1.0899956693364543
000120 87 0d f8 17 18 c1 da bf 70 61 53 c6 5c a2 c8 3f
       -0.41803552952497863 0.19245490726349201
000130 84 64 c6 ec e4 27 c1 3f 48 87 fb 5f 8c 4d eb 3f
       0.1340299755218305 0.8532163500460479
000140 b7 95 d3 a5 91 98 e7 bf c8 e2 96 99 ee 49 f7 bf
       -0.7373741377638713 -1.4555498122773987
000150 5a d3 f7 c2 ed 83 d3 bf e2 ec 5d ed 63 36 c1 3f
       -0.3049272922501608 0.1344723614709898
000160 ef 18 9a 24 26 03 d3 3f e3 10 8c ec cf 27 e2 3f
       0.2970671994629716 0.5673598880826173
000170 98 5c 1c 62 31 77 e1 bf c4 b0 64 eb 8a 66 e7 bf
       -0.5457999149538351 -0.7312674138570618
000180 9f 2c ac b8 b3 5b d6 3f 0e 81 8a 3b b2 3e d3 3f
       0.34934704813412937 0.30070167364648703
000190 b8 90 42 6e 0a db d4 3f f9 e5 a0 7c 54 22 e2 bf
       0.3258691860921874 -0.566690677084977
0001a0 b8 89 b7 01 2c a3 dc bf 4c e3 98 a3 9a eb d5 3f
       -0.44745922248526027 0.34250513054171416
0001b0 41 51 84 22 6b e7 f9 bf 61 26 3e a8 dd ed d5 bf
       -1.6189986561121972 -0.34264317922552406
0001c0 e9 7f af ef 16 a4 f0 3f c5 4a 7b ab 8c 41 e3 bf
       1.0400609362331983 -0.6017516469240368
0001d0 b5 8e 81 56 25 c4 b0 3f 82 36 74 41 c6 7b eb bf
       0.06549294816937386 -0.8588591841123192
0001e0 c3 6c 6a ac 7c 69 e4 bf 35 fb 5c 52 b1 c8 b7 bf
       -0.6378768317694256 -0.092906077011304
0001f0 0e d9 fe e9 01 a5 f0 3f f2 a8 b8 9a 97 d9 e9 3f
       1.0402850285004805 0.8078115484143196
000200 e4 cb e2 f0 e7 88 90 3f fb fd 5f 02 1f 56 d9 bf
       0.01614725501776694 -0.39588141662531456
000210 da a5 2b a7 a0 07 e1 3f 82 7a 61 79 8b 53 af bf
       0.5321810975121324 -0.06118427139948769
000220 c4 35 c0 19 f5 95 c7 bf f0 76 51 a1 60 8e ef 3f
       -0.18426383740772512 0.9861300612207895
000230 ea 26 97 7d 15 12 e7 bf 42 35 b4 bc 23 b2 bb 3f
       -0.7209575131357415 0.1081869445517514
000240 f1 9f 7d f3 c7 8e f2 bf 4f da 03 d9 c3 27 c9 bf
       -1.1598586570125884 -0.1965260324138449
000250 60 e6 69 6b a6 db f2 3f 94 6f ba c5 ff 18 91 bf
       1.1786255069586318 -0.016696926539779236
000260 1d 56 6b 39 4b af 9f bf 6e f8 8f c8 81 86 c9 bf
       -0.030942130450816053 -0.1994173268612402
000270 32 51 ca 01 38 25 ea 3f d5 cb 09 03 bc f0 cc bf
       0.8170433077780557 -0.22609663151123863
000280 6b 90 b0 aa b8 93 e0 bf 7c b3 5a e9 4a 9d e3 3f
       -0.5180323919089579 0.6129507596684642
000290 84 d9 42 80 66 a8 de 3f 6d d3 37 35 f9 cb 98 bf
       0.4790283443975556 -0.024215597031758507
0002a0 11 92 cd 60 1c 4a e1 bf 9f 42 f8 17 a1 b6 e6 3f
       -0.5402967348750868 0.7097936123046401
0002b0 f0 69 06 cb 0a 4c dc 3f 38 60 d3 82 f0 93 c2 3f
       0.442141245142607 0.14513975513432498
0002c0 f2 3a df 22 5b 4d ea 3f d0 dc 0d 5c 4b 1f 9d bf
       0.8219428711980454 -0.028439691060580696
0002d0 2a d3 d0 6e 6a fa d0 3f ed 68 9b f2 fc 8a b8 bf
       0.2652841646370684 -0.09587078974746861
0002e0 ca e4 96 56 ae f6 e9 bf 7a 14 ad 2d 56 d1 bc bf
       -0.8113624278259064 -0.11256922354830748
0002f0 f0 ef 9c 27 68 6b d8 bf 70 4a 30 5b a8 b9 e5 3f
       -0.3815555941434914 0.6789132863071483
000300 39 87 b8 1a 40 29 ef 3f 3d 2f 3d fd 47 e5 dc bf
       0.9737854501620183 -0.4514942143475656
000310 8f 62 3d 93 3b c8 e0 bf e6 3b 51 91 28 60 ea bf
       -0.5244424701478055 -0.8242380941609297
000320 0e b9 96 d4 f5 2d d6 3f dd d4 79 6e 00 08 d3 bf
       0.3465551925718423 -0.2973633841387036
000330 f9 f6 f2 fc f8 48 f8 bf 16 4d c6 d1 02 a3 c2 3f
       -1.5178155785392262 0.14559970133687078
000340 dc fb 76 ac 8b a1 ef 3f 5c f2 fc 34 d9 87 b6 3f
       0.9884699219181772 0.08801038306860093
000350 24 ac 4a 5e 86 75 b9 3f 24 d3 bc e5 da 1b e9 bf
       0.09944953729670708 -0.7846502768576085
000360 71 19 b2 c6 d5 26 ed bf d6 c5 fc c3 be 6c a0 bf
       -0.9109906082892804 -0.03207965986656418
000370 fb ea d9 4b d8 e7 d0 3f 40 48 9f 6a ef 74 e9 3f
       0.2641506901488097 0.7955243189301271
000380 28 97 f0 0e 21 00 c3 bf 7a b7 10 a6 70 02 e1 3f
       -0.14844144086344468 0.5315478557074436
000390 10 c8 bc d9 0e 8f b7 3f a6 fb b3 9a 03 50 ab 3f
       0.0920266419969098 0.05334483397927352
0003a0 8f 80 99 12 ab b5 e3 bf e0 ab b2 d3 5b 36 de 3f
       -0.6159263003610408 0.4720677916872642
0003b0 10 2b a2 0d ba 25 d1 3f 86 b5 76 56 7a bb 95 3f
       0.2679276593341209 0.021222983863187682
0003c0 7a 88 61 39 a5 99 df 3f d5 99 dd 7c 27 1e c8 bf
       0.4937527714120119 -0.1884202346511318
0003d0 34 1d 9a ad f8 fd dd 3f 09 c7 5e 3b 42 98 fb 3f
       0.46862618401833633 1.7246725386762043
0003e0 f4 b7 5c 68 63 ee 9f bf 30 0a 6c c5 ec 23 f1 bf
       -0.031182816738855437 -1.0712707244680466
0003f0 c3 29 d2 7f a5 ac df 3f af 08 33 ec 64 96 ea 3f
       0.49491250498308775 0.8308586705463962
000400 16 a8 34 a4 27 87 ef bf 50 1a 48 02 15 47 d0 3f
       -0.9852483946936015 0.2543385050088647
000410 cb b5 8d d9 af e6 dd bf ef f9 f1 61 61 60 e0 bf
       -0.4672050118013799 -0.5117651856415345
000420 4b 14 19 ac 46 59 fb 3f a5 9c 39 4e 22 d3 dd bf
       1.7092959139420312 -0.4660115970531911
000430 b1 ab cc d9 a1 b5 d1 bf 29 b8 df 32 ba a3 bb 3f
       -0.2767109515140716 0.10796703092611949
000440 46 97 8a b4 6c ff de 3f cc e4 0c 4d 69 74 e0 bf
       0.4843398821925472 -0.5142103676691021
000450 7c 36 90 6c a7 8b 96 bf ef 89 e2 f0 36 36 cd bf
       -0.022017112733058827 -0.22821699869116638
000460 eb cd a6 61 e5 43 df bf e2 79 fb c7 3f 51 d8 bf
       -0.48851904426848475 -0.3799590542747905
000470 46 17 6c f5 50 e4 d1 3f 64 f3 b6 54 2f ea db 3f
       0.27956031767859135 0.436168511132385
000480 33 79 44 e8 85 eb d1 bf 11 33 5f f2 e5 46 dc 3f
       -0.2800001877057127 0.441827284518511
000490 b5 5b 98 68 f3 73 e8 3f 0e 77 92 90 d4 a5 ea 3f
       0.7641541521905909 0.8327429603266141
0004a0 74 cf 10 44 31 55 cb 3f 2f 97 43 02 be b8 c9 bf
       0.2135373670913584 -0.20095038519428374
0004b0 1c 9e 9b 07 9a 6f e0 3f 77 80 d2 9e f2 4b cc bf
       0.5136232517806465 -0.22106774096483026
0004c0 1c 8e e4 8b 8f d2 e2 bf cc 51 46 b3 c1 ca e9 3f
       -0.5882032139092561 0.8060005666216568
0004d0 5e c8 04 d5 ec c4 d0 bf c8 06 53 80 82 4e f5 bf
       -0.26201935579877567 -1.3316674244564854
0004e0 d2 22 9c 9f 70 82 d4 3f ec ee 17 d8 94 ac 91 bf
       0.32046142184166826 -0.017259908379840747
0004f0 ff 31 fc f6 e5 d9 ac bf a5 33 06 8e 2f 81 d9 bf
       -0.056349932097962345 -0.39850987309983515
000500 5e 0f 07 c3 15 f3 79 bf f3 31 91 14 f1 5d e1 3f
       -0.006335339553007772 0.5427174951269634
000510 c5 87 19 c1 81 bf e6 bf c7 0b be 19 92 d9 de 3f
       -0.7108773013571797 0.48202946199324653
000520 9b 20 1e 68 a9 07 e1 bf 17 7c 74 73 cb a2 f0 3f
       -0.5321852716015373 1.0397448072396906
000530 41 12 23 f9 57 47 d3 3f 0e 5c d1 4a cf 4c d1 3f
       0.3012294705370416 0.2703130942003903
000540 2c bd 70 3f 29 30 dc bf 6d b2 9c e3 4c 19 e1 3f
       -0.4404395217452073 0.5343384213970929
000550 bb d7 d7 91 07 ae c4 3f b1 54 bf ba 55 10 e3 bf
       0.1615609609722791 -0.59574400400256
000560 d8 7f c1 15 c3 27 e6 3f 06 f3 5a 7e 24 ea a1 3f
       0.6923537659567911 0.034989490913607965
000570 68 6e 20 a0 67 10 d1 3f 64 42 ec b0 5e ce e2 bf
       0.2666262687432437 -0.5876916366124303
000580 a2 cc 3b 22 3d 77 e7 bf 48 4f 07 9b a7 ba f5 bf
       -0.733305518019183 -1.3580699973872061
000590 5e 36 9f c4 3a 36 b8 bf 07 8e 8a aa fc f6 f5 3f
       -0.09457747745838094 1.3727995549933227
0005a0 54 56 8a 82 91 1a f1 3f 97 ef 56 39 c8 f2 d8 3f
       1.0689864253266892 0.389818244929978
0005b0 15 0d 83 ef ad 08 dd 3f 5b 63 4a e7 2e 7f cf 3f
       0.45365475072704103 0.24606882375226288
0005c0 76 fe 09 9d aa 98 87 3f 78 a3 4b e9 6c 89 c6 bf
       0.011521656911326544 -0.17606889144306215
0005d0 f3 8a e2 d0 c7 bc e2 3f 95 86 af 6a a0 02 a1 bf
       0.5855444984229891 -0.0332231645804885
0005e0 07 d4 e6 66 16 b3 de 3f e3 0e 57 3c 4c f3 c7 bf
       0.47968063401214106 -0.18711235948841595
0005f0 05 56 f3 d5 46 b5 c5 3f 1e 49 1c 59 e5 9d f0 3f
       0.16959462591937338 1.0385488015059035
000600 5b a4 b8 bc ad b5 d9 bf e0 8b 7b f9 68 ab c5 bf
       -0.40171378545580233 -0.1692935197998784
000610 97 5a 8b d2 4e 66 e6 bf a2 e7 a9 88 b4 72 da bf
       -0.699988757342754 -0.41325105043471855
000620 af 1b 8a 14 5d f1 b8 bf 43 35 14 64 43 cc cd bf
       -0.0974329161782481 -0.23279611956278687
000630 04 ab f5 36 8b 17 e5 3f 39 16 2c 57 5b f0 c4 3f
       0.6591239999227985 0.16358510738807455
000640 05 3b 8c 14 3d f7 ea bf 94 43 d1 74 e8 c4 a8 3f
       -0.8426804925273649 0.048377289066258516
000650 a1 bb 0d fd a2 eb e9 3f b9 fe ad e4 29 5d db 3f
       0.8100142424062718 0.42756125766753034
000660 ff 30 a3 dc 35 c8 f2 3f 59 90 83 4e b8 ad d0 bf
       1.1738794916773825 -0.26060302417159203
000670 62 6f 47 32 6d 3b eb bf 5c 3f 8d 1a 26 c4 b2 3f
       -0.8510042173397603 0.07330549381481205
000680 68 14 5b 73 55 e0 ca bf 77 95 ec 29 3e c8 ac 3f
       -0.2099711240063329 0.05621523153085211
000690 b2 0e 5a 45 8d aa da 3f 52 b4 bd ea a9 9d e4 3f
       0.4166596581710379 0.6442460617814822
0006a0 fe a9 75 7d 9c 9e d3 bf 70 b2 f1 2b 3a 10 e4 3f
       -0.3065558648292209 0.6269808634074945
0006b0 4e 54 06 96 68 05 ce bf c7 88 2c 8e 3e 20 69 bf
       -0.23454005551744433 -0.003067133120013474
0006c0 4b 86 e8 11 f7 bb d4 3f 5e 3d b5 44 f1 26 b7 bf
       0.32397248028619136 -0.0904379647010862
0006d0 3c b1 4a 09 32 78 de 3f e4 cd fd 8e 98 2e d9 bf
       0.47608614833258733 -0.39346898998266355
0006e0 76 55 f4 e6 2f 2d e2 bf 78 66 c3 c1 6c cf e0 bf
       -0.5680160055950825 -0.5253204140128238
0006f0 62 22 6c e5 b9 ce df bf 38 d8 0c 5a 0b b5 ca 3f
       -0.4969925632908937 0.20865003487569012
000700 01 cc 03 13 24 10 f5 3f dc 2c 68 85 1a 22 a3 bf
       1.3164406531111583 -0.037369564805055794
000710 cd 8d f6 79 c3 ee d5 3f 8f 38 43 cf 06 9b e0 bf
       0.34269797239741423 -0.5189241455170918
000720 77 eb 51 f1 e4 1c db bf b5 df 88 0d e1 82 b9 bf
       -0.4236385685577981 -0.09965330677448388
000730 45 99 16 bf ec 11 e0 3f fc f4 ed 35 a1 ce e7 bf
       0.5021880848114867 -0.7439733556090284
000740 95 24 33 f0 69 53 87 3f 19 77 cf 62 0d 63 f3 3f
       0.011389567988219699 1.211682687738579
000750 bd f1 88 6d f9 ce e5 bf ae f2 c6 27 5f b3 83 3f
       -0.6815154208521147 0.009619468118097298
000760 05 93 1b 6e e9 fe ef 3f ef 3a e5 40 8c 57 df bf
       0.9998671675244571 -0.48971849763340364
000770 98 04 80 db 0a 20 bb bf 11 f1 57 07 42 d6 d2 bf
       -0.10595767840279036 -0.29432726590290864
000780 c0 70 b1 fb fd bd c3 bf bb 6c ac 68 09 e3 cd 3f
       -0.15423559941962672 0.2334911118603936
000790 87 11 8c b1 5a 15 d5 bf 4d 39 8d 45 54 62 e1 3f
       -0.32942836130703096 0.543253074496343
0007a0 06 0d 77 e8 4c 6a d8 bf 82 90 0c 49 8c 39 a4 bf
       -0.3814880628744536 -0.039501556317447686
0007b0 f4 b9 ba f4 ed 63 f3 3f d3 8a 8a 1a f2 4c 6b bf
       1.2118968543760475 -0.003332589014762058
0007c0 ef 2b d1 9b ec 4b e3 bf 9f 8a 14 7b 63 c1 cf bf
       -0.6030180972387579 -0.24808925161149362
0007d0 d3 e4 97 1c d5 cb d4 3f c4 23 84 c9 2c 6b bc 3f
       0.3249409465057173 0.11101035995319736
0007e0 e4 ae 01 2e 76 27 aa 3f c0 dc 3b 8c da 42 af 3f
       0.05108231841663072 0.0610569282707103
0007f0 19 7d 8d 93 39 37 f6 bf 41 dc 66 ed 63 42 e7 3f
       -1.38848264348764 0.7268542896989701

linear.0.bias f8 [128]
000000 2d 82 95 0f 74 41 b9 3f 3b 3a cf b0 f0 b1 94 bf
       0.09865498905629329 -0.02021003798636854
000010 ad ee 74 4c 93 2c d2 bf e8 eb 86 33 60 6d a2 bf
       -0.28397066561204093 -0.03599072102539208
000020 6b f3 a3 92 0c 7a e3 bf 92 8e a7 22 7b 61 ce bf
       -0.6086485733099897 -0.23734988395800777
000030 7a e7 0c bd 6d 0a e3 3f 18 0b 31 c1 cd 9e de bf
       0.5950230305090678 -0.47844261041989133
000040 1d fe 54 93 df c4 ce bf f0 b8 b7 ab cb 72 dc bf
       -0.24038309759087975 -0.4445065667085961
000050 64 c4 20 98 df 54 e5 3f d1 f7 ad 47 91 6b d1 bf
       0.6666105242967544 -0.27219039916951454
000060 a8 7c 4f 56 2c 2a cb bf 04 c3 03 83 8e 8a b0 3f
       -0.21222452368144684 0.06461420725441874
000070 9a 5b 5f 26 fe 9f ca 3f d1 93 bd a5 fd 7d cb 3f
       0.20800759195000468 0.21478243439483305
000080 d7 bc 16 38 ec 3e d0 bf 7d ef 8c c7 7b fb d9 bf
       -0.25384049870895126 -0.4059743355498922
000090 ed 0f e9 f1 13 11 d1 3f 2d ba 0d ad 1c d8 d1 3f
       0.2666673529058688 0.2788154306389597
0000a0 f6 51 a3 78 f7 45 d0 3f b9 2d 68 50 31 0e b2 bf
       0.2542704275231523 -0.07052906239567037
0000b0 cf 01 09 18 5e 66 cd 3f db 90 6c 2c 12 58 d2 bf
       0.22968650983422242 -0.28662542665757734
0000c0 cd 8e 79 62 2f 5e d3 bf cc 97 3d 9a fc 14 96 bf
       -0.30262360207255484 -0.021564433015917747
0000d0 74 a6 4b 03 1d a0 dc bf 48 cb bd 21 8f a4 c2 3f
       -0.4472725422079755 0.14564694545296164
0000e0 d5 13 f1 12 a9 f8 ca bf cc 7b ca 2c 41 87 e3 3f
       -0.21071351456535461 0.6102605700324317
0000f0 b1 14 0e 5a 0b 92 93 3f 7a 5f 85 3e b1 11 c6 3f
       0.019111802455445474 0.1724149279859793
000100 65 34 9c 36 21 09 de 3f f2 8e af 47 b5 b5 be bf
       0.46930723507904865 -0.11996014595166196
000110 aa 00 b7 4c b7 ca b2 bf fc f1 c5 b6 38 41 c2 3f
       -0.0734057009021877 0.14261540340875445
000120 eb 24 cf a5 4d c7 c5 bf 16 40 d8 52 fc 99 c8 3f
       -0.17014475437307594 0.19219926877167443
000130 45 02 af 95 d3 23 c4 bf a0 a7 c1 eb 56 e2 c4 3f
       -0.1573433380963413 0.1631573344378099
000140 05 39 01 2c 9f de d0 bf 98 14 a8 46 9f cd c9 3f
       -0.2635877542242187 0.20158759069469023
000150 dc dc 80 19 b4 ba c0 bf dd 3d 5a 01 35 78 e8 bf
       -0.13069773907930127 -0.7646737123886244
000160 1b 15 87 cf 47 6f e6 3f 88 70 33 f8 e7 b5 b6 bf
       0.7010840466761324 -0.08871316728203926
000170 8b 49 61 36 f3 ed bd bf cb 42 ec 1c 1e 6e b5 bf
       -0.11691207959782994 -0.08371151167035433
000180 aa 31 59 3f 96 45 c4 bf 98 53 7d 51 50 7f c2 bf
       -0.15837362378296166 -0.14451030711157098
000190 3c ba 04 13 65 d5 90 3f 1b 71 ab 29 2c da d0 bf
       0.016439036641879165 -0.26331619328790773
0001a0 73 20 e8 88 56 29 c6 3f 9c 9b 5d c0 4e 88 eb bf
       0.17313653645419755 -0.8603891141072952
0001b0 77 42 0c 69 18 47 e9 3f 50 40 03 88 47 8e c0 bf
       0.7899286319462381 -0.12934202328915712
0001c0 19 ea b5 b1 9e d4 d0 3f 11 9f eb 4c 52 1a e9 bf
       0.26297728876639465 -0.784463072047375
0001d0 88 5e 74 f2 c9 fa c5 3f ce 03 4e 1a 0d 54 e1 bf
       0.1717159685001557 -0.5415101541294634
0001e0 35 88 9e 58 a3 c0 d4 bf 09 19 e2 2a bc ab d6 3f
       -0.3242576947615164 0.3542318743497082
0001f0 82 66 b9 ca 4a b3 a9 3f a3 92 4a 72 44 0f d3 bf
       0.0501960155931558 -0.2978068462491967
000200 2b 97 8c 95 27 63 b3 3f 96 cc 5f 17 99 68 a5 bf
       0.07573172951796596 -0.041813644507692135
000210 5c 67 68 cb 41 d1 ea bf ea 24 05 b2 91 df bc bf
       -0.8380440686043857 -0.11278639408296312
000220 ae 18 4a d0 bc 04 a8 3f d8 a4 33 65 74 a4 c1 3f
       0.04691114466281597 0.13783125821581765
000230 00 ba ee ad 63 3a d9 3f 68 df cc 41 40 dc ce bf
       0.39418880448911864 -0.24109652722267616
000240 a6 75 ac 27 10 93 e2 bf 40 41 c6 85 9d 13 d8 bf
       -0.5804520392300005 -0.37619722427281843
000250 09 65 81 0a fa f9 b9 bf c0 cb 55 9d 77 4d df bf
       -0.10147059208374655 -0.48910322537193096
000260 a6 e9 78 84 c1 47 e0 bf 52 69 ee 88 fe 1f dd bf
       -0.5087592685079485 -0.4550777756900476
000270 6b 9e 8b 7c 93 74 db bf 35 8f 89 52 2a 00 a3 3f
       -0.4289902416480575 0.03711063630615145
000280 07 02 99 9b 7a 5e a8 3f 2e 6b 33 62 48 1c bf bf
       0.04759581708322363 -0.12152531049234191
000290 38 14 dc 1a 22 93 d1 3f c8 4c 8a 4d 7c b5 a7 bf
       0.27460529921546906 -0.04630649992500363
0002a0 7b 17 2b 60 11 e5 d7 3f fd d1 89 44 0f 47 bf 3f
       0.37335619346082866 0.1221780340509397
0002b0 b4 6c c8 c4 a3 2b f0 3f 66 bb 47 d1 0d ea d5 3f
       1.0106542288620348 0.342410520911406
0002c0 00 8f 0a 7e d0 26 d8 3f ea a4 4e 68 6e c5 d6 bf
       0.37736904438700947 -0.35580024896860485
0002d0 2e c6 8d 14 90 ff d0 bf eb 7f fb ac 75 86 a8 3f
       -0.26559831626136343 0.04790084587671103
0002e0 fd 77 8f 2e 0a 96 b3 bf 62 ae 64 fe e0 df b5 bf
       -0.07650817524651639 -0.08544737063191968
0002f0 be 62 83 a9 36 f6 c3 bf 6a b2 d2 ab ea 10 d6 bf
       -0.15595134045613251 -0.344782512470181
000300 a5 18 28 b1 d2 d9 cd 3f 77 ea 0f f0 91 3c b6 bf
       0.2332099308989132 -0.08686172591107232
000310 2f e2 ca dd 02 06 c6 3f 8f 65 b8 de cd a5 d6 3f
       0.1720584471675166 0.3538698840144087
000320 7d e8 57 30 e1 6c b3 3f 5c d3 b2 e7 b2 ca c9 3f
       0.07588012151964736 0.20149837792782932
000330 7e e0 1d ab ce 89 c3 3f 64 b6 9e ff 4b 2f a2 bf
       0.1526430449991984 -0.035517096475228965
000340 88 c2 32 f7 8a 7e 7e bf 7d fb 08 a1 a4 07 df bf
       -0.007444899401136802 -0.48484149671633486
000350 36 59 7f 67 6f 2c a6 3f 14 20 0a bf da 43 e1 bf
       0.043307763465849566 -0.5395330172768831
000360 10 ba 47 2d 41 18 e2 bf 98 3d 1e 69 60 5f e4 bf
       -0.5654607662561961 -0.6366426518524575
000370 b3 ba 7e 57 06 d8 ea bf 78 4e 12 3f 0a 11 a2 3f
       -0.8388702114951542 0.03528625507274524
000380 9b bb bf 6c e9 3f e1 bf 2b c1 9a 6e 40 c8 e1 bf
       -0.5390517353060774 -0.555694786095079
000390 8b 31 95 b7 41 35 e2 bf d0 e9 e7 8b c6 7f d6 bf
       -0.5690010629273713 -0.35154880201994576
0003a0 3a 48 13 60 a8 4a e2 3f c5 e2 cc 3c 31 50 de 3f
       0.5716134907218084 0.4736445516351007
0003b0 54 82 4b 6f e9 e9 b0 3f 3a 6b b2 1c c8 26 bb bf
       0.06606921164667173 -0.1060605115948591
0003c0 67 78 6f 83 db 06 89 3f 11 9e 5c be b2 ed ce 3f
       0.0122201108442221 0.24162897391327978
0003d0 3a 7b 43 d2 90 3e c4 3f 98 ba 74 d8 43 9e c7 bf
       0.15815935389306351 -0.18451736516131656
0003e0 16 85 36 d2 56 81 c1 bf 1d c0 6a bc 69 a6 de bf
       -0.13675961746506776 -0.47890704536530554
0003f0 24 d2 bd 53 ab c3 d3 3f 51 1c 22 41 81 2e d5 3f
       0.30881770303611433 0.33096343384426513

linear.2.weight f8 [128, 128]
000000 ff ef 99 71 04 64 76 3f 3e 10 b8 0c 67 30 c8 3f
       0.005466477735918573 0.18897712822956864
000010 92 3d bc 61 55 fe ab 3f 42 65 a5 fe ad 78 64 bf
       0.054674785786228544 -0.00249895079938925
000020 e9 27 90 32 d4 04 aa 3f bb 96 81 54 3b f3 c9 3f
       0.050818091556791796 0.20273534418372727
000030 e7 51 54 d0 23 d5 b2 3f 9f 31 35 48 dc 2a b2 3f
       0.07356475673834205 0.07096649897466144
000040 77 93 db 94 6f bd b8 3f 12 ca 94 c7 af 0d a0 3f
       0.09664056190702107 0.0313544207696347
000050 40 18 ad 32 8d 15 26 bf 26 47 d6 5d 08 ba bf 3f
       -0.00016848896606286475 0.1239323834509177
000060 94 1a a9 58 a8 d5 c6 3f 68 eb 8f 73 38 be ab bf
       0.17839531258706087 -0.05418564234420026
000070 d9 4a ec f3 2f 14 c1 bf 52 c8 24 5a f2 a0 c0 bf
       -0.13342856798461503 -0.12991170312449413
000080 b6 56 8c 8f 1a c1 a5 bf e1 33 c8 dd 9b 8f c3 3f
       -0.04248888971612301 0.15282009438706637
000090 3a 96 eb b0 fd 95 a9 bf 97 1e 8b 9c c6 7a b2 3f
       -0.04997246536894946 0.07218591043339938
0000a0 61 c1 36 e3 a1 eb 66 3f b7 40 3d e9 7a 7a b7 bf
       0.0027979051462453807 -0.09171264833753666
0000b0 60 e6 55 8c b3 a1 b4 bf eb 06 65 0e 8c 3a b7 bf
       -0.08059236694489291 -0.09073710776740611
0000c0 02 8e f1 39 43 64 ac bf dd 70 b9 21 ab ed b1 3f
       -0.05545244295424469 0.07003278325413782
0000d0 a5 46 16 05 80 42 a5 bf 8e 8e 4a 1b b9 a5 9f bf
       -0.041522980328534666 -0.030905620852208097
0000e0 dc 28 a3 6d 53 59 d0 3f 58 2b ff 2f 28 71 bc bf
       0.25545201975604725 -0.1111016385249689
0000f0 2c 68 79 a8 7e 67 c1 bf 3f a4 d5 af 53 49 99 3f
       -0.13597090936929257 0.024693782431686847
000100 42 58 91 db 74 bf 10 bf a1 1f 30 2a 8a 70 b3 3f
       -6.388808005061786e-05 0.07593596963863415
000110 ec b8 29 eb 0c af cb bf 14 a5 44 12 1b e1 be 3f
       -0.21627961618964464 0.12062234111785514
000120 12 1d f3 bd 29 11 b8 3f 46 6f 55 31 b1 7b 97 3f
       0.09401188743060043 0.022932785640804164
000130 5c 6c 62 0d 05 78 ba bf fb 0b cd eb 79 63 73 3f
       -0.1033938558270377 0.004733539823805972
000140 44 ee ca 5d 05 0a ac bf 41 df c3 17 ed 84 c8 bf
       -0.05476395387583158 -0.1915565839806224
000150 e3 64 b6 7b 21 8f b8 bf 6b 6e 3e 44 61 84 c7 bf
       -0.09593400259327071 -0.18372741539211587
000160 8f 91 2b 92 a5 85 be bf 36 55 e5 5f a7 21 ac bf
       -0.11922678774459981 -0.05494425817111408
000170 00 c6 69 bb 87 07 9c 3f 95 f5 90 90 07 c4 c8 3f
       0.02737247544650323 0.19348234709643167
000180 fe 80 91 f8 7f 4a c1 3f 63 2b 69 49 22 00 d0 bf
       0.1350860561096922 -0.25000817460084174
000190 0e 40 75 6c e7 bf b7 3f 70 69 fa 7a 52 6b 91 bf
       0.09277197263622858 -0.017010964160911468
0001a0 00 f8 44 0b 0a a3 b5 bf ce 1f a2 d9 bc 89 c6 bf
       -0.08451903128749905 -0.17607842089296216
0001b0 bc 42 d0 0a ac e9 b3 bf 7f 1e cd dd 15 5f 84 3f
       -0.07778430236818229 0.009946986037575599
0001c0 8c 06 70 0a a0 a8 a1 3f 64 7c 5a 5a a8 6a 61 3f
       0.03448963286792858 0.0021260536330625513
0001d0 6f d9 3b 8d 67 b9 bf 3f 62 3c c8 ec 2f 21 c3 3f
       0.12392279813852779 0.14945029317502462
0001e0 c9 1c 6c ce 64 5f cc bf 40 9e eb 08 99 25 8d 3f
       -0.22166118697371065 0.01423186834786272
0001f0 55 a7 b9 4b 84 54 b3 bf 8a 72 b8 eb 5b e8 b5 3f
       -0.07550837372550963 0.08557676796812977
000200 60 0c 1e da 63 0d a3 bf 65 b3 0b 6a f7 6b b7 3f
       -0.03721153295102719 0.09149118746763703
000210 91 e8 6b 3e 4a 77 ca bf 3b ae 5b a3 a5 6b a1 bf
       -0.20676544235158592 -0.03402440661542668
000220 9f 07 9c 5c 09 1d c2 bf 40 11 ea 21 73 09 c9 bf
       -0.1415111257738859 -0.1956008830640119
000230 36 cd 71 77 03 71 c8 3f 00 2c 2a b5 cb fd bc bf
       0.19094889957669076 -0.1132476155564035
000240 59 c0 e0 5d be 8f b5 bf 60 02 60 27 a4 90 b0 bf
       -0.08422460357610485 -0.0647070499544582
000250 93 00 54 11 6b 9e 9a bf 54 c1 3c 76 18 5c c1 bf
       -0.025994942600846626 -0.13562303326899416
000260 3b 35 61 1f a3 d3 bb 3f 58 bc 13 c0 c6 0c bb 3f
       0.10869807735544594 0.10566370190984864
000270 4a 75 c5 78 2a 17 ba 3f fb 47 ad 76 98 e5 be 3f
       0.10191598366278246 0.12069085023293262
000280 47 65 83 d8 90 de c0 bf e9 64 b6 e6 8e 3e 9d bf
       -0.1317921693032906 -0.02855895312459192
000290 8e c2 16 ae 53 7b b0 3f d0 8d 2a f6 7e b2 ae 3f
       0.06438181877343593 0.05995556597670382
0002a0 6c 57 2d 12 b9 c8 c0 3f 18 d2 b6 cd 6a db a4 bf
       0.13112557780794576 -0.04073652039679504
0002b0 99 ec 4b a3 b0 30 c2 bf 73 25 fd f7 d7 79 a6 3f
       -0.1421109006258561 0.0438983431072967
0002c0 86 b2 98 8b f3 2d b7 bf 1b 6b 35 54 b8 d1 af 3f
       -0.09054491193882983 0.062146911887529487
0002d0 2c 27 db dc 67 4e b5 bf 0a bd c9 c5 62 fd a0 bf
       -0.08322762624734698 -0.03318318046955866
0002e0 28 28 e5 61 49 19 cc 3f 75 b3 f2 32 52 b6 be bf
       0.21952168731724098 -0.11996949905251404
0002f0 88 50 36 8a 8e 41 b8 3f 45 7e 77 83 1f 03 cb 3f
       0.09475031732864825 0.21103280944133665
000300 4a b3 a0 d3 c9 8b a3 3f 8a c1 8a d9 e4 f3 ba bf
       0.03817587574335464 -0.10528402625164382
000310 32 96 d7 ac 29 3a be bf 69 b8 73 4e 57 da b5 bf
       -0.11807499379900646 -0.08536286988575771
000320 0a 44 3f 18 e5 1c c5 bf 94 48 4a 1e 00 83 ad bf
       -0.1649443024057578 -0.05764007920983363
000330 13 27 1f ba 37 0a ce 3f 57 07 bf 84 6c 16 c2 bf
       0.23468681896184104 -0.14130932313679054
000340 78 ae f0 c5 1e 0f ba 3f a6 15 ac 01 d2 20 b9 bf
       0.10179321606181613 -0.09815704861474348
000350 7e a4 ce 87 b2 21 b7 3f 2b 98 88 67 c4 52 ad bf
       0.09035793128590972 -0.05727208865964458
000360 af f4 8c 04 93 c6 b2 bf 5f 0a 2f 79 14 e5 a1 bf
       -0.0733425031766781 -0.03495086650174949
000370 b2 ff 1e 73 f8 88 c8 bf d7 bd 1b 3d 6a 4f c4 bf
       -0.19168000813624314 -0.15867355331236752
000380 dd 4e 13 b2 7f 48 a6 bf 44 c6 16 85 24 57 c3 3f
       -0.04352187203190081 0.15109688280567657
000390 92 17 93 18 2f c5 bc 3f c0 a2 b5 98 96 86 b1 bf
       0.11238378858533185 -0.06845990398654589
0003a0 82 a4 cf fa 88 64 c4 3f 1c 7c ad c6 5e 83 ae 3f
       0.15931808706890044 0.05959602523102367
0003b0 78 68 1e f2 d6 39 c4 3f 11 95 69 04 19 76 c8 bf
       0.15801512548643237 -0.191104056505687
0003c0 08 af ba dc fc a7 ba 3f 25 4e 2d 3f 2f 66 c2 3f
       0.10412578953645035 0.14374342522442976
0003d0 27 90 99 c2 64 2c d0 3f 10 a0 c8 b0 95 6d c6 bf
       0.2527095699681489 -0.17521926052108983
0003e0 4e 1c 1b 48 47 a0 b2 3f d3 d2 cf dc 79 23 c3 3f
       0.07275815496824231 0.14952014238192265
0003f0 95 1b ea 86 32 d8 b1 bf 44 72 33 a7 45 da a3 3f
       -0.06970516008196477 0.03877465883281109
000400 a1 66 01 30 eb 27 c8 3f b4 a0 25 40 4d 23 b4 bf
       0.18871822208420944 -0.07866366211021864
000410 c1 b5 ee 00 e3 45 c1 bf 71 b2 47 8c 8f 37 c8 bf
       -0.13494527383356394 -0.18919557904827713
000420 96 fb 75 fa e1 43 2a bf f2 33 60 69 d1 fe b2 bf
       -0.00020038732075630385 -0.07420071432734668
000430 c6 1b d5 4c e8 1d a8 bf b3 07 5b cc 96 8f ac bf
       -0.047103175524675175 -0.05578299755644824
000440 c8 76 c9 1d f8 c2 b5 3f 07 66 96 ff 9d 11 d3 3f
       0.0850062439653484 0.2979502674075722
000450 7f f2 e1 5b d1 49 b6 3f 55 4b 1c ff ae b4 d1 3f
       0.08706387036540696 0.27665305054795414
000460 96 0e 35 bc 5c 27 b2 3f 12 3b 78 bf b0 f3 c0 bf
       0.07091312022117288 -0.13243684147934026
000470 3b 0b a7 ab 2d 09 b0 bf db 4e b6 3f 83 e0 aa bf
       -0.06264005127654297 -0.052494145896302156
000480 1c 66 1c 46 94 d7 cf bf d3 2b 69 cd bb 7d 8f 3f
       -0.24876645491967586 0.01537653656591501
000490 7d d3 2f d0 6b f7 d1 3f 6e 03 ab b3 15 c3 ba bf
       0.2807263882707998 -0.10453925739694878
0004a0 0f e1 ca df ab 89 aa 3f 75 48 24 41 fe 3e a6 bf
       0.05183159930078506 -0.04344934983431951
0004b0 d4 9f d1 10 72 2f c5 bf 3a 44 cf 93 27 d5 ae bf
       -0.16551042386276882 -0.060219990533035575
0004c0 e6 40 96 c1 ef f3 c0 3f 88 74 e0 63 2d 77 c2 bf
       0.13244435265051563 -0.14426200272365386
0004d0 f8 f3 11 b5 68 55 b2 bf e2 ab ba f8 ae b2 d2 bf
       -0.0716157381120438 -0.29215597429236884
0004e0 a9 82 3f ab 78 8c b5 3f 4f d8 18 30 f1 9c b2 3f
       0.08417467289792548 0.07270724701160812
0004f0 98 31 bd 16 b7 15 90 3f 78 44 e5 87 e6 35 ce 3f
       0.015707836878662812 0.23601991305853054
000500 a9 9b b0 3b 2e 36 a7 bf 92 ad b7 09 2d 02 bb bf
       -0.045335240160333364 -0.10550195204966986
000510 3d f2 84 53 f9 e1 cd 3f 06 c0 85 9c 43 9d b7 bf
       0.2334586770829378 -0.09224340983723786
000520 ac 9d 34 71 52 d3 76 bf 02 ea df 98 60 1a d0 3f
       -0.005572626151923481 0.2516099446217198
000530 ce 50 e5 fd a9 eb d0 bf 9c 80 87 b6 4b d1 c2 bf
       -0.264383790917475 -0.147012199521673
000540 39 bb 10 d8 92 51 b1 bf 58 3e 33 e2 9f 5e c3 3f
       -0.0676509644988358 0.15132521195345094
000550 ab 11 e1 1a d8 d7 d2 bf da 24 98 2f 13 05 c8 bf
       -0.2944240820400192 -0.1876548750299552
000560 63 2b 8a 37 24 a3 b9 bf 00 14 25 71 23 4d c1 bf
       -0.10014559131574922 -0.13516657852792946
000570 83 d8 0b 39 e7 ef cc bf 13 e5 59 56 a4 34 b4 bf
       -0.2260712650820019 -0.07892825229818738
000580 3b 82 bc ca f1 2c d0 3f f4 2f be 18 7b 06 ab bf
       0.25274319456551425 -0.05278381993329609
000590 9c 1a ea 2b de 64 bc bf 73 85 09 7b 4f 0a 68 3f
       -0.11091412136202411 0.0029346039157622183
0005a0 16 d2 08 78 48 e6 aa bf 69 e6 90 17 7e fd aa bf
       -0.0525381704832492 -0.05271524465247241
0005b0 4b cc f5 eb 49 22 b1 3f df 34 e0 54 3c 18 b8 bf
       0.06692945490594686 -0.09411980697787524
0005c0 76 c3 8e d7 95 9a 72 3f 42 45 a0 07 88 14 cc bf
       0.004541955299757974 -0.21937656757703833
0005d0 8c b4 d7 e9 00 53 c7 bf 5f c8 91 c4 f6 8a cb 3f
       -0.18222056787582053 0.215178342801269
0005e0 b6 82 a1 f1 3c 3b cd 3f a4 c8 cf a9 4c 77 c6 3f
       0.22837030218490434 0.17551573077759486
0005f0 65 a0 04 84 a3 4c ac 3f 0d e7 38 3c d7 06 54 bf
       0.05527220713185058 -0.0012223340899155139
000600 09 69 7a 36 c4 f3 9c 3f c1 79 b8 c2 5b 5a c4 bf
       0.028273645234187437 -0.15900752075044802
000610 d1 87 01 69 bd f2 ca bf e6 d7 98 8a 47 cb c6 bf
       -0.2105328333591943 -0.1780785967582112
000620 ab 49 3d 46 ee fe cb bf 7b 95 3e fb 3a 27 af bf
       -0.218717369362435 -0.06084617917012288
000630 80 66 69 9d a7 5d c1 bf f0 89 4c 29 7e 4b 69 bf
       -0.13567061601752428 -0.0030877555931436637
000640 6a a0 74 bf e0 5a be bf 6f 31 ed f1 e2 ff bf bf
       -0.11857418703277892 -0.12499826818856773
000650 f9 47 0a 73 1a b9 cb 3f ed 56 4e ca 9a 9a 4e 3f
       0.21658640496440265 0.0009339576541715612
000660 d3 0a 97 66 41 20 72 bf 8e 71 9f 86 dc 11 70 bf
       -0.004425292464875513 -0.003923283986264526
000670 bf d4 ab 19 6c bb a3 3f e7 30 39 9e 1a 25 bc 3f
       0.03853929341668438 0.10994116175533329
000680 a9 a5 62 e4 c5 e0 b0 bf 57 db 05 4b f0 12 b9 3f
       -0.06592976404012653 0.09794523078549609
000690 11 9c f4 df 99 21 80 bf 0a 6b b2 5e 95 84 c4 3f
       -0.00787658896167723 0.16029612659334475
0006a0 25 5d 08 d0 f3 b3 b1 bf 18 ff 9f 01 ac 14 be 3f
       -0.06915210560724867 0.11750292815849794
0006b0 73 9b ee 63 1c 33 be bf 4d 5c df be 38 6b c9 bf
       -0.11796739043948694 -0.1985846454615249
0006c0 e0 e5 0c e7 bb 24 c5 bf 02 85 16 cc 40 90 90 3f
       -0.1651835325408646 0.016175281960049588
0006d0 eb 66 09 a9 e3 4c c1 3f eb a9 d9 0c 99 94 c3 bf
       0.13515897516008776 -0.15297234656766476
0006e0 3c bd 7f de f7 58 d0 bf ee fd ea a7 ec 74 b3 bf
       -0.25543019035736214 -0.07600287532385838
0006f0 b7 11 a9 64 79 77 c5 3f 4d 8d 50 b6 65 fc c8 bf
       0.16770856299457446 -0.19520255472262207
000700 f1 21 05 f1 4e ac c6 3f ac c8 94 39 e6 c2 c5 bf
       0.17713343399579132 -0.17001035510617635
000710 39 96 86 b5 8f 50 c1 3f 60 c6 49 8d 2c a9 c6 bf
       0.13527103770791074 -0.1770377817043025
000720 29 07 95 14 96 a8 b5 3f 56 11 77 a2 6b de a8 3f
       0.08460367205136933 0.04857193334786085
000730 a6 68 73 f0 bb d3 c3 bf 37 77 51 99 eb 35 cb bf
       -0.1548991130901573 -0.2125830172180316
000740 4e ca 2a af 28 a7 ca 3f eb 4d 5b 2c c9 d5 af bf
       0.20822628548701733 -0.062177931465750756
000750 a3 72 35 59 cc 79 99 bf 71 bf 45 25 a3 9f 70 bf
       -0.024878685898658614 -0.004058491981012811
000760 db 29 0f 74 84 ae c2 bf 80 7b 4d f4 e7 1e cd bf
       -0.14595084826426227 -0.22750567845193004
000770 36 93 d1 8e 40 23 8c 3f 65 0c 96 d7 c5 6a 88 bf
       0.01373911319587649 -0.011922402993837797
000780 28 d8 09 1e 07 d7 b0 bf e7 f4 2f 8c 06 8c a5 bf
       -0.06578106387482363 -0.04208393536826254
000790 18 55 96 e5 53 5c 96 3f ae 71 b5 38 4e 7c b9 bf
       0.02183657730855257 -0.09955300220958094
0007a0 b0 06 b1 9f 91 47 b4 bf 8b 6f a2 57 73 8d a0 3f
       -0.0792170538780066 0.032329182097981045
0007b0 f4 27 f5 be 09 6f ce 3f 47 35 27 8e 37 75 b9 bf
       0.23776361297706183 -0.09944483967338612
0007c0 12 cb 0a e0 e7 cb ad bf 6f 6d 9e cb 05 04 c0 bf
       -0.058196302508255596 -0.12512276117636698
0007d0 f7 67 10 25 a1 29 c4 bf fe 55 c1 bb ba da cb 3f
       -0.15752043065805285 0.21761259238944314
0007e0 26 99 a8 41 a5 d4 9c bf 62 a8 81 9f f5 10 9d 3f
       -0.028154928333742245 0.028385007725241336
0007f0 52 0b 18 e2 93 2a a7 3f b9 01 1b e8 bd f6 c1 3f
       0.04524671683250027 0.1403424628570187

linear.2.bias f8 [128]
000000 e4 7e 51 58 40 ed d3 3f cd e7 01 b2 d8 e3 de bf
       0.3113556730731786 -0.4826566446641863
000010 0d 5e 0b 01 39 31 c1 bf 35 4a 2d 6c 8b e9 c9 3f
       -0.13431465674396784 0.20243971616817338
000020 19 75 7e c2 ea 10 a8 3f 84 dd b1 40 54 bb b5 3f
       0.04700406669801733 0.08488966540777737
000030 0b 2a 5e 89 77 a5 c8 bf cb 03 41 21 20 5c be 3f
       -0.19254965026296164 0.11859322368492468
000040 4a 06 94 8b 0b 50 d5 3f bf 74 f9 f7 cd f5 cf bf
       0.3330105650967182 -0.24968886001707877
000050 ab c2 d4 8d 6b 43 aa 3f 1f de d1 3c 43 35 e9 3f
       0.05129562479340185 0.7877517879377968
000060 87 69 56 ab 9a d4 bc bf 8a 99 22 35 1e 68 80 bf
       -0.11261908228917693 -0.00801108932166696
000070 e3 00 c6 cd f1 1f c3 bf 45 e7 58 6e 46 43 cf 3f
       -0.14941237018138684 0.2442405737690995
000080 a1 a1 f5 c2 3c de c1 3f d2 15 15 e0 16 29 e0 3f
       0.13959464568621363 0.5050157906159092
000090 71 b1 35 b2 f8 8a da 3f c7 6b 3a 89 10 25 d2 3f
       0.41473214534086994 0.2835122432822427
0000a0 24 51 1f 2b fb 0e a4 3f 83 36 9e 70 f7 fa e3 bf
       0.03917679692645695 -0.6243855666704835
0000b0 7b 08 21 cf 04 2e d1 3f bf d5 e2 e6 20 13 e4 3f
       0.26843376376576317 0.6273350247853883
0000c0 42 c6 60 02 fd d6 d2 bf 62 df 71 03 09 ba 9e 3f
       -0.2943718455527212 0.030006543002371606
0000d0 6e 43 69 f8 40 25 b4 bf 80 e6 aa 95 1e 7e a0 bf
       -0.07869344773031425 -0.03221221520420858
0000e0 e4 3e 81 4e 3c 5f d7 3f fc db 34 9a ce 18 ce 3f
       0.3651877180718499 0.23513205079663624
0000f0 ff 6a 0b ae 87 8a dd bf bc 4d 97 b8 95 a5 c8 bf
       -0.46158020016234497 -0.19255324853166467
000100 4a 05 09 0b bc 26 c4 3f 74 e7 63 db 07 a5 ad bf
       0.1574320844538682 -0.057899709254299575
000110 83 01 75 de 64 b3 dc 3f f3 6b 3e 93 49 70 d2 bf
       0.4484493420059367 -0.2881034791877816
000120 d1 9a 0e ce d7 eb b9 3f bf 5c ef 8f 29 bc e4 bf
       0.10125492840470975 -0.6479690371733325
000130 f5 1b d8 1e bd 6d e2 3f dd ea d9 60 2c 09 ca bf
       0.5758958437371563 -0.20340494851173832
000140 4c 6b 01 87 74 43 d5 bf 65 da d2 fc 7e 11 e0 3f
       -0.3322421377576361 0.5021357477151694
000150 bb 44 f9 ea ef 68 ed 3f 0e b7 ef f8 2a 03 df bf
       0.9190597142534424 -0.48456835088914907
000160 b2 3e 53 82 77 30 e5 3f 5d f9 e8 ce 86 ce b6 bf
       0.662166361371382 -0.08908884574427618
000170 b3 87 5a 88 22 b5 c0 3f a3 f0 95 50 93 54 af 3f
       0.13052779825107805 0.06119213446342655
000180 1c fd 50 1b 87 b9 f1 3f 5b 06 a4 0c 1f 50 ca 3f
       1.1077948634190937 0.20557010762427094
000190 8e bb 1b b5 ec 7d d2 3f 86 32 6e 08 c2 81 e1 bf
       0.2889358299861947 -0.5470895924241439
0001a0 c4 b7 da 68 99 d1 cd bf e2 9d c8 bb 5b 1d e6 3f
       -0.23295896167604557 0.6910837810182182
0001b0 a8 7b a6 30 fd 7e b5 3f bf 2e 38 88 6e 33 e5 3f
       0.0839689487242895 0.6625282917534249
0001c0 a4 6e e5 6f 1d 53 db 3f 74 e1 8e 5b 0b fb cd bf
       0.4269479363190192 -0.23422376604663564
0001d0 aa 18 a6 65 0a 31 d5 bf eb 6e ef 9d 18 b0 ae bf
       -0.33111820150987603 -0.05993725707932448
0001e0 64 35 05 b1 59 3f be 3f 0b 8e 21 59 47 c0 c1 3f
       0.11815414974008359 0.1386803803644486
0001f0 6b 78 18 6f 2f 61 d7 3f 74 24 58 3b af e8 a1 3f
       0.3653067192952963 0.034978366846254355
000200 b4 39 35 a6 a3 cc aa bf 89 42 e8 f8 41 63 a1 bf
       -0.05234252361207173 -0.03396040118616834
000210 91 f1 6b a6 fe 2c 90 bf 51 37 d2 d9 8f c2 aa bf
       -0.015796641261645986 -0.05226563962888398
000220 7e 8f 48 01 94 36 e2 bf fa db 66 ce b5 f7 e6 bf
       -0.5691623711650065 -0.7177380591664353
000230 2c b8 62 af a9 11 b1 3f 9d db 86 67 cd f8 da 3f
       0.06667576343417697 0.42143569097555106
000240 60 95 04 ee a0 78 87 3f a6 1b a2 ea b0 30 ba bf
       0.01146054960606574 -0.10230546692228745
000250 36 dc e0 8b 8a 9d b2 3f 05 c6 da 9c fa 24 70 3f
       0.07271638789176013 0.003941515880499851
000260 19 d4 7f 9f 26 06 d8 bf fd d8 b6 1b a4 b9 e8 3f
       -0.3753754193888326 0.7726612607282558
000270 e1 2d fb 2b 35 b3 c5 3f c5 da 66 6a e7 25 aa 3f
       0.16953148505704888 0.051070434320924764
000280 60 9b f7 bf 2f 4f b0 3f 3f fe e6 84 3b d7 a1 3f
       0.06370829045009208 0.03484521863310563
000290 0f 52 cb 19 e5 43 e0 bf 79 1f 02 70 90 b2 d0 3f
       -0.5082879546922089 0.2608986944037422
0002a0 0d 7f e2 9d d3 f1 97 bf 46 dd 80 ab 42 04 c5 3f
       -0.023383432876129585 0.16419251798809337
0002b0 19 e1 59 39 5b 4f d8 bf 61 52 87 d7 6b 2d c6 bf
       -0.37984352684681394 -0.1732611467729326
0002c0 c8 5f 7b 0e cd 62 e4 bf 26 7e 68 cd a3 72 df 3f
       -0.6370606692171288 0.4913720613421638
0002d0 cd 9f 2f 6d f9 68 d2 bf f6 d1 44 09 25 15 c3 3f
       -0.28765712416361283 0.1490827842004731
0002e0 f9 99 18 66 c0 6f ce 3f fd 3a a4 76 9b 08 d1 3f
       0.23778538689766984 0.26615034662329135
0002f0 3e 7c 39 0e 3e aa cb bf 8c 59 fe bf 77 cc 9d bf
       -0.21613288588102536 -0.02910029515586525
000300 22 74 d1 a5 d4 d2 c5 3f 8d 16 e6 7a 90 05 d8 3f
       0.17049654099074113 0.3753396225150503
000310 1a ca a5 fd b8 b1 c4 3f dd 21 0c 71 cc 5d b1 3f
       0.1616736639512773 0.06783750305124366
000320 2b 59 b0 a6 03 2c b4 bf 33 ab 92 55 0c 35 ca 3f
       -0.07879660434295903 0.20474390200009793
000330 0f 5f 9e a5 e9 56 ae 3f 59 a2 a2 be 47 fa d7 3f
       0.059256841151350874 0.37465089432456505
000340 e5 5f 66 0c 00 a6 a6 bf ec 5c 9f 64 36 0f d6 3f
       -0.044235230935725935 0.3446784956590381
000350 d2 fe 30 78 7e f5 e2 bf 4a b0 4c b1 aa 21 c1 3f
       -0.5924675319183399 0.1338399282188923
000360 5c 09 c2 66 51 84 b0 3f a3 a6 82 1d 87 94 db bf
       0.06451901205767768 -0.43094041711683867
000370 77 39 3f b6 80 7d b8 3f dd 1e a4 c5 43 cb bd bf
       0.09566502046002322 -0.11638282370779103
000380 e8 7e 46 0d 5e ef db bf 5d c5 ee 6b 65 96 eb 3f
       -0.436484826053841 0.8621089084682968
000390 73 d5 eb b5 45 a0 c8 bf 01 2d 69 55 08 21 b7 3f
       -0.19239112265465116 0.09034778676248224
0003a0 03 d9 93 b7 f4 6f e1 3f cf 79 84 9e ae dd c5 bf
       0.5449164948938975 -0.17082770099746233
0003b0 66 cd 8a 5c f5 06 e0 bf e0 8b 08 46 95 9e c4 3f
       -0.5008494193520334 0.16108957213972896
0003c0 4f 86 d7 1a d6 cf d9 bf 1a 13 40 dd ef 90 d3 3f
       -0.40331032391813876 0.30572125059579636
0003d0 f1 9f 6f fa f7 a9 c2 bf 66 75 06 9f 15 7a c5 3f
       -0.14581203201601015 0.16778822197822335
0003e0 96 d4 76 3c f5 2c d8 bf 05 d6 97 81 7c 31 d5 bf
       -0.3777440157385369 -0.3311454072530469
0003f0 8a ab 50 21 7e ac ab 3f bf 4d db 23 4f 8c d4 3f
       0.05405038983038597 0.32106379033686133
