run/pinn_model.pt (torch, 275748 bytes, 8 tensors)

linear.0.weight f8 [128, 3]
000000 cb b7 00 ac 65 a9 b6 3f 86 61 25 69 44 6d d2 bf
       0.08852229546820849 -0.28791914241949035
000010 ad c4 bd 96 ce dd c5 3f a6 22 c6 6a 62 03 d8 bf
       0.17083151207365202 -0.37520656993050705
000020 c3 44 1d c6 f4 f0 da bf 19 4f cb 2a 61 53 dc bf
       -0.4209567961416491 -0.44258908442610473
000030 e1 e6 c9 14 b1 9d 96 3f 45 0b 09 c6 4a 85 97 3f
       0.022085921186294825 0.022969406449429703
000040 ef 19 39 c3 08 fe e0 bf 3a 41 9e ce f9 28 ee 3f
       -0.5310100377035364 0.9425019298087485
000050 aa e1 c2 65 f6 eb dc bf a3 16 29 dd 5c 86 ec bf
       -0.4519020074617638 -0.8914017028370903
000060 70 a1 04 e7 37 7a de bf 5a fe 46 b6 96 a1 a0 bf
       -0.4762096172367114 -0.03248282408776211
000070 51 bb 1c 4e 1d ec c3 bf 89 6d cc 14 0e c9 d3 bf
       -0.15564314188074005 -0.3091464236365132
000080 66 ef be 72 23 4a d2 bf c2 fa a9 8f dc bf f0 bf
       -0.2857750530781601 -1.0468412029146497
000090 78 90 17 d5 24 96 e2 3f db f0 04 ac 99 a3 d7 bf
       0.5808281099275652 -0.36936036871681005
0000a0 1b 07 27 e9 e7 ab f3 bf cf ad d7 27 b3 ea d9 bf
       -1.229469214202658 -0.404949940594375
0000b0 d9 9a de d6 5b 25 b1 3f f3 67 52 a4 54 d1 68 bf
       0.06697629924620276 -0.003029504123856158
0000c0 05 f9 ac 01 8d a1 d9 bf 24 39 58 06 30 d5 d7 bf
       -0.40048527873649703 -0.3723869382819365
0000d0 af 68 fc 5f 5d c1 ba 3f 9b c7 04 41 59 63 da bf
       0.10451301186950233 -0.41231376027564587
0000e0 48 af c0 ae 4c 9a d8 bf ed 1f 7c d7 de f9 f1 3f
       -0.38441769662562253 1.1235035340669086
0000f0 31 75 b8 e3 2e cc e3 3f 0e d2 93 29 2a cd cd 3f
       0.6186747024218332 0.23282362966678288
000100 8d 94 24 0b 96 92 c3 3f d8 85 dd 6a 3d e5 e2 bf
       0.1529109529884959 -0.5904833876813269
000110 c6 57 d9 9c dd 12 e4 bf a2 fe dc cb 81 0d e8 3f
       -0.6273029387909836 0.7516488057808213
000120 93 7c 51 04 36 df d3 bf 18 6b 1a 1d 4a 7a c3 bf
       -0.3104987184687584 -0.15216947957090876
000130 e4 ad 0a 0e a7 a0 e3 bf cc 6c 45 f1 7d 1a f6 3f
       -0.6133609079601539 1.3814677643447792
000140 83 77 1f bc d3 61 de bf 3b 7b 07 1a bb f7 f2 bf
       -0.47472089167956016 -1.185481168438584
000150 65 88 cf 32 d9 77 d4 3f 35 c6 89 61 72 45 c5 3f
       0.31981496774654367 0.16618184816938855
000160 86 aa 2a 1a 6d 45 ee 3f fa 10 74 75 b6 6a e0 3f
       0.9459748755519548 0.513026456261769
000170 f1 9a ca f8 20 f8 cb bf 6d 46 4f ac 6b b9 d3 bf
       -0.21850978992480166 -0.30819217517009784
000180 92 18 0e e5 3d 4a d3 3f cb 4b f8 3f 17 31 d3 3f
       0.30140635841997565 0.29987126586018736
000190 94 9c d4 aa 89 9f 97 bf df 29 49 11 63 9a de bf
       -0.023069525767962576 -0.4781730336004823
0001a0 e6 79 a2 86 fe 1b d1 bf ed 33 a6 02 a1 0a d6 3f
       -0.26733363292615164 0.3443987394210229
0001b0 90 69 f0 7a f7 58 f6 bf f7 17 23 10 19 ad 75 bf
       -1.396720390540029 -0.005292032148821227
0001c0 07 ad 75 ba f7 86 cf 3f a1 f7 22 ce 1e 3d db bf
       0.24630638699031968 -0.4256054890682837
0001d0 20 8f c2 13 50 74 b3 3f b8 77 3b 4b 5f fb f5 bf
       0.07599354250356471 -1.3738701761971992
0001e0 1b f8 2f 7a 30 dd f3 bf ed 0a c8 12 b3 0e c3 3f
       -1.241501309675647 0.14888609330235827
0001f0 d7 e7 80 72 49 08 ee 3f b4 ba 33 e5 43 f6 e7 3f
       0.9385115848920077 0.748811671886719
000200 83 c6 8a 66 0b 52 d9 3f a5 c5 8b f1 2c f7 d3 3f
       0.3956326009166348 0.3119613989684587
000210 4c 90 26 94 68 0d cb 3f f5 59 e7 01 3a c5 d7 3f
       0.2113466952697557 0.37141275583181194
000220 98 a0 74 2f b5 48 cf 3f 5e b4 7a a2 60 08 f0 3f
       0.24440636460463305 1.0020452830169897
000230 4e 85 d8 fc 24 a4 d3 bf f8 cd 64 40 2a 71 d7 3f
       -0.30689358417483426 0.3662820462079419
000240 53 3e 80 e3 ac 5e f4 bf 07 d7 35 18 43 98 e2 bf
       -1.2731140982395075 -0.5810866806848204
000250 0e c3 36 90 4c 8e df 3f ab c1 76 4f 9a 8e ba 3f
       0.4930602463091852 0.10373844566379968
000260 64 45 a5 1c d0 ac b9 bf eb 39 5b b5 76 9b d1 bf
       -0.10029316615443445 -0.2751137515123491
000270 e3 ed 22 71 01 41 ed 3f c1 36 b8 8f 88 f9 b1 bf
       0.9141852578827038 -0.07021382817057555
000280 be a8 1a 40 f5 aa d1 bf 51 a9 ae 36 21 c5 e7 3f
       -0.2760594488160101 0.7428136890423876
000290 bd 1f 6b 32 c2 41 e2 3f 46 7b ca f8 f8 42 95 bf
       0.5705271706328784 -0.020763292489046202
0002a0 e8 17 03 00 79 10 e9 bf 79 ca a1 5e 2e b0 e2 3f
       -0.7832608223186499 0.5840064857751052
0002b0 b6 2d a7 80 75 bd 84 bf 0b 16 5b ba a9 c6 b9 3f
       -0.010126989353827703 0.10068760680868409
0002c0 fe c1 0f 74 9c ed e8 3f 90 50 54 3c d0 b0 ce bf
       0.77900526684067 -0.23977091737527134
0002d0 5f 46 e4 6f b7 da e4 3f b8 39 06 b0 9d 11 d9 bf
       0.6516987977394811 -0.3917001933085902
0002e0 4b ac f1 01 95 4a e9 bf e8 b0 7b b9 10 28 df bf
       -0.7903542554826201 -0.4868203936919273
0002f0 79 a0 8a bd 60 d8 91 3f 60 23 f6 a5 7d a9 e7 3f
       0.017426978653617618 0.739439796584616
000300 cc 30 53 d5 5c f9 da 3f b4 66 67 fb e7 aa c9 bf
       0.4214698870898814 -0.200528142696205
000310 19 e2 21 a4 10 fe bf 3f b8 7e f1 e8 d4 24 ee bf
       0.12497047431123355 -0.941996054618321
000320 ab d2 0b ea 9b 29 ea 3f 1f c0 e1 c0 29 51 cd bf
       0.8175792285170095 -0.22903940122660146
000330 61 78 d7 74 8d 2c f5 bf 58 23 28 cc 49 32 b4 3f
       -1.3233770908477924 0.07889233812615026
000340 b8 f2 ae e2 45 80 d9 3f 6f 0f 6a 4c d5 f4 c5 3f
       0.3984541619973174 0.1715342162243547
000350 05 5a bc d1 fb fc d6 3f ab 57 24 36 e7 90 d2 bf
       0.35919089776999186 -0.29009418761540456
000360 12 9d bc 6e 8f 0a f0 bf 71 a5 2a 1b 85 a4 bb bf
       -1.0025781942038674 -0.10797912514921905
000370 62 9c 7f a3 f0 c1 67 bf 15 85 f2 3e d3 65 eb 3f
       -0.0029000949834770287 0.8561798314514443
000380 5e 06 85 11 2f 35 e5 bf 1c 4b 62 ab 59 34 d3 3f
       -0.6627421705417864 0.3000702069922896
000390 82 2b c9 c5 e6 3b b2 3f 33 81 03 b1 78 a1 bd bf
       0.07122652367358565 -0.11574510881064697
0003a0 f0 49 db 7b 2a 58 e0 bf ce 53 73 e2 a9 be e6 3f
       -0.510762445361534 0.710774366651657
0003b0 79 bc 4d e5 ee 18 be 3f f7 1e ac d2 7f 7c d2 bf
       0.11756795023187462 -0.28884883473845896
0003c0 ff e6 00 76 25 69 e2 3f 2e 8b ec 6e 45 b3 e3 bf
       0.5753352455860464 -0.6156336943134642
0003d0 7c b6 76 91 13 52 b3 3f 19 27 0f 2e 45 66 fe 3f
       0.07547113705978775 1.899968318861687
0003e0 ed 1d 19 2a 41 96 bb bf 95 06 a3 6f c7 36 cb bf
       -0.10776145246301612 -0.21260922385231554
0003f0 b5 f3 91 a9 33 a0 e2 3f 1f 1c 4e a3 31 11 f4 3f
       0.582055884544039 1.2541977290254704
000400 30 97 14 dc ec 47 ea bf eb 57 cd b1 79 85 e3 3f
       -0.8212799356885849 0.6100433800409041
000410 ab 7e 5b 92 c7 fc bf bf b9 59 ee 59 d4 91 e3 bf
       -0.12495086024454831 -0.6115514522996853
000420 a3 3e dc 7e 69 17 00 40 ac 49 5d 80 68 86 b8 3f
       2.011431685539564 0.09580090650459877
000430 f1 64 f5 21 60 72 dd 3f c4 28 e9 10 b4 ec 96 bf
       0.460105927622478 -0.02238732674803924
000440 1f 2d 61 80 80 64 c4 bf 45 e4 7c 1d cb 3f e5 bf
       -0.15931707638296985 -0.6640372825560311
000450 c6 f2 b8 cc b8 f0 c2 bf 12 56 08 55 80 91 e1 bf
       -0.147971248590599 -0.5490113888542416
000460 1b 13 db b8 fb 93 df bf bc 59 55 1c 95 23 e3 bf
       -0.4934071831924471 -0.5980935624491432
000470 22 a3 39 da 51 8b cf 3f 88 45 7a 10 50 e3 d9 3f
       0.24643920093083077 0.40449906930106083
000480 0b 3d bb b5 09 af da bf 74 6e bc a5 c6 cc d1 3f
       -0.41693346736151743 0.27812353310739657
000490 bb 09 57 ab c6 b8 e6 3f 56 f4 c7 13 77 dd e7 3f
       0.7100556704029296 0.745784319529444
0004a0 0b 3d 1f e9 56 6e c9 bf 2f 0b a6 b3 98 79 9f 3f
       -0.19867979414855372 0.030737291302567357
0004b0 70 8b bf 1f d4 00 d1 3f 4a a7 62 81 6a 64 7e 3f
       0.2656755743066048 0.007419982945217127
0004c0 f1 89 4e 8a de 1b cb bf 72 cc 27 c4 82 77 ed 3f
       -0.21178800347577423 0.9208387213860887
0004d0 1c 11 62 cf f9 16 d4 bf fc d2 b1 10 39 14 e4 bf
       -0.3139023328042343 -0.627468617064181
0004e0 71 e1 df 45 99 4b da 3f ca 09 04 bd d5 ce da bf
       0.4108641798370832 -0.41887420137950626
0004f0 f5 10 7f ee 71 f8 c4 bf 79 ee 7a 2b 9b 3a de bf
       -0.16383194108323776 -0.47232703443635377
000500 fa 14 8a cc 9a d4 e2 3f 38 58 97 93 27 82 ea 3f
       0.5884527201566521 0.8283880121841838
000510 63 b4 01 c3 e1 b9 e7 bf a0 a4 35 85 35 fb bb 3f
       -0.7414406594013027 0.10930189611612429
000520 32 71 62 16 7d ac e8 bf 3b 51 73 92 a5 6f f7 3f
       -0.7710557400892297 1.4647575112076783
000530 b2 a8 b9 18 df 08 da 3f e2 a4 5d 50 c2 47 e2 3f
       0.4067914716203048 0.5712596482891537
000540 89 77 34 f6 d2 a8 a4 bf 56 75 d1 2e c1 6f c8 bf
       -0.040350525430979785 -0.19091048036618002
000550 c6 fd 03 47 e2 8c c8 bf d9 2b 68 76 42 f9 f2 bf
       -0.19179943530615 -1.1858543992300297
000560 c5 c2 28 14 ca 70 e4 3f 58 ff 37 15 53 15 aa 3f
       0.638768233655434 0.05094394334810087
000570 9a 47 f5 5e 65 be d7 bf e2 0c 74 2b f9 91 ea bf
       -0.3709958484006336 -0.8303190087030112
000580 7d 83 ee d7 5b 2a ef bf 64 9d 31 4e be da f9 bf
       -0.9739207475105186 -1.615904145664751
000590 9d 1c 33 69 c1 87 b5 3f 01 0f 64 f7 ec 22 ee 3f
       0.08410271471358262 0.94176338499571
0005a0 58 be 12 6f 74 7d f1 3f 6f 6d aa 88 43 e4 d3 bf
       1.0931286181256805 -0.3108071169496815
0005b0 77 ac bd 81 74 5c f0 3f d7 7b e5 7d 80 23 dc 3f
       1.022572047043267 0.43966686529705384
0005c0 07 be 54 cd 0a 8d e3 bf 53 59 fe d6 b4 fb 90 bf
       -0.610967064892919 -0.016585183736958452
0005d0 43 15 f8 3e 31 29 e7 3f 49 e1 fb b7 24 a0 c0 bf
       0.723778365122293 -0.1298871897086065
0005e0 12 f0 bf 71 1c 86 dc 3f e1 5c b7 45 59 7c d4 bf
       0.44568549259543133 -0.3200896435568677
0005f0 0a e2 82 c3 8c 43 b0 3f 13 83 2d 2c 97 74 de 3f
       0.06353072903846893 0.47586612047420934
000600 73 f6 16 ea 17 b6 d3 3f 13 e5 96 9e df 58 d2 bf
       0.3079891000778396 -0.2866744087910586
000610 2c 99 dc 8b 49 ac eb bf 32 b1 92 41 74 75 e1 bf
       -0.8647811633752887 -0.5455876618121123
000620 25 6e 9c b8 5c 69 a6 3f 14 2b 24 93 79 59 da bf
       0.04377259973099638 -0.41171111459031917
000630 48 60 39 fa 82 85 f1 3f c7 6f fe 52 99 45 6a 3f
       1.0950956129436396 0.0032070154774838963
000640 96 1f 66 73 13 99 e7 bf 2a b6 af 76 40 09 de 3f
       -0.7374360326657434 0.4693146857306113
000650 52 1d b1 0f da 94 ca 3f c7 d7 07 8b d5 8f c1 3f
       0.20766759649471084 0.13720196999173437
000660 6c fe 85 c7 56 f0 f4 3f b7 c9 a6 f0 6d ba 91 3f
       1.3086765092738473 0.017312734425738188
000670 41 a1 b5 ce 1f dd db bf 40 1d 83 83 85 d4 e8 3f
       -0.43537135302041824 0.7759425705525373
000680 7d 98 c7 d5 3c d4 cb bf a9 bc fd bf 96 cd b3 3f
       -0.21741447866878963 0.07735578715595416
000690 7c 2f 7e b8 ac 9e d8 3f 5a 3b f6 a8 ed 10 d7 3f
       0.3846847345055193 0.36040822506122583
0006a0 a9 3d c3 99 7d d5 e1 bf e8 e7 46 62 e9 f0 e8 3f
       -0.5573108676125474 0.7794081611129942
0006b0 7a 83 88 59 58 a8 6e 3f e5 8d 94 da ce 4d ba 3f
       0.0037423825817914343 0.10274975620682587
0006c0 e9 31 01 eb 86 f5 ce bf e2 60 aa 51 69 96 e2 bf
       -0.24186789011800094 -0.5808607668905348
0006d0 6f 25 2e f3 83 22 bd bf e6 d6 3a 26 89 b2 70 3f
       -0.11380791365640673 0.004076514949408616
0006e0 eb b0 70 d4 8e 98 e2 bf 70 d0 64 88 a5 9a e1 bf
       -0.581122794077172 -0.5501277603093637
0006f0 d3 88 98 7b 4e 9b d2 bf cb 43 68 14 62 1f b8 bf
       -0.29072916097551377 -0.09422886846756666
000700 78 85 df e5 71 e4 ec 3f db 25 a1 b0 99 dd d0 3f
       0.9028863420209481 0.2635254120728782
000710 b5 ee 7b b0 5b 01 96 3f 64 b3 5e 1e db a4 de bf
       0.021489555975661562 -0.4788120075780198
000720 c8 49 67 1b 36 61 cf bf 68 ed 26 e7 eb 7f ab bf
       -0.24515415514049566 -0.05371033856087132
000730 86 85 b2 87 93 c4 de 3f 16 9d a9 80 78 76 f2 bf
       0.4807480645341332 -1.15392351397333
000740 f9 c6 58 bb 08 18 c5 bf 35 29 b4 59 9f 9c ee 3f
       -0.16479596278946199 0.9566189529444161
000750 87 d8 b1 af 23 b2 ee bf 23 6b a3 45 79 fd c8 3f
       -0.9592455321824368 0.195235404017546
000760 e9 89 9f dd df e6 e9 3f 1c 77 c8 c9 37 11 cf bf
       0.8094329193666542 -0.24271294930161325
000770 47 3f c3 12 ba bd c5 3f c9 f5 24 9b 20 c6 d2 bf
       0.16985250393053716 -0.29334273482149037
000780 ce 20 86 db 4a 21 b9 3f 0f b9 5b 72 0a 34 c0 3f
       0.09816425189467567 0.12658815940762522
000790 bc ac 98 83 02 84 e0 bf ad a1 3b d0 91 07 da 3f
       -0.5161144800416859 0.40671201071975355
0007a0 77 96 d9 d1 7b 31 b3 bf a9 31 ee ba 40 16 d2 3f
       -0.0749738108948693 0.28260820631910605
0007b0 97 3f 81 ae e1 46 e3 3f 26 a0 81 fb 6e 48 cf bf
       0.6024025352762575 -0.24439799576362126
0007c0 b4 c3 61 91 e1 24 d0 bf 28 15 61 14 c3 ee cd bf
       -0.2522510452027362 -0.23384893889503044
0007d0 6e 54 72 cf 77 e7 d0 3f 37 9f e1 e2 3d f4 ae 3f
       0.26412768610436543 0.06045716661975436
0007e0 a2 ef 31 94 e7 32 d5 bf f4 0b a2 e0 b4 05 c5 3f
       -0.33123197052167985 0.1642366501656337
0007f0 c0 f3 37 11 75 5e f3 bf 49 30 b5 7c 4f a0 ee 3f
       -1.2105608627891655 0.9570691524218172

linear.0.bias f8 [128]
000000 43 e8 1f 5c ea b6 b5 bf 5a 66 ba df 70 6a d4 bf
       -0.08482231854569115 -0.3189966378064121
000010 e1 4e 3d b2 78 89 ac bf 97 17 ef 08 d5 01 87 bf
       -0.055736324079274764 -0.011233963332312231
000020 87 2d 39 32 25 ee c1 bf 26 24 ae ee 64 33 67 bf
       -0.14008011772453363 -0.0028321238837105854
000030 80 08 bf e2 ff 56 d0 3f e0 4a cf 5f f9 08 e0 bf
       0.2553100313490475 -0.5010954734119331
000040 aa 5c eb 1c 48 92 b2 3f f4 0d 7d 28 87 82 c3 bf
       0.07254458147086731 -0.15242089726426367
000050 d7 4f f8 26 29 e9 c1 3f 33 4a 18 03 85 ea d9 bf
       0.13992800143080217 -0.40493893911585416
000060 c0 eb 48 30 bc 54 a5 bf 9b b4 1a e5 d8 60 bf 3f
       -0.04166210259832992 0.12257152169577738
000070 7f 6e 20 4c 9d a6 a2 3f 5d e5 1a 47 cc ec 9f bf
       0.03642741731911502 -0.0311767500304304
000080 bd 53 2b 94 a8 b6 b8 bf 05 c9 43 72 a5 7c bc bf
       -0.0965371476880383 -0.11127695121448163
000090 3c 62 aa 33 3d fd d0 bf c9 36 e5 1d 3c 9b d8 3f
       -0.2654564861818789 0.38447478217572645
0000a0 b4 f9 0d c1 a2 68 b1 bf 95 6b 65 52 ec 97 b5 3f
       -0.0680028649639784 0.08434941302895844
0000b0 0e 3f d9 f6 e2 99 bb bf 5b d8 f6 3f e6 1d cc bf
       -0.10781687285020444 -0.21966245768789147
0000c0 5b 0c 62 2a 57 d9 9e bf 2e d0 25 ef 3e 47 bf bf
       -0.030125963174679842 -0.12218087519232831
0000d0 c9 69 a0 32 4a fd b9 bf 22 8c f3 52 49 f2 d4 3f
       -0.10152114616395304 0.3272879896232458
0000e0 ff 3d db eb 31 09 9d 3f 4b 18 e6 cb 86 e0 d3 3f
       0.028355388660939337 0.3105790129851626
0000f0 53 1b c6 78 7f bc b3 bf e3 45 b8 34 a1 e5 a5 bf
       -0.07709500025349074 -0.04276756065895506
000100 99 6e 46 46 28 af d4 3f e2 44 10 d1 5d d8 b5 bf
       0.3231907545357245 -0.08533274034586527
000110 01 e9 ef ea a5 dd bf bf 19 7b 2d cd 34 d5 b7 bf
       -0.12447583184976808 -0.09309701928348736
000120 bc a4 33 57 cf 62 de bf 0f 9f df d2 96 ed c6 3f
       -0.47478087917131595 0.17912564560469277
000130 95 05 5e bc 05 0b bf bf eb fe ef 23 86 ec de 3f
       -0.12126193856058472 0.48318627843398926
000140 0d 63 15 1a c2 fc c4 3f f4 65 ef 1c 15 3d cc 3f
       0.1639635684357689 0.2206140891346845
000150 4b fa cc 5c 9c fb b8 bf c6 54 81 6a 65 7e de bf
       -0.09758927598611782 -0.47646460915468614
000160 9e 23 7a 00 f4 3c c8 3f 06 43 2e 59 1d fa a8 bf
       0.18936014197632017 -0.04878322328216282
000170 b6 0c 6a 5f 22 49 ca bf 9a 7c ec 44 e8 5c c6 bf
       -0.20535688074969521 -0.17471030583781016
000180 67 79 3e 22 ba 3a d0 bf fd 8a 85 22 6c 6f c5 3f
       -0.25358441681046034 0.16746284185054341
000190 8e 8e 04 7c c5 63 c2 bf 92 f9 48 68 ee 55 c3 bf
       -0.143669782214705 -0.1510599145130525
0001a0 ba 07 23 2d 7d 55 d3 3f f4 cf 08 93 67 ef e1 bf
       0.3020928326405926 -0.5604741927877499
0001b0 3a 13 bd 28 6a 21 d1 3f cb b1 b0 90 31 a0 65 bf
       0.26766447046638897 -0.0026398628301846686
0001c0 99 bd 56 f1 7b 94 d1 3f 40 fe e6 7c 0f b1 eb bf
       0.2746877533745305 -0.865363830518568
0001d0 e3 b3 3c 95 3b a1 c2 bf 11 6e f5 36 9d 4b e5 bf
       -0.14554543292015784 -0.6654802392399138
0001e0 a6 1c 5d 57 19 61 be bf 1b 39 5e 8a d5 f7 dc 3f
       -0.11866911299613267 0.45262659561639546
0001f0 a8 41 2b ab 65 97 6a 3f 82 ff 79 19 81 61 b5 bf
       0.003246019908466919 -0.08351904746996122
000200 e6 28 50 4d 43 ef b3 bf 3e 4c 8c 09 f0 7f c4 bf
       -0.07786961209800189 -0.16015434709751902
000210 ca 86 76 31 ac cf ce bf d0 3a 3a 59 ed 0e b2 3f
       -0.2407126657026793 0.07054027012257369
000220 f9 ba c4 15 1d 58 ce 3f 0f 0f 99 b9 85 4c d7 3f
       0.23706401408113445 0.36404555439752156
000230 0b 21 5c a0 17 44 c0 3f 58 75 be fb 5e 27 9f bf
       0.12707801179954745 -0.030423626055939706
000240 d9 42 80 8f d0 c6 d0 bf e1 d5 96 d2 44 f1 da bf
       -0.26213468564769254 -0.4209758812461058
000250 eb 84 3b b1 c1 57 cb bf 10 8a 3d 48 3e 6b d2 bf
       -0.21361561922007097 -0.28779561094975836
000260 72 a1 1a 72 74 b0 ce bf 49 fa 5e fb b7 32 c5 bf
       -0.2397599751614155 -0.1656103112599843
000270 c9 a6 2e c7 5c 2f 99 bf b9 d7 cb ae 8f 99 79 bf
       -0.024594735772246055 -0.0062499630555432
000280 8f 67 72 3d a1 07 ae bf 19 f9 1b 53 9c 49 ca 3f
       -0.058651961088982955 0.20537141855306443
000290 13 04 fa c1 cc 4d b1 3f 39 35 89 01 c1 fa 9a bf
       0.06759338126904905 -0.026347175329921788
0002a0 fb ee d7 1e f3 9c a5 3f 28 42 1e 39 09 22 63 bf
       0.04221305610187006 -0.0023355655802748294
0002b0 d8 a1 cb 60 93 c8 b0 3f f8 df dc 5d df 2a dd 3f
       0.06556054223222618 0.4557417313221772
0002c0 e0 b8 33 95 ba 0a b1 bf 8a ff 4d 54 ae ef e1 bf
       -0.06656995909336016 -0.5605079313827315
0002d0 9c bc d1 0b a0 1c a6 bf c8 f3 22 1d d1 9e d3 3f
       -0.043187142794402805 0.3065684113060425
0002e0 4f 41 ec 08 13 9a c3 3f 10 1d d4 2c 64 15 b2 bf
       0.1531394761627873 -0.07063890547225449
0002f0 f8 8d 1e 16 1b 95 ab 3f d0 32 ce 03 a9 75 9a 3f
       0.053871962022892406 0.025839463097826976
000300 7c 9c 40 d9 1d d1 d8 3f 7a 5a 6c 3b 9b d5 c4 3f
       0.38776346412709706 0.16276874925161505
000310 cf 4b ab a4 48 1c b5 3f 27 05 7e 68 77 1d b0 3f
       0.08246282596819231 0.06294962216454235
000320 bd b8 b6 db 85 f7 c1 3f e4 7c 88 ac 60 50 ca 3f
       0.1403662989445759 0.20557793068380825
000330 72 98 c8 aa 8b 25 ca 3f 04 f0 87 ac 60 b4 c9 3f
       0.20427080000917247 0.20081718849530727
000340 08 84 97 16 28 35 dc 3f 93 6b 38 2b 56 b4 c5 bf
       0.4407444210647218 -0.1695659361874645
000350 b8 b7 c8 c7 77 b1 60 bf 91 0e d9 54 50 aa cc bf
       -0.0020377482853950156 -0.2239475645347864
000360 cb aa 34 7a 88 b1 e1 bf a1 c1 a7 18 02 83 a0 bf
       -0.5529215227919279 -0.03224951315849301
000370 20 e3 92 fc e6 44 7f 3f cf e3 ae ec a5 41 e3 3f
       0.00763406972071648 0.6017636893003501
000380 fd ce ff c7 10 a6 bd bf 3a a9 78 a9 cd ff d8 bf
       -0.11581520922464601 -0.39061299848494324
000390 cc 1a c3 9a 40 5a a2 3f 1c 99 0b c3 23 0e c5 bf
       0.03584482087312821 -0.1644940092439321
0003a0 69 3f b9 7e 1a 38 c7 3f 92 bf df fc 89 02 a9 3f
       0.18139964282681412 0.04884749614563967
0003b0 d8 88 6b 6d fd 96 90 3f 02 97 5a 15 ac 5f b2 bf
       0.016200980952711358 -0.0717723419316734
0003c0 7f 9a b8 3e 1f f3 d8 bf 63 03 8e f5 2c 0e c1 3f
       -0.3898389923582854 0.13324510564782618
0003d0 d0 42 03 aa 10 d4 b9 bf 1c fd e8 23 91 a6 99 bf
       -0.10089210653974168 -0.02504946500471049
0003e0 f1 fc 2d 34 d7 31 a3 bf 3c 6a fd 3d 0c 4f d3 bf
       -0.037489628905854284 -0.3016996960992946
0003f0 3a 49 45 4f dd fb be bf a6 83 f2 da cd c1 b0 bf
       -0.121030647137819 -0.0654572162188872

linear.2.weight f8 [128, 128]
000000 b9 c9 d0 d1 a5 dd ad 3f e4 06 16 d8 29 bf c7 3f
       0.05833166300034826 0.18552134562565137
000010 b0 5e 2f 7b e5 5e c5 3f 21 29 47 68 79 cf a0 bf
       0.16695850863356076 -0.03283290288853125
000020 35 74 73 a6 08 ce 7a bf fb 7a b2 30 de b5 d1 3f
       -0.006544145383682799 0.276725337558602
000030 eb da aa 15 2d 6c 8a 3f 84 83 e6 bf 5a 9a 95 bf
       0.012901642059075033 -0.021096628153489685
000040 4b 1d 0c 37 7b aa ad 3f d5 fd b3 0a eb 6c a2 bf
       0.05794129416431789 -0.03598722940114
000050 4c 5a f8 ff 04 54 98 bf f7 9d a9 54 25 d7 63 3f
       -0.02375800907437968 0.0024219254603854395
000060 d2 1c 4a f7 aa ba c2 3f c5 d0 78 82 20 3b b0 bf
       0.1463216502636216 -0.06340220628118505
000070 58 75 88 e4 d3 32 c0 bf 3a 65 6d 2a ab bc ba bf
       -0.12655113848533506 -0.10444135461638818
000080 f5 41 cb 0c b4 15 b3 bf bd 79 9a 8f 3d 43 bf 3f
       -0.07454991638520155 0.12211975818579553
000090 32 3f 00 c0 6a 81 bc bf b3 eb 06 0b 12 f3 99 bf
       -0.11134974658511679 -0.02534130279830622
0000a0 fa b0 19 ea b7 27 93 bf 9a f4 a1 2f e0 46 84 bf
       -0.01870620123229203 -0.009900809720642823
0000b0 f5 7d 21 44 06 09 bb bf f6 a6 e1 63 76 0e a2 bf
       -0.10560645259237574 -0.035266589825210845
0000c0 66 fe aa ba 36 2e a7 bf 19 4e ee ec b0 99 c2 3f
       -0.04527445820485525 0.14531528061762414
0000d0 88 42 e7 86 35 10 8f bf ac 85 d6 b0 53 c1 9f bf
       -0.015167635135101123 -0.031010921161969726
0000e0 cb e3 21 2c c5 80 ce 3f 9c da a4 c7 01 56 c6 bf
       0.23830475478078336 -0.1744997238945033
0000f0 1c f2 31 f1 93 dc cb bf 5a 2a 45 52 2f 66 b7 3f
       -0.21766900326828498 0.09140296705769782
000100 91 bb 2f 2a 9d 9a c2 3f 54 47 44 ec 90 9b c0 3f
       0.14534344253430878 0.1297475007673322
000110 7c 12 b6 5d 2d 28 cb bf b8 d3 d7 cc 1d 31 c2 3f
       -0.21216361118071692 0.14212391378501166
000120 05 24 c0 bc 43 21 b9 3f c1 8d a4 82 9c 68 ad bf
       0.09816382749717441 -0.05743874640236469
000130 20 00 29 3c 86 da a9 bf 0a d6 95 44 1d ce a4 bf
       -0.050495333522576624 -0.04063502752516619
000140 1c 12 0e ce 17 9c ab bf fd ae ef 32 82 7c c5 bf
       -0.053925269988244845 -0.1678622006141878
000150 17 bb a7 73 75 2e 91 3f a6 e3 50 63 01 6e ca bf
       0.016778788742097008 -0.20648209905064369
000160 19 76 ad 66 47 63 ba bf fb d9 93 b2 54 99 bb bf
       -0.10307737595345436 -0.10780839309504835
000170 47 0d 79 1c 52 10 ad 3f 0b e4 7f ba ab 99 d1 3f
       0.05676514241761282 0.27500432217453924
000180 54 6a 9f 45 53 41 c8 3f 75 dd 47 a6 b4 fa d0 bf
       0.18949356936976136 -0.26530185926772926
000190 48 dd 7a 95 70 4d c8 3f 80 d2 53 77 e8 b9 94 3f
       0.1898632745630755 0.020240433009308223
0001a0 90 16 f2 0f aa 8b c1 bf 50 de e4 cd bc 19 cd bf
       -0.1370747163638737 -0.22734794667643365
0001b0 67 44 e1 1b ef 19 bc bf 25 78 12 68 3a 3c 9a 3f
       -0.10977072172797052 0.025620377161082914
0001c0 35 83 54 46 da 31 b5 3f fa c2 02 d4 cf d6 a1 3f
       0.08279194085163229 0.03484200919172582
0001d0 96 e5 05 fd 7b 64 b9 3f 15 c4 ff 52 3d 0e b1 3f
       0.09918951918907334 0.06662352825493685
0001e0 14 94 4e 14 f3 1a cc bf d2 b4 34 40 fd de b2 3f
       -0.21957243434476992 0.0737150460961005
0001f0 e3 58 c5 37 11 96 9e 3f 22 00 35 75 4c 03 88 bf
       0.029869336155876957 -0.011725041701197429
000200 19 e9 47 c6 ab 7f 85 bf b8 b5 24 4e 84 69 a9 3f
       -0.010497419346382974 0.04963315442942523
000210 dc 56 2b 7f bc a9 c2 bf 8e 95 fe be c1 5b ac bf
       -0.14580494126737775 -0.05538754898524721
000220 81 3a 07 8d e0 3e a1 bf eb c5 ae 6e f6 05 b9 bf
       -0.03368283959899988 -0.09774723245825327
000230 49 7c 46 f6 41 3c d4 3f a0 20 98 81 78 b3 b3 bf
       0.31617783594441967 -0.07695725597307268
000240 42 15 2c b6 67 c1 c5 bf 9f 83 f4 ec c2 38 aa bf
       -0.1699647559654896 -0.051214305329501324
000250 c0 9e cb 2f 0d 46 9c bf d9 1b ce cc 7f 89 c1 bf
       -0.027610975305747187 -0.13700864315271025
000260 90 47 8d fe bc 6f bb 3f 21 08 92 22 68 28 a0 3f
       0.10717374052663176 0.031558279247306815
000270 a0 34 d4 54 68 fc b7 3f d5 d7 e9 2a 5e 37 9b 3f
       0.09369518347758055 0.02657839905665312
000280 01 d4 09 27 94 b5 a6 bf 21 65 b0 a5 7c 11 b9 3f
       -0.0443540856985365 0.0979230789675012
000290 e5 19 d2 d8 5b 51 c3 3f c1 79 28 08 2f 37 6d 3f
       0.15092037283848395 0.0035663527098812324
0002a0 ef e8 54 09 79 4d c1 3f db 6b 46 4b d5 18 a5 bf
       0.13517678218506243 -0.04120508712659162
0002b0 3c cb 11 a1 15 c9 cb bf 3b bf 8d a5 f8 b2 94 bf
       -0.2170741116020397 -0.02021397123775091
0002c0 27 15 f0 e0 be 3a c3 bf 37 af 13 52 1f 5b b5 3f
       -0.15023027404110076 0.0834216666586912
0002d0 90 b5 a0 a9 4c 1f b4 bf 78 96 b0 f6 e8 6e c0 bf
       -0.0786025919084834 -0.12838470502281374
0002e0 d5 ac a0 b1 65 d0 cd 3f ac dc 8f db e9 f9 bf bf
       0.23292227910255883 -0.12490712747954785
0002f0 4e 4f 1a ec 17 3a 89 3f 05 5a d9 9e 69 5d d1 3f
       0.012317835705551918 0.2713264514217431
000300 db f8 3c 9a a0 42 b1 3f 4b 77 cc e3 57 62 b8 bf
       0.06742290273266198 -0.0952505999707373
000310 dd c8 6a c2 df 1f c4 bf ef c5 bc f9 ad a8 94 bf
       -0.15722271912597466 -0.020174711578141154
000320 92 b7 1a b0 46 18 d0 bf 4b b7 b3 d8 76 e6 81 bf
       -0.2514816970605064 -0.008740356910916033
000330 b9 8c 3f 2a 46 1a c5 3f a7 98 f2 67 64 08 a7 bf
       0.16486432135488885 -0.04498590248958694
000340 d3 d1 b2 10 32 ac cb 3f 0e 23 46 0a 7b f6 97 bf
       0.21619249167782914 -0.023401186468194494
000350 96 48 b9 1b e9 88 9d bf 7f e9 98 d4 e8 7d 92 bf
       -0.02884258491241861 -0.018058431602392396
000360 e0 b1 a2 c3 cb 49 c1 bf 0d 90 0f 08 9d c6 95 3f
       -0.135064573788795 0.02126546251010102
000370 89 da 10 db 2f 34 d1 bf d2 af 52 83 7f 69 b4 bf
       -0.26881023781917485 -0.0797347732174665
000380 98 c0 f5 60 12 06 9c bf b1 ed c4 88 92 72 c2 3f
       -0.027366912048308295 0.1441214721506703
000390 0e 15 52 ab 11 14 b4 3f 87 b2 9b 8c 4c 2f 83 3f
       0.07843122894890461 0.00936755947210456
0003a0 2e 5d 03 4d 65 83 cc 3f 30 86 03 9b 03 57 c0 3f
       0.2227598787346578 0.1276554591086536
0003b0 67 bd 0f c9 e9 01 c4 3f a4 d4 db 49 e3 d9 ca bf
       0.1563083869691397 -0.20977440935499658
0003c0 01 69 fc 91 70 94 b5 3f ca ca c9 9b a4 58 c1 3f
       0.08429626049147389 0.13551766974304363
0003d0 b4 21 e9 f1 d2 3a c4 3f ae 16 cb 7c 58 8a bf bf
       0.1580451661304899 -0.12320473715507305
0003e0 59 5b ed c1 67 b5 c1 3f f3 d3 9a b3 e5 32 c5 3f
       0.13834855050182673 0.16561576146855791
0003f0 a4 e9 4f 3a a4 f1 8b 3f 41 a9 33 a9 a6 91 aa bf
       0.013644488362832892 -0.051892479090229766
000400 47 dc fb b8 4e f3 bd 3f c0 8a 08 9b 34 aa bd bf
       0.11699382797438417 -0.11587837967867198
000410 e0 46 70 f0 8d 3b a4 bf 70 9f 23 26 bc 90 bf bf
       -0.039516864395535256 -0.12330223017818098
000420 e4 12 37 f7 ca f0 93 bf 58 e5 5e 10 45 98 9a bf
       -0.019473239268125733 -0.025971488117396774
000430 cf d9 ea c2 82 b1 78 bf f8 6b 9f 24 74 8c b3 bf
       -0.006028662478163984 -0.07636190313444036
000440 06 13 eb bf fb 59 bb 3f d9 90 a2 29 9a f4 c8 3f
       0.1068417876768529 0.1949646666809091
000450 ec 2e 00 44 f4 e6 76 3f 44 34 0e 4b ac 9e c6 3f
       0.0055913488031469165 0.1767173162919865
000460 74 e7 1b 39 16 31 ab 3f 3a 8e bf 42 6e 58 af bf
       0.053108877631486445 -0.061221547744733276
000470 5c 97 ac bf b1 c4 97 bf fb c7 86 a2 c8 0b 7a 3f
       -0.023211266826499752 0.006358894090611851
000480 24 52 f9 b5 f8 8f cb bf 03 24 29 26 c3 92 93 3f
       -0.2153311623138886 0.01911454124845947
000490 ad ee 2a c1 d3 1c c7 3f 3d 90 72 ba 81 f6 ba bf
       0.1805672352983171 -0.10532389451924558
0004a0 da cd b6 02 3e ff b3 bf 7b 0a 72 ae 39 c6 a4 3f
       -0.07811343733083423 0.04057483915768941
0004b0 04 33 55 11 71 70 bb bf 68 d3 62 cf 1b 0f b9 bf
       -0.10718447373546885 -0.09788678944717122
0004c0 da 5b f1 ae 38 77 ba 3f e0 ca 17 3d bb 7f b5 bf
       0.10338167449059146 -0.0839802765038189
0004d0 7b 6b 49 69 27 4e b0 3f 21 cc 91 c8 95 71 c7 bf
       0.06369253464201378 -0.18315384190972941
0004e0 9e a6 67 57 80 f1 94 3f ca b3 83 03 bd 3c be 3f
       0.02045250447728241 0.11811429343988702
0004f0 7e 21 44 ac 9c af ae 3f a8 03 37 7f 5e 32 c8 3f
       0.0599335632596789 0.18903714381852166
000500 a0 4f b6 1f 5f 46 af bf f1 86 79 c2 ad f3 b9 bf
       -0.06108376752959477 -0.10137449262540678
000510 a6 f9 6a 21 ef 1d c0 3f dd 91 60 65 50 a1 a6 bf
       0.12591351634723685 -0.04419947850718462
000520 fc 5c ab fd 49 b6 ad bf 2f 2c e2 37 67 51 cc 3f
       -0.058031379905225194 0.22123422840772508
000530 2f 81 68 20 3d a0 c9 bf 99 00 f9 13 7c d8 b9 bf
       -0.2002025993579166 -0.10095954406370068
000540 25 50 1f 47 10 86 83 3f 18 72 77 68 e7 af b8 3f
       0.009533049746018272 0.09643408108190277
000550 98 75 2c cb de 6b ca bf b1 43 32 97 ec bb c6 bf
       -0.20641693993176768 -0.17760999090799381
000560 84 b8 8c 69 3b e0 a2 bf 0b a7 f2 e0 9f 52 be bf
       -0.03686700499962206 -0.11844825021639964
000570 02 32 d9 e9 10 8f ca bf 6d 6d 32 25 ad c5 b4 bf
       -0.20749102991466378 -0.08114130170945595
000580 0d a6 cb 65 e4 67 c7 3f 61 d5 f9 dd 3f 49 8f bf
       0.1828580376671173 -0.015276431047122232
000590 7a 54 3b 16 3e 10 be bf f6 67 7c 35 f5 87 86 3f
       -0.11743534128921054 0.011001506514322284
0005a0 23 33 3e f8 23 9e b0 bf 47 50 47 13 bb ea 97 bf
       -0.06491303263301211 -0.02335636429945989
0005b0 6f e3 99 e1 bc 07 b7 3f 2c 08 4f 83 c1 cd ab bf
       0.08996181972351079 -0.05430416801347379
0005c0 76 24 eb c9 ca e4 9e 3f a2 4e 6f a3 3e 01 c9 bf
       0.0301696477643287 -0.19535048465933352
0005d0 25 23 f1 e4 15 b8 c7 bf eb a5 62 b6 3a 20 b9 3f
       -0.18530534437948024 0.09814803078429406
0005e0 9e 4f 44 a4 f5 2a c0 3f db a2 1c 98 03 29 c9 3f
       0.12631102104989805 0.19656414916359818
0005f0 99 6d 27 8b fe 3d ab 3f 78 96 78 1e 3d c9 b7 bf
       0.05320735405595229 -0.09291440957948705
000600 c0 14 87 e7 e1 4b 9e 3f 4c c7 02 ed 87 64 c6 bf
       0.029586343532874038 -0.17494296143336852
000610 d9 19 2f f3 df cb ba bf 31 ee b0 42 bb aa bc bf
       -0.1046733826361569 -0.11198015573693777
000620 59 43 0d 72 99 26 ba bf 85 3e f6 dd 61 99 67 bf
       -0.10215148004978171 -0.002880755564269868
000630 a6 f1 5b 01 96 27 b8 bf 8b 37 3f 00 a8 ae a6 bf
       -0.09435403378660698 -0.04430127146734638
000640 1e 52 2c 13 3a b3 c1 bf 33 53 5f 48 cc 3b c3 bf
       -0.13828206955135242 -0.1502623895054512
000650 ae 05 4f 8e 69 62 c1 3f 87 4b bd 2c 6b ea a8 3f
       0.13581580589929615 0.04866347237716356
000660 a2 97 62 db 15 86 a9 bf c4 2f a7 ba 1e 0e af bf
       -0.049851115255747716 -0.06065460232238665
000670 8b 14 ef 00 58 ad a8 bf a4 1b ed 48 ef 5f bb 3f
       -0.048197507966997476 0.1069325974504936
000680 3d 65 29 b1 3e a0 a9 bf 44 a5 7d 7e 2b 65 b9 3f
       -0.05005069649332448 0.09919998014597292
000690 50 5a 5f c2 f0 32 9b 3f 2b 2a 97 03 28 69 bc 3f
       0.026561509955934703 0.11097955787332896
0006a0 c4 69 a5 90 a5 b2 b8 bf 75 3f e0 d0 f3 84 be 3f
       -0.096475932897568 0.11921619271765656
0006b0 e3 5b dc 1d 26 45 b5 bf 4a a9 b1 23 5b 47 be bf
       -0.08308637837431791 -0.11827630635676659
0006c0 2b 3e 0a 7e ef 1e ba bf 62 f5 fb ca 14 5f 8f bf
       -0.10203453852795323 -0.015318071789347246
0006d0 46 a1 64 4d 58 d9 97 3f 9d a4 4f 50 0c 8c bb bf
       0.02329004261369618 -0.1076057144233737
0006e0 53 14 3c 9e 79 6c c9 bf 44 06 6c b4 a0 08 b0 bf
       -0.19862289644530282 -0.06263164906342761
0006f0 f1 7f 15 3f 1c c6 a4 3f 3d a5 d3 7c 5d 7a c5 bf
       0.040573961926156595 -0.1677967891221587
000700 50 92 a6 22 f8 f7 c3 3f 6b eb 1c 71 38 a1 ac bf
       0.15600492183615922 -0.05591751461766744
000710 26 c8 48 e3 72 d3 bd 3f ee d8 d0 14 71 1a b3 bf
       0.11650770234044269 -0.07462221868704308
000720 b6 de 1f 20 b7 04 bb 3f 6b 45 3a 9c 79 a2 be 3f
       0.10554070028581006 0.11966667236472055
000730 a9 7a a5 11 16 16 c2 bf 25 6b 72 15 0e 79 bb bf
       -0.1412990175403668 -0.10731590293509592
000740 18 0c a6 90 a0 19 cc 3f 63 a7 1d 82 43 e5 95 bf
       0.21953208029671667 -0.021382384125366537
000750 fc 1d fa e1 bb 28 78 3f 8c 3d 63 b8 3a 2e 6a bf
       0.005898221890340501 -0.0031958720092927825
000760 12 b6 ea a0 bd a6 c8 bf c8 dd 5b 91 84 84 c1 bf
       -0.19258852345721827 -0.13685662362671125
000770 73 0d e0 16 e8 bf b4 3f 1e 97 75 7c 7e 6a 93 3f
       0.08105326231457415 0.018960930200953567
000780 ba 8a 66 d4 bd 80 90 bf 74 ba f2 ca 7c 69 b2 bf
       -0.01611610993280508 -0.0719221110800648
000790 72 a5 0a 75 08 2f 95 3f 98 3f fe a9 10 3d 76 3f
       0.020687229293490934 0.005429329961671579
0007a0 5a a3 13 e4 05 17 af bf ae e7 e7 22 03 d1 8e 3f
       -0.060722526637454435 0.015047096731894385
0007b0 3e f0 57 22 11 69 c3 3f 7f b6 ed d9 e3 97 70 3f
       0.15164388825349023 0.004051103633953112
0007c0 9d 33 7a 31 d6 d2 b0 bf bc d8 59 3f 5c 77 b5 bf
       -0.0657171126169502 -0.08385254427580241
0007d0 f5 1f 72 af 75 23 ca bf 9f 44 d3 44 da 5e c9 3f
       -0.20420714441956958 0.19820717201813395
0007e0 e7 d6 ad 94 67 fe 92 3f aa 88 67 46 86 03 9d 3f
       0.01854860157933205 0.028333757445473985
0007f0 d3 e4 19 86 47 1f b3 3f d5 01 71 f2 88 27 bd 3f
       0.07469603561357312 0.11388450545292213

linear.2.bias f8 [128]
000000 d2 dc 33 b9 66 68 cf 3f 04 18 0a d5 9d 2e c4 bf
       0.24537357371420981 -0.1576726236564242
000010 e9 2d 97 6d d2 3a d2 bf cd 7e f6 fb 24 86 d9 3f
       -0.2848402090282592 0.3988125286650586
000020 44 2b c9 68 b0 54 bf bf 59 4d 36 dc 7c 9d ba bf
       -0.12238600309607955 -0.10396557213089376
000030 5d 45 bb 08 3b 27 a9 3f b9 6e 2d d8 32 cc c4 bf
       0.04912743074022317 -0.16248164706745685
000040 5f df 90 eb 68 95 d4 3f d9 0c ac b1 1a 26 ac bf
       0.32161925320132484 -0.05497821253632091
000050 05 83 29 d1 71 ea d1 bf b9 38 95 f6 17 54 a9 3f
       -0.2799343626593756 0.0494697083000672
000060 1e 01 37 73 2c 50 c3 bf 9b 08 8f fb 24 56 a7 bf
       -0.15088420510984063 -0.04557910509858339
000070 2b ca ce 7f a1 99 d6 bf 49 2a f4 46 e3 b7 db 3f
       -0.35312688332774894 0.433098620692054
000080 6e b2 9f 00 f0 8d ae 3f d3 1b 15 7f ff f1 b1 3f
       0.05967664725890108 0.07009884693717021
000090 e7 2d eb 26 1e 77 d6 3f bc 99 d9 00 44 67 d6 3f
       0.3510203723969582 0.350052834348755
0000a0 e1 54 e4 3b 7b 57 ca bf 76 ed d4 14 db 4c d1 bf
       -0.20579471992883838 -0.27031590494490076
0000b0 a9 2a 73 36 2e d8 c0 3f 43 74 e1 e3 05 83 d9 3f
       0.13159730585751575 0.39862200979206736
0000c0 3d 15 e1 e0 07 86 b0 3f 73 97 03 9a cc d3 a2 3f
       0.06454514732566437 0.03677214984945367
0000d0 e2 58 d2 a1 0f ff 73 bf de d9 19 6b 3f 48 ab bf
       -0.004881917059853276 -0.053285581420755554
0000e0 24 31 50 eb 94 ef da 3f ff fd 9b a7 48 57 d6 3f
       0.4208729074459987 0.3490773808298115
0000f0 24 44 70 e5 c3 f5 d2 bf 0c 24 95 5c ca bb b8 3f
       -0.29625031858546635 0.09661545524899412
000100 9d d5 f8 de 10 80 5a 3f de 8e 4e 4e a1 f4 cb 3f
       0.001617447352953639 0.2184030182225944
000110 8f 5c 97 d7 6a 0b 90 bf d8 23 48 e0 70 bc ce 3f
       -0.015668553742071153 0.24012576056727997
000120 da e3 86 71 fc f6 c8 3f d9 bd b7 29 d8 b1 d9 bf
       0.19503741782480583 -0.4014797599220095
000130 f3 a8 fb b0 fd 3a c5 3f cf cf 64 b8 e6 25 a1 bf
       0.1658627618956597 -0.03349228859806851
000140 d2 89 c4 be ed 57 ce bf 22 43 d6 37 69 d4 9a bf
       -0.23705837073164432 -0.026200908692376797
000150 5b c6 dc 69 46 85 d4 3f 92 e0 c3 a8 38 b3 e1 bf
       0.3206344636738316 -0.5531276031679389
000160 49 11 b2 22 a8 ce 85 bf 20 fb d4 4d 31 5d bb bf
       -0.010648072775673827 -0.10689075613207111
000170 55 64 76 f7 47 94 c3 bf ad 9c 98 9f 13 2d d4 3f
       -0.15296268065574972 0.31525126061974157
000180 67 22 8b d1 ea 7e e7 3f 29 86 73 f5 84 f9 a2 bf
       0.7342428295751916 -0.037059931719124535
000190 98 06 8d 71 9f 60 b6 3f 3d 39 bd ce 2c 01 e0 bf
       0.0874118473266442 -0.5001434362291445
0001a0 9f 37 76 7d dc 9d 9e bf 24 52 1a 56 b0 aa ac bf
       -0.02989906802900288 -0.055989752302739754
0001b0 43 a0 b3 e3 a5 07 b4 3f 1d bd 3b 3f 47 ea d6 3f
       0.07824169930575046 0.3580492131722666
0001c0 a0 ab 43 09 7d ac da 3f 1d 68 14 71 da fc d0 bf
       0.4167778578254744 -0.2654329399389342
0001d0 b3 f7 d2 d5 21 dd b9 bf e2 b7 ce d5 d3 6d d1 bf
       -0.10103045912089108 -0.2723283374751856
0001e0 71 a7 3f 99 8d e1 d7 bf d8 4d 26 5c 84 55 c2 3f
       -0.3731416698998294 0.14323477267735885
0001f0 86 88 0d 7f ea 4f d5 3f e1 1e 1f 4e 10 a0 b5 3f
       0.3330026856184606 0.08447362811341065
000200 71 94 71 51 7f 26 b5 bf c7 5a 04 8b ed 74 a8 3f
       -0.08261867273684388 0.04776708909974086
000210 15 f1 5b ec a2 0d 90 3f 1d d2 af 42 6d 23 b2 bf
       0.015677018810479632 -0.07085307005019854
000220 25 0c df 66 d1 13 dd bf 7d 5f 89 b7 c3 8c e0 bf
       -0.4543345932581267 -0.517183168859432
000230 6b 70 a5 e1 29 95 c7 3f 28 e8 4d ff 17 8a 61 3f
       0.18423961179621826 0.0021410435387539013
000240 04 7d e7 dd ad 6c cf 3f 82 6e a5 f8 c1 e5 a8 bf
       0.24550412497681162 -0.0486279121421065
000250 42 3f 0a 0e 53 85 d5 3f 5d 8b 97 85 99 c7 a6 bf
       0.3362624775991102 -0.04449157481919628
000260 c2 df f1 b9 27 42 d4 bf c6 9c 88 94 14 be d3 bf
       -0.31653779181169395 -0.3084765863918161
000270 ee c8 e7 79 78 57 b9 3f 0b 0b 9e 73 a5 d0 b1 bf
       0.09899094558912555 -0.06958993981065136
000280 5a 49 7f 15 6a 0f c9 3f 66 14 cb cf ec 0f d2 bf
       0.19578290986698726 -0.2822219876509905
000290 4b 6d 3e f7 9b 2e c7 bf 77 0b 4a 16 00 56 cc 3f
       -0.18110990116552225 0.221374522097985
0002a0 55 78 cf 68 cf ee a6 bf 14 04 40 7a 54 22 cd bf
       -0.04479072718071168 -0.22761016816369362
0002b0 0a 19 6a 34 56 5a b5 bf c7 ba e4 90 61 5c cc bf
       -0.08340967921876455 -0.22156924795986851
0002c0 c8 6b 7e 39 68 da b2 3f a7 ad 1b 79 03 ee b3 3f
       0.07364512828500758 0.0778505488084905
0002d0 1d c0 e8 9b a2 11 d1 3f 5b 53 31 42 28 b7 ab 3f
       0.2667013666678047 0.05413175399795619
0002e0 1c b1 dd 83 30 de ac bf 4b 5b 30 ff e5 4c 7b bf
       -0.05638267144863304 -0.006665132928012361
0002f0 b9 f9 b0 78 66 66 ce 3f a9 fb 83 47 a6 f3 af bf
       0.23750000851755518 -0.0624057733821169
000300 ba bb 34 62 8c c8 ac 3f 23 fc 5f 93 7e 16 ba bf
       0.05621756266406615 -0.10190573785801908
000310 3a fa 91 70 23 f6 b0 3f 91 97 6f 94 e1 f5 b0 3f
       0.06625577448173994 0.06625184892581461
000320 7d 3f 18 53 84 48 91 bf 38 3e 56 76 12 b4 c9 3f
       -0.0168781924931518 0.200807864934619
000330 a6 d7 cb b8 e1 60 4c 3f f7 aa cf a4 39 66 d3 3f
       0.0008660413892289567 0.3031143292889022
000340 40 a4 47 17 37 2e c1 3f b5 fb 2a 3c f9 49 d5 3f
       0.13422287594520022 0.33263998866817285
000350 f4 0a 1b 2d af 32 cb bf 1b df 34 47 7a 4d a2 bf
       -0.21248426153586986 -0.035747357551768576
000360 57 46 cd 19 5f 4e ae 3f 42 91 b9 4b 19 f3 b7 3f
       0.05919167699779553 0.09355314348937774
000370 ca 1e ba f3 b3 4b c3 3f 50 67 c6 04 21 30 a0 3f
       0.1507477703164482 0.03161719497002358
000380 54 bf e7 38 1e 6d d9 bf e8 bb 16 20 72 22 a6 3f
       -0.39728503758577927 0.043231550614443226
000390 dd d2 ba f7 ca 8c b6 bf d1 8a 1f 02 a1 58 c6 bf
       -0.08808582828607876 -0.17457974055931527
0003a0 52 41 1e 56 45 8b d4 3f 28 c6 ca 0e 75 33 d3 bf
       0.32100041780451705 -0.3000157017187086
0003b0 d1 75 8e e0 f1 06 8f 3f 87 69 c5 b0 3e 4c bf bf
       0.015149964967174608 -0.12225715461446472
0003c0 51 6d 6a 38 7a 80 c9 bf 1d 1f aa 3e 31 e3 e0 3f
       -0.1992333198039469 0.5277334426800483
0003d0 0f fc fd 12 9e 53 ce bf 9f 74 8a df 92 3b c8 3f
       -0.2369268028960225 0.18931804575996566
0003e0 70 37 02 43 99 0b cd bf 91 7a d9 f1 7a 5f cf bf
       -0.2269164635840144 -0.24510132607516202
0003f0 43 0b ba 91 5e 23 a3 3f a1 9f ae 2a 13 4b ba 3f
       0.03737922219172287 0.10270805160564446
