run/pinn_model.pt (torch, 275748 bytes, 8 tensors)

linear.0.weight f8 [128, 3]
000000 3e f9 b3 d6 43 c7 f6 3f 5a 75 7d 88 62 85 02 c0
       1.4236486803852837 -2.315129343346297
000010 b0 30 d9 15 d3 1d 89 bf bf 2f d3 ea 6d aa be bf
       -0.012263917068729618 -0.11978804572134914
000020 51 0b f2 47 3d 55 0b c0 5a bc 4b 53 37 b9 ff bf
       -3.4166207905522374 -1.9827187780135973
000030 33 6f 5f cb 33 44 fc 3f db 9c f8 d5 bf d3 d3 3f
       1.7666509575128202 0.3097991551935146
000040 ff 11 b3 af 98 b7 0b c0 d5 92 2c fd 43 fe 04 40
       -3.4646466948054235 2.624153116152551
000050 9b d4 49 38 43 f2 00 c0 61 e0 29 91 37 88 11 c0
       -2.118292274239662 -4.383024471455514
000060 bb 24 ca 0d f2 9e 13 c0 43 6e e6 3a 38 59 e1 3f
       -4.905220237219676 0.5421410704033821
000070 9d 28 c6 62 aa 38 0b 40 b6 c8 47 05 83 07 0e c0
       3.4026687351916522 -3.7536678707629916
000080 a1 43 cc 56 26 3b c7 bf 06 20 86 de 59 53 10 c0
       -0.181492607480803 -4.0813975114215335
000090 4a fd ee 75 5b b7 d4 3f e0 01 c7 d7 e7 08 c3 3f
       0.3236912395186279 0.14870927845005522
0000a0 68 0a ef 50 46 ab 12 c0 3f 84 de 93 89 5d 16 c0
       -4.667260422315486 -5.591345129448256
0000b0 2c 8a c9 98 b7 ff ee bf 53 f4 a4 d2 2a 90 e1 3f
       -0.9687154754759084 0.548848544516327
0000c0 66 b1 ca be ec c5 f7 3f f3 fe 0e df 72 c9 05 40
       1.4858214810183994 2.7233636309100517
0000d0 a1 fe d8 b4 5f 42 f5 3f 0f fe ed c2 a8 26 f0 bf
       1.32870455402 -1.0094382872047196
0000e0 d9 32 e2 cd 86 32 ee 3f b0 12 e3 82 16 28 13 40
       0.9436677952922664 4.789148373708187
0000f0 36 e0 0d a2 42 29 fc 3f bd 19 12 e0 45 21 e7 bf
       1.760073311828831 -0.7228116394406282
000100 ab 10 95 3f f5 6d f5 3f 1a 84 bb 67 44 a5 cf bf
       1.3393452151949912 -0.2472310549265167
000110 f3 35 bd 3f ca e8 97 3f da c4 74 60 ac 6a 16 40
       0.023348961010290336 5.60417319023801
000120 06 ed 69 b6 7c e6 e9 bf dc 5b 09 29 0a db c3 3f
       -0.8093856394547465 0.1551220608114069
000130 f8 8a cf 13 36 e7 dd 3f b1 b2 a5 b1 96 ff 02 40
       0.4672370141471869 2.3747991446201344
000140 5a 60 d6 13 d4 b4 0a c0 93 21 cc 7d 12 ea 1e c0
       -3.338295130710361 -7.728586164077927
000150 ba dc 91 d6 f7 89 ef 3f f3 ad ad 7b 60 04 e3 3f
       0.9855918112579254 0.5942842879862255
000160 71 45 d2 07 cf bb cf 3f 86 aa cd cb 8f 80 00 40
       0.2479189670744222 2.062774269308025
000170 b1 b5 74 ca 4f 24 e2 bf 19 28 dd 34 26 b9 12 c0
       -0.5669325784889933 -4.680809808729486
000180 74 22 a5 de 09 c0 e6 3f ed 18 e1 3c 5c 3a f4 bf
       0.7109422062431592 -1.264248121080125
000190 ab b4 eb 0e 54 08 f4 3f 7a d6 a0 d8 43 b4 f3 bf
       1.2520332892266122 -1.2315100156824017
0001a0 2d e6 f5 ef 91 b5 07 c0 88 6f b4 f0 1f fe e9 3f
       -2.963657259647127 0.8122710896745824
0001b0 0d fd f1 bb 13 2d 0a c0 28 ce 67 16 01 74 09 c0
       -3.2720102961753867 -3.1816426992825377
0001c0 e6 f0 b5 ee dc 8e 15 40 7c 5a 85 3e 42 fa e4 bf
       5.389514665465162 -0.6555491658317147
0001d0 6b 4d d5 bb 86 0f f4 bf b8 be 62 07 95 72 03 c0
       -1.253790601466643 -2.430948312474211
0001e0 e5 3a bd 9c 2b 00 f7 bf 25 2c a5 af 7e fb e3 bf
       -1.4375415918945518 -0.6244500570841224
0001f0 ff 6c 39 d0 e2 b0 16 40 77 9d f3 d3 eb 6c 10 40
       5.672740224366179 4.106368362182699
000200 e8 11 c5 2f bc 25 ee 3f 16 c5 88 15 6e 90 ee bf
       0.9421063359264368 -0.9551306171980822
000210 a7 fe 65 d1 b8 22 fa 3f 96 83 df 2c 00 fc fb 3f
       1.6334770373941099 1.74902360466533
000220 b7 41 54 fe 0c 44 f1 bf 95 1c bd a9 3e 20 11 40
       -1.079113954041629 4.281489040534457
000230 0d 97 0e 60 97 6c 03 c0 14 fb 95 71 23 0f e9 bf
       -2.428023100323918 -0.7830979555581927
000240 3c 6e d8 34 24 91 05 c0 99 ac 3c b4 e1 85 00 c0
       -2.695869839529932 -2.065371902562742
000250 a0 f8 6b 8c 34 41 1d 40 fe d7 2f f2 f2 da 74 bf
       7.31367701920513 -0.005091618545511876
000260 8b f1 31 eb b1 0c f5 3f d3 ae 6c 4b 08 72 e3 bf
       1.315599364023998 -0.607669970811424
000270 53 43 85 54 60 d5 f5 3f a5 e9 9f 73 dd 45 ce 3f
       1.3645938207229917 0.23650711198554322
000280 26 04 86 5d ee 86 11 c0 3c 32 6c e5 64 2f de bf
       -4.38176866655798 -0.47164270786814533
000290 9d fc 74 2f 69 eb 05 40 c0 41 21 ba 69 03 09 c0
       2.7399467189384965 -3.1266665021323377
0002a0 8e 42 cb 99 78 09 ed bf fc b4 62 31 ad 74 f8 3f
       -0.9074061397351032 1.5284854821323384
0002b0 c2 da d0 f7 06 ba 0c 40 57 7b 9c dd cc 41 e4 3f
       3.590833602963671 0.6330322578759063
0002c0 c3 46 c7 e7 90 87 06 40 4d 9d 63 13 fe c1 dc 3f
       2.81619435383695 0.449340361532866
0002d0 6c 68 a7 db 2b a3 d9 bf a0 ff 36 a7 5f 07 d1 bf
       -0.4005841870363216 -0.2660750515897181
0002e0 ca 37 58 6d 23 cc 09 c0 7f 38 7b 78 d8 d1 f1 3f
       -3.224676946882913 1.1137318331052766
0002f0 85 ae 9e 5f c7 f3 04 c0 66 0f 9e 9f 24 b4 11 40
       -2.619032618551332 4.425920957586504
000300 ec 15 be 30 34 3c 17 40 bc 20 ad 6e 09 80 cf 3f
       5.80879284057799 0.24609487442126532
000310 7c a3 cb 9e 84 c2 fe bf ea 0a 83 b0 17 90 10 c0
       -1.9224897578189646 -4.140715368269165
000320 8b 38 92 b6 54 e7 fd 3f 5c 85 1c c8 77 2f f1 bf
       1.8689772731482062 -1.0740888420917463
000330 df 85 49 69 6a 75 14 c0 14 32 5d f0 1f 0e f7 3f
       -5.11466373931168 1.440948428079655
000340 3f dd 20 c6 d4 d0 18 40 f3 b8 7a ce 4f 94 fb 3f
       6.20393666816318 1.7237089219666444
000350 8e ab 3d 51 ac 72 e7 3f 99 9b 65 ce 7f 9e 0e c0
       0.7327481829391773 -3.8273922085531464
000360 5b 90 3f 9d 0d 3f 08 c0 c9 26 52 1c 31 77 e6 3f
       -3.030787685873333 0.702049784960047
000370 90 4e c7 b3 a2 d6 ff 3f b5 c4 52 0e 17 9a 09 40
       1.9899012587165181 3.20023928823556
000380 a4 23 f9 23 ad 50 de bf 7e 54 59 d0 68 38 f4 3f
       -0.4736740924168379 1.2637718332892116
000390 bf 0e e9 91 ae 01 d0 bf 07 3e 47 e4 63 d9 f7 3f
       -0.2501026558786456 1.490573779785224
0003a0 8e 8c 04 2b 65 74 06 c0 b2 12 d0 bb c7 42 e2 bf
       -2.8068335877192743 -0.5706518810480559
0003b0 98 79 3a 72 cb 27 c6 3f 7f e1 c6 0f 45 4b fe bf
       0.17308943822440592 -1.8933764091762837
0003c0 67 75 c0 42 0e 56 0c 40 cb bd f4 04 24 34 02 c0
       3.5420193877204613 -2.2754593264760152
0003d0 27 ef 67 f0 8f 61 f5 3f ac d6 67 fa 6c 61 1d 40
       1.3363189116343592 7.345142281139186
0003e0 21 75 11 ac a1 aa ce bf f4 b5 02 78 c0 bc 16 c0
       -0.23958226110236416 -5.68432796017213
0003f0 87 a5 b6 a3 5e d5 ff bf 5f 84 a9 72 1b 95 07 40
       -1.9895922083909185 2.94780625896287
000400 9e f3 20 3a ce a7 12 c0 6c dc fe e9 3a 7f f0 bf
       -4.663872631322105 -1.031062044186707
000410 fd 73 63 b9 1c 2a 00 c0 ea 05 9d ac 7b a4 11 c0
       -2.0205625995135947 -4.410628029903345
000420 61 94 df 5b 1d 47 20 40 4d 92 ca 67 c9 68 f9 bf
       8.138895865480835 -1.5880827001903015
000430 83 e2 46 9d 88 a1 00 c0 8a 17 0d 8b d3 d0 ef bf
       -2.0788738524682358 -0.9942414966433131
000440 8d a7 b1 5a 6d 6d 05 40 70 45 be b2 9c 70 0c c0
       2.6784312329736566 -3.554986378127687
000450 20 4d 99 b2 db ca eb bf 8d 8d a0 9a 6b af ef bf
       -0.8685129631288966 -0.990163614278957
000460 85 d2 f7 ef 6c 5e ff bf e4 58 43 2b b9 34 f7 bf
       -1.960553109526843 -1.4503719034160492
000470 bc 0d 53 62 64 45 f6 3f 0e 6c d3 be db d1 fa 3f
       1.3919414368436795 1.676234956182046
000480 62 d2 24 51 19 d2 e4 bf 3b 09 21 33 a6 39 fa 3f
       -0.6506468376961261 1.6390745160320666
000490 c4 d6 01 42 b2 b2 12 40 d8 5d 46 67 26 94 e1 3f
       4.67450812469696 0.5493347184264463
0004a0 92 69 2d 19 dd 94 00 40 58 04 ae 1b 34 d0 07 c0
       2.072687336634041 -2.9766618883591427
0004b0 5b ae 07 82 2e 51 fa 3f f5 a5 c8 5f 2e f5 ee bf
       1.6448197440430679 -0.9674293394829748
0004c0 62 41 84 5a be 77 07 c0 49 04 9d da 53 dc 07 40
       -2.933468539391627 2.982581813732882
0004d0 ba 29 13 24 74 c4 de bf ba e7 f4 4b f5 43 1d c0
       -0.48074058077750303 -7.3163654201725254
0004e0 28 0a 74 38 06 8a e1 bf f1 07 9b ea 7f 13 a2 3f
       -0.5480986693003773 0.03530502070272224
0004f0 89 2c df e5 06 35 f3 bf 3f 72 fa 1f 05 f7 d2 bf
       -1.2004460315099854 -0.29632690546876356
000500 da 06 32 82 19 64 01 40 6e ca 46 4b e6 67 f0 3f
       2.1738767787472684 1.0253661098946867
000510 0b d5 d0 ef 5e f9 d7 bf 86 d7 3b 5d 87 51 04 40
       -0.374595388598508 2.5398089679610534
000520 8c 08 c1 f6 bb e9 fa bf d9 aa 35 ea b3 f8 fe 3f
       -1.6820640219525869 1.9357184552015296
000530 7e 2a 27 71 7c 59 df 3f 7f b1 89 74 10 24 bd bf
       0.48983679819199455 -0.11383154721415244
000540 4e 5a ea 0a 39 60 02 c0 1a 40 4a 16 68 f1 d8 3f
       -2.296983800198439 0.3897342889476946
000550 e7 e7 b1 61 59 47 d8 3f 89 36 b5 fb d5 a1 16 c0
       0.37935480633279756 -5.658042843757024
000560 d9 2a 6c 6b 4b 28 17 40 59 c6 db 74 43 41 e4 bf
       5.789350203015339 -0.632966736068009
000570 a0 be 3e 8e 29 23 f9 3f 2f a7 8f 18 8f 21 02 c0
       1.5710845524262496 -2.266386215099281
000580 83 90 ac d7 b8 ac ec bf 0e 0e 77 3b 6e 8b 19 c0
       -0.8960842335113884 -6.3861626902976365
000590 40 bb b1 73 df 68 e0 bf 24 49 97 7a 7b 78 1d 40
       -0.5128018626836379 7.367658534511325
0005a0 68 c6 e0 3a 07 a0 11 40 c0 ff cb 71 fa 67 fc 3f
       4.406277580231837 1.7753853268804818
0005b0 9c 5b e2 de a8 44 e2 3f fa 06 29 e8 9c a2 ff 3f
       0.5708813050467714 1.9772004193077337
0005c0 fc 82 a5 73 78 26 e8 bf 32 56 f9 65 c3 69 ee bf
       -0.7546961077424323 -0.950410555999673
0005d0 7d 11 da d6 45 30 04 40 c7 5c d5 72 26 a4 d8 3f
       2.523570707826535 0.3850189324779873
0005e0 34 5d 52 67 56 63 eb bf 49 36 45 ca 3f 56 f1 bf
       -0.8558761613848334 -1.0835569287477418
0005f0 c4 41 9e fc 17 e3 c7 3f f3 f8 e6 4c 48 47 13 40
       0.1866178496825467 4.819611741635742
000600 e0 79 53 70 3d 35 fd bf 55 94 ca 0f e6 4c ec bf
       -1.825498045705551 -0.8843870457100232
000610 fd b1 bb af 89 08 13 c0 22 6e 74 18 0b 06 f5 bf
       -4.758337732153902 -1.3139754252687301
000620 0e c4 e6 1b bb 29 fa bf 92 6d 0d c0 67 35 f4 bf
       -1.635188206663091 -1.2630383970307304
000630 83 25 77 fe e9 a1 d7 bf 25 09 7e b3 50 e1 fc bf
       -0.36925744867456717 -1.805008603231337
000640 8c 4f e8 d7 65 ab 14 c0 8d c2 4c 70 95 ef ef 3f
       -5.167380689195749 0.9979960625988312
000650 c9 c1 2a b4 4e b9 fd 3f fc 2a 06 de 06 7f 02 40
       1.8577410733961293 2.312024817050199
000660 99 37 82 ff 6f 77 10 40 57 8b 16 5a 9a a0 f7 bf
       4.116638176272226 -1.4767097014489161
000670 bb 0a 49 c7 86 ef 0e c0 4d 0c 0a f6 14 73 e4 bf
       -3.866956288258135 -0.63904808096448
000680 4c e7 f5 df c2 9d fe bf 76 18 87 2b 95 ce 04 c0
       -1.9135159252604863 -2.6008704567530527
000690 9f 94 67 24 94 a9 e0 3f cc 77 d0 82 6e 62 c4 3f
       0.5207005225207871 0.15925389659326894
0006a0 e1 f2 08 f0 3e 77 07 c0 8e 6d 9d b0 b0 21 f3 3f
       -2.9332255127650204 1.1957251452466582
0006b0 e3 00 5c 13 cb 9d 0a c0 b7 1f 60 f4 47 17 f1 bf
       -3.3270474922611455 -1.0681838556210843
0006c0 3d b6 60 3c 85 b3 e9 3f 2f ce 0d 99 aa 56 e1 bf
       0.8031641177419214 -0.5418293942770499
0006d0 ed 38 54 84 0c ff 02 40 fe 9e 0d ca ad 59 f4 bf
       2.374535592861426 -1.2718942539885911
0006e0 3e 13 7a ca 19 08 02 c0 1f 58 b3 11 83 69 09 c0
       -2.253955442285956 -3.1765195258003724
0006f0 a8 70 97 11 81 9f e4 bf db d7 f0 37 09 66 e4 bf
       -0.6444707244477472 -0.6374555676072718
000700 cf cb 32 4d 12 63 13 40 b9 23 95 6b c3 1c f2 bf
       4.846749502396917 -1.1320223047680271
000710 57 bd c5 0b 2d 50 01 40 4d f6 4e 91 5d bd 04 c0
       2.164148418399843 -2.592463622305138
000720 b0 dc f5 17 db 23 d9 3f 8b e1 bb 96 54 35 f5 3f
       0.3928134664524334 1.3255201232951517
000730 84 4b ad ba b7 86 f8 3f 31 6d 63 34 c0 66 f3 bf
       1.5328900615756718 -1.212585644380692
000740 78 df 2f 3b ed 1f f6 3f f8 61 5f 1b e9 81 12 40
       1.3827946006767586 4.626865794846246
000750 59 27 ed af 95 45 04 c0 48 76 b2 2e c8 94 fb 3f
       -2.5339769119499747 1.7238237213235994
000760 78 1c 8e bf 86 30 12 40 51 0f f9 38 42 6e f1 bf
       4.547389023827343 -1.089418623495437
000770 2d 96 77 3f 11 40 00 c0 f3 77 ef 23 df e5 ea bf
       -2.0312828977937643 -0.8405605031837226
000780 6f 46 37 6b 0d 8a f4 bf 7b 7f af 18 38 1f ee bf
       -1.2837042034265342 -0.9413109285487588
000790 82 d2 44 e6 ce fa 04 c0 e7 44 41 5b b8 fe f7 3f
       -2.622464941954889 1.499687534775427
0007a0 f0 0e 67 f9 e3 f9 f9 bf 2f c5 59 76 3f 5a db 3f
       -1.623508428791805 0.42738329465562946
0007b0 8d cf f3 30 28 50 0c 40 2d c5 1a 5d 0f 9b fd 3f
       3.5391391586690077 1.8503564488313018
0007c0 43 d0 4c 23 70 9e 02 c0 5c 66 9a 3b d8 d8 f8 bf
       -2.3273623235527636 -1.5529405906912848
0007d0 46 e4 06 52 40 78 e2 3f e0 cb 8b de 8a 03 ee 3f
       0.5771791078651709 0.9379324289897077
0007e0 84 60 30 bf 38 70 e5 bf 17 13 0f 8b 26 4d fb 3f
       -0.669948933998072 1.7063355857837388
0007f0 81 de 1a 7e 94 13 18 c0 88 e2 9c b7 22 ce c2 3f
       -6.019121141805614 0.14691575971098225

linear.0.bias f8 [128]
000000 fc e0 b8 71 7b 72 f4 bf 47 3d 8f b1 47 3e af bf
       -1.277949756839063 -0.06102203409647671
000010 f0 93 03 67 76 7d f6 bf 83 49 c2 db 35 4c f9 3f
       -1.4056304954513017 1.581106050904595
000020 e2 a8 2c 7d ac 06 11 c0 50 f6 fb 0a 7b 20 ee bf
       -4.256517368174373 -0.9414649214301765
000030 75 50 57 64 97 51 07 40 b9 7a 7f 45 e0 2d 0f c0
       2.9148395384927945 -3.8974004201439496
000040 1f c0 4e 28 3a dd 05 c0 c1 41 01 a1 c3 ba 06 c0
       -2.7330210827858674 -2.8411934450634537
000050 1c 9e 7a 2a f1 85 fe 3f 77 2c 5a d2 d7 69 09 c0
       1.9077006968817676 -3.17668117845238
000060 f6 88 0e aa 09 78 e2 bf 7c e9 e7 9e 0e 83 08 40
       -0.5771530457898553 3.0639927305721226
000070 f2 59 bc 65 11 33 01 40 40 94 9e 33 76 9c 05 40
       2.149935526667144 2.7013973267335416
000080 07 2f c3 9a 8a b2 f2 bf 9c 3b 41 36 b3 1b 0e c0
       -1.1685892148406667 -3.7635254133851515
000090 e0 84 11 93 00 9c d9 bf 07 63 a4 1b ca 25 fb 3f
       -0.4001466213431524 1.6967259483118953
0000a0 04 d0 21 84 b4 f9 d4 bf 9c 31 46 9a 21 21 f0 3f
       -0.3277407923080775 1.0080886865936014
0000b0 55 71 13 d8 53 29 04 40 c2 17 a1 ae a1 23 e8 bf
       2.5201794510777895 -0.7543495569923311
0000c0 d8 d5 17 b7 29 0b 11 c0 6a 43 3c 89 e7 2a d1 3f
       -4.260901318387788 0.2682436790647019
0000d0 59 41 b3 e5 07 26 c1 bf 09 61 37 d0 54 ac 0d 40
       -0.13397310939627508 3.7091461436176627
0000e0 ac 76 df d2 98 21 06 c0 23 34 8d 96 7a 18 10 40
       -2.7664047693677585 4.02390513645972
0000f0 00 85 14 0c 55 58 ff 3f e7 3f 81 82 a4 5b cc 3f
       1.9590654823189766 0.22154671070393236
000100 af 4a ed d9 49 fd 05 40 4e 01 b7 02 00 20 00 c0
       2.748676016382283 -2.0156250202273105
000110 cc 19 42 7b b9 bc 10 c0 9e 30 20 41 1e 40 f5 3f
       -4.184301305684539 1.3281538528417864
000120 3d f6 64 93 d9 cb 00 c0 28 f5 a7 52 8b 1b ef 3f
       -2.099536086577045 0.9721123327614452
000130 9e 1f b6 b0 0e aa c0 3f 9d 43 2b 12 87 7d fa 3f
       0.130189739498971 1.655646391842516
000140 47 f9 27 82 c9 5b bf 3f cd 89 51 6a df a2 0f 40
       0.12249431064262693 3.954527693379737
000150 f2 4f 88 d7 66 d4 f2 bf 5b 8d 0b 1f 2a 50 dd bf
       -1.1768558902012924 -0.4580178549933486
000160 b7 eb 8d 5a f6 aa 11 40 37 b3 96 18 ff 12 07 40
       4.416955389892727 2.8842756196012505
000170 c3 81 a7 20 93 9f e3 3f 8b 4f f5 d6 3a c2 03 c0
       0.6132293355731736 -2.4698387902844323
000180 91 54 26 09 c2 38 00 c0 26 a4 7d 61 4e 56 c9 3f
       -2.0277138438055506 0.19794635544101985
000190 1d 59 5d f4 1e cb 82 bf ac 94 6f cb 2d 02 f0 3f
       -0.009176484901825927 1.0005319544518825
0001a0 9d 47 08 a7 14 02 01 40 fe 0a 70 01 29 8a 0c c0
       2.126015953960588 -3.5674610245054046
0001b0 66 0a 00 06 c5 d9 0e 40 67 eb 14 9b 62 90 dd 3f
       3.85633282363533 0.46193757195185586
0001c0 3a a0 c9 ef 2b a3 f6 3f eb c9 08 7f 14 7a 11 c0
       1.4148368231490296 -4.369218811904356
0001d0 2c cb 3c 13 bc e4 eb 3f a8 f0 65 44 ec 77 17 c0
       0.871671712468332 -5.867112225267341
0001e0 1a d3 65 31 ef f3 fa 3f 07 04 30 a3 1e 80 00 40
       1.684554284057589 2.0625584363010634
0001f0 21 7a 6d ba 9c d2 02 40 94 cc ec 58 59 2a 02 c0
       2.3528379978809117 -2.2706782290711747
000200 6b 80 9c 62 85 da f6 3f f9 b3 22 84 3d 3f f8 3f
       1.4283498622899298 1.5154395257516156
000210 97 0d 78 c1 cf 20 89 bf a7 3f d9 be 51 47 ea 3f
       -0.012269614307121297 0.8212059714805847
000220 da db 1a a5 bf 29 f4 3f 8a 61 1e db b8 81 fd 3f
       1.2601925324831798 1.844170432979896
000230 33 4c d2 19 24 0f fb 3f 7b 34 6b b3 cf 76 01 c0
       1.6911965378428817 -2.1830133454409952
000240 2b 90 ed 80 41 0a 08 c0 09 4b 60 d2 fb 3a e4 bf
       -3.005007750749447 -0.6322001561078149
000250 30 16 70 19 ec 30 f1 bf 8d 73 36 09 c2 33 d4 3f
       -1.074443911902005 0.3156590547530918
000260 44 86 40 60 89 56 01 c0 5a aa d3 15 40 91 ef bf
       -2.167254211396342 -0.9864807535462419
000270 49 5a 77 4c 17 4d 0f c0 80 ef 11 b0 79 cf f6 bf
       -3.9126420949863 -1.4256531598793742
000280 87 bd 64 29 9a 96 ed 3f 51 c4 8f e4 54 47 c6 bf
       0.9246340568987969 -0.17405186805948117
000290 1a a3 37 65 67 96 ff 3f 8a c3 4f e5 4a b8 f6 bf
       1.9742196992685366 -1.4199933011516088
0002a0 66 e3 b2 45 5c 50 e3 3f 9e 15 3e 1a 77 ae e2 3f
       0.6035596238426535 0.5837970268773238
0002b0 a4 47 82 a7 3c 5e 15 40 8b ce a9 66 60 ed 02 40
       5.342028252913142 2.3659065266199995
0002c0 6f cf 2b 6c 75 68 07 40 5f f1 7f e9 34 b6 09 c0
       2.9260052157277907 -3.2139681093378125
0002d0 34 58 f8 ac a0 f7 03 c0 b0 1f 9c e2 6f 98 e6 3f
       -2.49591193325889 0.7061080385183143
0002e0 e3 2f 26 d9 9d 53 0f 40 c2 d1 5f a8 b6 d4 f0 3f
       3.9158284153727307 1.0519320084687114
0002f0 30 ea 26 e4 d5 22 e3 bf ef cc 38 02 81 52 0d c0
       -0.5980023819059337 -3.6652851270279068
000300 bf 49 df 4a f1 d4 f3 3f f5 f9 da 7c c7 60 f1 3f
       1.239487926931005 1.0861277463114878
000310 99 8f 91 c3 20 4e e6 3f 3d 1e 52 57 d9 ae f7 3f
       0.6970371074389617 1.480187741371892
000320 5a d1 62 d5 23 82 f6 3f 4f ab 40 08 08 20 0c 40
       1.4067724547758957 3.515640320275828
000330 48 a8 4a fe 79 b0 f0 bf 39 ec 48 40 72 64 f7 3f
       -1.0430850919024284 1.462023020851815
000340 d0 bf 9c 6c e5 07 ff bf 9f ac 5d 8b c5 5d 11 c0
       -1.9394277804058113 -4.341573884575296
000350 86 17 06 47 f4 ac f7 bf 52 d7 e1 52 19 fc 03 c0
       -1.479725148617463 -2.49809517623627
000360 6b 59 02 dd af 64 f6 bf 55 e9 06 21 da 08 05 c0
       -1.3995817788287137 -2.6293222980722626
000370 fe 87 70 02 bd be 0c c0 fc f0 83 ad 0d 2c 00 40
       -3.5931339445678523 2.0215104633226684
000380 10 28 19 c4 44 78 00 c0 0f 02 a7 0b 02 06 08 c0
       -2.0587249107529786 -3.002933589014226
000390 80 11 68 2a 11 a7 0a c0 ba 6f f4 b9 d3 85 b5 bf
       -3.3315757096299308 -0.08407328882134282
0003a0 8e 3e c7 56 17 82 00 40 a6 90 47 29 10 4a e2 3f
       2.06352107806726 0.5715409094086865
0003b0 6c 30 88 9e 7c 68 06 c0 12 04 94 13 ad d5 0a 40
       -2.801018942385829 3.3543340234323376
0003c0 27 14 3f de 05 44 f6 3f 8e 43 71 df cf 81 f2 bf
       1.3916071588039445 -1.156692383596439
0003d0 b7 fc 19 f7 26 a8 ee bf a6 90 c3 40 fe b8 da bf
       -0.9580263925744451 -0.417541087385198
0003e0 44 55 90 a9 ec 4d e6 3f b8 32 ea b5 8e c6 11 c0
       0.6970122634690274 -4.44390377275402
0003f0 b0 7e 3e f4 38 84 f5 3f 75 8b 27 9c bb b1 fb 3f
       1.3447808781419717 1.7308918094429064

linear.2.weight f8 [128, 128]
000000 a5 50 74 8e 4b ab 9b 3f 52 ce 27 7b 68 51 d1 3f
       0.027020626611446236 0.2705937578859664
000010 35 9c ca 11 e0 d6 d2 3f b3 6e 68 67 41 84 e4 bf
       0.2943649457687941 -0.6411444682775794
000020 ba 73 59 6a 6d 5f e1 3f 35 37 16 b1 36 27 d5 3f
       0.5428988530289793 0.33051841062193726
000030 36 53 9c 1e b3 88 ea bf 9f 34 7c df 95 b2 de 3f
       -0.8291869733680872 0.47964999031757743
000040 4b e6 a6 93 14 e6 d9 3f 38 0c 80 a3 9e b0 e8 3f
       0.40466799182067764 0.7715600198138253
000050 41 76 67 c3 cf 4c d8 bf d1 de 38 68 69 31 e4 3f
       -0.3796882065051684 0.6310317073429933
000060 6b b0 92 c9 60 33 de 3f e5 44 e1 b0 ff ba eb bf
       0.4718858688818332 -0.8665770010649366
000070 72 26 6f 5c 86 43 cf bf e3 3f 30 32 ab 03 e3 bf
       -0.24424819482219423 -0.5941978435748719
000080 f5 c6 ce 8d d3 91 c5 3f fc 9a c4 15 0c 07 d7 3f
       0.16851276802258722 0.3598051273897196
000090 31 df cb 7d ef ce c6 3f 50 10 0d 26 a7 9f c0 bf
       0.17819017069245427 -0.12987222059212167
0000a0 9d 46 f8 05 e9 88 d6 3f 09 c2 df e1 6b 94 d2 bf
       0.35210633833876576 -0.29030892427456984
0000b0 f5 c3 24 ad 84 aa e3 bf bc 4a 90 b2 df a3 c2 3f
       -0.6145652181349975 0.14562603205611946
0000c0 d6 3b 90 10 54 7b e1 3f 43 8b 1e 1e c1 34 b7 3f
       0.54630473361055 0.09064871774039056
0000d0 2b a8 27 89 fc 96 b4 3f ca 48 10 8d f3 3a db bf
       0.08042887066372433 -0.42547310615294676
0000e0 11 65 db f1 c0 a3 eb 3f 34 31 b1 76 5c bb e6 bf
       0.8637394641656632 -0.7103712385374252
0000f0 0b 2a 68 b7 57 da e6 bf 23 28 a9 97 5d ba d6 3f
       -0.7141531545797205 0.355124853235454
000100 f7 0b 44 19 02 39 c4 bf d1 90 31 34 4b 14 d6 3f
       -0.15798975213701258 0.3449886331275254
000110 b0 7c 73 d1 25 7c cc 3f ff ea 6f ef 6c 0d c1 bf
       0.22253868796449217 -0.13322221461552172
000120 5e e0 f9 0e 7b 9d e2 3f 53 6c 65 e3 2b 94 d6 bf
       0.5817237179280814 -0.35279366690310104
000130 c7 e7 7b 8b b6 de bb bf de d0 20 74 0b 30 e2 bf
       -0.10886708169337488 -0.5683648365143446
000140 9f 80 cf 4c 50 b4 d2 3f a3 d1 7d d1 ee d4 f1 bf
       0.2922554731467332 -1.114485567403883
000150 e5 fd 7c b5 e2 5d c6 bf 77 ee bf 55 56 05 c3 bf
       -0.1747401605771152 -0.14860037981985716
000160 f0 71 18 d5 e8 4e ea bf db bc f2 f2 21 ec e1 bf
       -0.8221325075169812 -0.5600747819024962
000170 8e 39 b7 b3 68 b1 af 3f ce fa ba 19 9d 7f e5 3f
       0.06190039819522318 0.671827841047923
000180 e5 0d b5 2c 9c a3 eb 3f 6d ae 77 e5 8e 83 e1 bf
       0.8637219308079095 -0.5473093492305005
000190 36 c2 33 47 84 36 ca 3f 99 f3 ee b7 0c bb dc bf
       0.2047887180010705 -0.44891660654303106
0001a0 05 24 b0 07 41 36 e4 bf 68 70 67 c5 a1 59 be 3f
       -0.6316228056103915 0.11855517453608544
0001b0 0b 96 e3 91 55 8e e1 bf 84 86 59 ce 37 2b dd bf
       -0.5486247872729008 -0.45576281691874265
0001c0 21 63 60 f5 ec 05 b6 3f 73 87 f4 77 63 ec e2 3f
       0.08602791777265086 0.5913560240626182
0001d0 89 f7 45 12 03 98 bb 3f 9c 02 16 9d fc 1b eb 3f
       0.10778826900602047 0.8471663539968008
0001e0 12 bc f4 06 a0 ed ce bf 07 55 da c6 67 62 d0 bf
       -0.24162674274109058 -0.2560061876223049
0001f0 93 14 a0 24 dd 7e d1 bf ec 40 ec 0a d2 6b e3 3f
       -0.2733681543034631 0.6069116795861453
000200 c2 5f 6d 2b e6 8e cf bf b0 49 13 28 fd dd b9 bf
       -0.24654843445273228 -0.10104353168870861
000210 2f ea dc ca 03 89 ce bf 54 d5 f6 ac 9f 45 cb bf
       -0.23855636029641533 -0.21306224771039217
000220 a3 e6 58 24 d6 1b e3 bf a6 54 03 93 81 21 e1 bf
       -0.5971480092914202 -0.5353401061389789
000230 dd 39 72 38 34 61 d0 3f 77 6b 80 20 4d 8d a3 bf
       0.25593286049197933 -0.03818741819141896
000240 38 20 4c f5 25 a8 d8 3f 7e 19 39 47 f2 59 c6 3f
       0.3852629561884018 0.17461994626701122
000250 72 5d d5 ee c5 36 e5 3f ad c4 0e 3d a3 6c c4 bf
       0.6629361786571464 -0.15956535798389862
000260 f7 3d c6 aa 02 e0 e6 3f 68 db 3f ff be b6 e0 3f
       0.7148450217663925 0.5223078713741929
000270 96 f0 5a 7c b3 cd ef 3f 22 29 ea e6 ab 7f ba 3f
       0.9938599995434909 0.10351061236921003
000280 6f de 7d 32 8d df b7 bf ec 1c 70 e2 1e 58 c0 3f
       -0.0932548759718601 0.12768922859706977
000290 20 db 29 72 79 38 d4 bf 87 76 ed 29 8f 13 d0 3f
       -0.3159469237211159 0.25119380087367243
0002a0 b5 a6 ae 65 e1 3d d2 bf df 59 cd 06 3d 62 d8 bf
       -0.28502688341050525 -0.38099599518082344
0002b0 9d 72 36 35 0c 36 f2 bf 42 90 f1 c2 8e 41 e6 bf
       -1.1381952360745011 -0.6955026442997296
0002c0 7a f4 93 8e b9 4c e9 bf 1a 63 0a ac c8 f3 e8 3f
       -0.790615824196393 0.7797587738196825
0002d0 1a 60 46 7d cb a6 d1 3f 9a 29 28 6e 6e e8 d3 bf
       0.27580535158040365 -0.3110614848852947
0002e0 a8 00 85 b5 28 2c d9 bf 6b c8 eb 8c 73 f2 da bf
       -0.3933202526714106 -0.42104805719203026
0002f0 56 88 f0 da b6 ba e2 3f 99 82 42 8b 62 08 f0 3f
       0.5852922702945402 1.0020471038662093
000300 5d 26 bb c5 22 19 bf bf 93 a7 86 08 f2 7c db bf
       -0.12147729232233347 -0.4295010646115937
000310 e4 4b 3a 79 6e f5 d1 bf 31 66 20 73 38 97 db bf
       -0.28060495222706394 -0.4311047672541433
000320 b7 5c 0d f2 2b d1 e2 bf 2a 39 9b 4b 00 44 d2 bf
       -0.5880336501676514 -0.28540046103889216
000330 e2 3b 2f 5f 5d f6 da 3f 0d df 35 68 23 bb e5 bf
       0.421286910012837 -0.6790940318450979
000340 f1 6f 6f e4 8c f4 d5 3f 5b ba 05 68 64 83 d6 3f
       0.34305116947302766 0.3517695442050461
000350 73 7b e7 c4 23 56 c3 3f 1c 36 7c 09 55 87 d8 3f
       0.1510662757345603 0.3832600205067551
000360 51 e4 d2 ff 88 99 90 bf 64 19 28 46 3d a0 74 bf
       -0.01621069013046778 -0.005035628654246647
000370 9f 25 b7 2d f0 30 c0 bf 31 f1 bd c0 76 e2 d7 bf
       -0.1264934752673925 -0.37319725820977384
000380 21 9d c5 0a 0f 26 cf 3f 9e 34 7b b1 08 0c e8 3f
       0.24334896112416352 0.7514689890318953
000390 eb 12 35 a9 19 f7 d0 3f 0e d3 55 e5 f0 38 d7 bf
       0.26508180164482437 -0.36285040279408143
0003a0 db 10 c7 f3 eb 58 b5 bf a3 ca 5e 41 93 b7 cc bf
       -0.08338808728791795 -0.22435227100284746
0003b0 51 85 c3 7b 83 53 ed 3f 90 59 ed 78 6c de e4 bf
       0.9164445321331788 -0.6521513330324513
0003c0 04 52 a9 95 af 80 b8 3f cc 61 d6 4a 19 e9 c2 bf
       0.09571359065859758 -0.14773861078425765
0003d0 b2 11 93 60 87 d7 ae 3f 04 3a f6 e7 e6 de ab 3f
       0.06023810438049128 0.05443498212399692
0003e0 94 78 13 04 d2 0f ce bf 5c a8 b9 36 9f bd e3 3f
       -0.23485779952074337 0.6168972081043296
0003f0 c4 1f 06 2f 4e b3 a2 bf 07 a6 64 82 6e 76 c8 bf
       -0.03652424167654503 -0.19111424795964657
000400 05 5d f4 de 08 ed dc 3f e0 84 49 50 88 e9 b4 bf
       0.4519674470224831 -0.08168842277656863
000410 2a d2 58 04 5d 44 d7 bf 51 20 3c f9 04 1a ea bf
       -0.3635475676012755 -0.8156761997097509
000420 f2 89 f7 01 fa 38 d9 bf 63 ba e2 8b 55 41 c9 bf
       -0.39410257522663905 -0.19730634050707171
000430 5b 4d 75 e4 7f da ed bf 57 a2 40 b1 b0 10 dc bf
       -0.9329223119806714 -0.4385186892491552
000440 9b b2 fb a5 9c 7d c0 3f 53 0b 1a 85 55 ee e7 3f
       0.12883337120674274 0.7478435134547489
000450 5a 8a 8e 3c dd 56 c8 3f 56 42 ae 1e 1b 02 e7 3f
       0.1901508851706975 0.719007072375528
000460 3d f1 1e 55 de 4c b0 3f 35 86 69 57 ba a5 e7 bf
       0.06367292001863674 -0.7389804560918437
000470 03 45 e6 17 10 56 b0 3f b5 8a 50 44 b1 5a de bf
       0.06381321509822517 -0.4742854277739455
000480 56 ab 14 0e 82 24 e8 bf 62 c0 85 0f 79 0c bb bf
       -0.7544565463079873 -0.10565907124487375
000490 64 4f e4 8a 37 f0 e0 3f be 0a dc 38 45 d7 e5 bf
       0.5293233597499065 -0.6825281248605604
0004a0 33 75 8a bc 76 4a e1 3f 11 9f f3 28 78 53 be bf
       0.5403398210943692 -0.11846114158435862
0004b0 ea 54 49 00 03 0a e1 bf fc 73 50 92 33 80 c0 3f
       -0.5324721341700329 0.1289123978066583
0004c0 65 0f 91 0a 33 0a db 3f f2 c6 0d a3 51 8b d0 bf
       0.4224975207509856 -0.2585033504793578
0004d0 f0 2a c6 29 3b d0 cd bf 3d 8b 0d 79 82 3c ea bf
       -0.23291720905066127 -0.8198864330591743
0004e0 64 1b 07 c1 a6 f0 d0 3f 63 33 11 1c 46 cb ce bf
       0.26468819475524286 -0.24057842607944754
0004f0 23 5f b6 93 71 d2 e0 bf 0b 8d 45 f0 cd eb e2 3f
       -0.5256889233596421 0.5912847225958172
000500 16 68 3b 99 ce d0 d1 3f 84 4a d0 8b 00 82 a5 3f
       0.27836956943576874 0.04200746256551205
000510 c6 24 77 51 22 1d e4 3f 49 c4 69 d1 01 07 cf bf
       0.6285564032670201 -0.24240133977176218
000520 64 c5 dd c2 e6 44 d5 3f be 34 fc c9 4f 93 d1 3f
       0.33233040838157124 0.2746161911498567
000530 e2 ce 0c e0 da 27 d7 bf 0c 54 e0 31 d8 14 e0 bf
       -0.3618075550068466 -0.5025444959779874
000540 9c 5e e4 b9 22 60 e0 bf 3e bb df 29 28 ed c4 3f
       -0.5117353087143388 0.16348745388628488
000550 53 d7 f5 e9 14 7e e1 bf 64 23 09 00 ee 92 dc bf
       -0.5466408319032133 -0.4464678764675709
000560 b1 32 af 14 73 cb da bf 2d 82 d4 e5 50 29 d2 bf
       -0.41866757411916483 -0.28377172893854913
000570 5f 15 e0 a1 0a a0 d9 bf 1c c3 74 25 5c 76 a1 3f
       -0.4003931599439365 0.03410613972881135
000580 99 3b 2d 25 b1 bb f1 3f 6f 57 83 2e a2 0e a5 bf
       1.1083232357229689 -0.04112726991449633
000590 ab 47 0f 35 80 d8 93 bf 93 fe 04 69 2e c5 ad 3f
       -0.0193805725464881 0.05814499885536608
0005a0 b4 ba 8a 71 da 57 c1 bf 06 23 de 42 60 3a a1 bf
       -0.13549356979406968 -0.033648498690189085
0005b0 8b 2c 2d 88 81 a7 ba bf 4d fc b3 d9 74 63 d3 bf
       -0.10411843847866657 -0.3029453397757081
0005c0 58 80 a6 08 a5 d3 d0 3f e5 a5 0d 5c 66 34 c3 bf
       0.2629177650906107 -0.15003661627569823
0005d0 60 ec d0 f5 03 c2 e0 bf 5e 28 43 ac f5 e1 d4 3f
       -0.5236835290046535 0.32629148313993095
0005e0 79 a6 ad eb e9 0b e3 3f b7 b0 46 ce ae c7 db 3f
       0.5952043154804435 0.43406267303613383
0005f0 77 68 7b 4e 38 46 e3 3f c2 c7 41 0b 8e 77 d0 3f
       0.6023217709400929 0.2572970495158381
000600 69 58 b4 7e 67 7b ba 3f 75 ba 26 6c 93 39 cf bf
       0.10344549983378361 -0.24394457608055445
000610 ca 1b 61 19 da 2b df bf 11 4c 8f 72 88 b1 d0 bf
       -0.48705151060533736 -0.26083575427509326
000620 4b 1c fd ff b2 15 e0 bf b3 3b 22 7f 17 a8 a3 3f
       -0.5026488303927946 0.038391813534978246
000630 0d 2b 09 da e1 e3 d9 bf ec 43 de 32 74 d7 a3 3f
       -0.4045338277107227 0.03875315781545638
000640 0c 81 01 11 f6 c1 d9 bf b5 a7 b1 9e 32 83 b1 bf
       -0.4024634519646646 -0.06840816854824434
000650 98 fa f6 02 a3 42 e5 3f 8b 54 42 69 9f dc bb bf
       0.6643843706040853 -0.10883518523981388
000660 6a 38 4a 39 54 28 e2 3f bd 2d 84 93 61 50 e5 3f
       0.5674229735320868 0.666062152974909
000670 3c 8f 2b 53 de 65 e8 3f 46 9c d4 03 4f 8a d2 bf
       0.7624351143281056 -0.28969169019768903
000680 ea f9 bd 3a 80 00 90 3f cf bf 64 c9 41 4b e2 3f
       0.01562691076787274 0.5716866429775055
000690 bd 29 f2 31 c1 85 b9 3f f1 d3 38 ce a6 23 d0 3f
       0.09969718427070169 0.2521760000120699
0006a0 e5 4a e5 95 c1 32 d8 bf de d4 3f 4f b6 99 c4 3f
       -0.3780979121994917 0.16094092244717378
0006b0 e4 8d 0f 45 09 b5 f0 bf 09 10 c9 5a 74 89 ea bf
       -1.0441982934652225 -0.8292791150238382
0006c0 66 9c c9 9b 24 31 f0 bf fb 68 9f 9f 59 96 d0 3f
       -1.011997803254212 0.2591766413512599
0006d0 d4 b5 7f 5b 46 24 e6 3f 50 77 7a be fc 5f e3 bf
       0.6919280802809973 -0.6054671974450034
0006e0 67 5c 95 bf 03 96 e6 bf c1 c3 1a ae c0 ec ae 3f
       -0.705812334238442 0.060400029423710595
0006f0 dd d3 74 7a 1f ab d6 3f 2a c8 07 a8 a8 0d d1 bf
       0.35419451674107255 -0.26645866784304195
000700 b0 b2 eb a7 23 19 a8 3f 0f 55 47 12 4c b5 e3 bf
       0.047066797493106605 -0.6158810002331466
000710 52 d2 ec 24 c6 e9 95 3f 3f a7 63 9a b3 26 e2 bf
       0.02139958954212979 -0.5672243132987446
000720 63 5a 16 0e f0 ee c8 bf ba 25 01 c4 f6 be cd 3f
       -0.1947918003831602 0.23239025660067886
000730 c8 01 e3 1b 4d 2a e3 bf 06 61 3e be af 79 e5 bf
       -0.5989137215292937 -0.6711043086716308
000740 25 e8 12 85 5a 7c e5 3f d6 28 e8 16 47 1b aa 3f
       0.6714298819636083 0.05098936228394428
000750 e9 d9 f3 c7 4e 7f cd bf f7 eb da 44 cd 5c c5 3f
       -0.2304476238566189 0.16689458715504177
000760 f4 99 ab 57 80 de d9 bf 92 44 6d 1e 1a e7 e6 bf
       -0.4042054039149712 -0.715710696627996
000770 5f 0d a9 57 52 70 e0 bf e2 0c ed 78 e5 98 cd 3f
       -0.5137111389271175 0.23122852711285363
000780 21 58 0e 78 ec 82 b7 3f 86 12 59 1d b2 6e d6 3f
       0.09184148722701525 0.3505063330269781
000790 c4 97 5a 4d 71 00 d2 3f 2d 50 54 00 3b 7a e3 bf
       0.28127701334085153 -0.6086707121307932
0007a0 55 f1 1b 69 0d 05 d1 bf eb af 9d 3d 60 2a c3 bf
       -0.2659333731133036 -0.1497307110652167
0007b0 0e 64 15 85 a1 8d e8 3f 0b 20 0b e1 7a 40 e7 bf
       0.7672889327324144 -0.7266210933094056
0007c0 a9 ee 7e af fe 0d d5 3f 55 4d b9 10 d5 ef e0 bf
       0.32897917879356925 -0.5292764021527697
0007d0 ce f9 b1 d0 cc 5a e3 bf ef 80 e0 63 65 30 d8 3f
       -0.6048339916304089 0.37795386079416365
0007e0 3c e1 0a be 22 9f d8 bf 5e 96 8f b8 30 b6 c6 3f
       -0.3847128730663092 0.1774350072075092
0007f0 07 eb 07 02 de d3 c5 bf b0 e1 6c 5f dc 51 d3 bf
       -0.17052817439238074 -0.30187138861540586

linear.2.bias f8 [128]
000000 88 e6 c8 2c 76 ec f9 bf e4 9a 79 72 cd 32 0c c0
       -1.6202298879055963 -3.524805921875087
000010 1b 33 a8 6b d4 56 be bf 1e f6 6a 10 49 30 08 40
       -0.11851241710992293 3.023576858772471
000020 08 74 5e 7c 9c 42 cf bf 3e 16 eb 1a e0 55 e1 3f
       -0.244220314719229 0.5417328382251936
000030 b8 76 d3 b9 69 30 ce bf 37 c3 e4 7f cc 16 df 3f
       -0.2358524472573913 0.48576652993783703
000040 51 90 0a f2 fb d7 fc 3f 76 4d 20 8e d2 eb e0 bf
       1.8027305083023928 -0.5287869239713661
000050 d1 11 e5 da 03 8d cd bf c2 e9 4d cc b2 05 0f 40
       -0.23086593807432945 3.8777824364926525
000060 dc 4c 6c 46 84 24 f6 bf 63 4e 08 c0 62 f8 da bf
       -1.3839152098560623 -0.42141026261490405
000070 e2 e9 38 19 be 50 05 c0 c7 82 86 60 f2 9e f3 3f
       -2.664425084161153 1.2263053675198294
000080 39 ab c7 4f 15 77 fd 3f 44 20 10 9d 43 f1 06 40
       1.8415730587391421 2.8678047438188816
000090 ba 5c 09 37 8a 0b c0 3f 20 f0 09 07 9b 1b f4 3f
       0.12535216986973358 1.2567396426156918
0000a0 2c 90 5f 55 dd ec f4 3f cd a6 4b 05 b4 fc f9 bf
       1.3078282675642283 -1.6241951186042798
0000b0 29 bf 16 c8 5a 1f 01 40 c3 56 a3 c3 78 9c 13 40
       2.140309870905089 4.902804428905884
0000c0 e6 80 2a 83 5d 19 df bf 85 e2 03 1a 9b 58 dc bf
       -0.4859231739919906 -0.44290807285828065
0000d0 54 99 28 bb dd 83 e9 bf 7e 89 b7 06 ed e3 f2 3f
       -0.797346940559502 1.180645967710546
0000e0 71 ae f6 91 d8 76 ec 3f 81 85 bb 15 bf cb e0 3f
       0.889507565579562 0.5248713898146634
0000f0 55 1c 99 b6 af 15 01 c0 94 b0 24 54 c3 0f f4 bf
       -2.135589052722518 -1.2538483893249905
000100 3c f1 35 7a 19 77 f6 bf de e6 af 41 d3 87 e0 3f
       -1.4040770315032907 0.5165802271796698
000110 8b fc 81 0c b0 b8 f7 3f 31 0b f0 d3 13 57 06 c0
       1.4825897682747236 -2.792518287432721
000120 59 1a e6 0f b6 ee ff 3f 34 58 6a 22 67 89 0b c0
       1.9957790967033786 -3.4420912445739535
000130 10 4d 91 90 dd f8 02 40 05 40 7c f9 15 b4 f7 bf
       2.371516351160274 -1.4814662690660054
000140 52 09 43 96 9e fd 08 c0 91 e6 a5 f3 33 68 0d 40
       -3.12383763687209 3.675880340099703
000150 99 7c c5 a1 ae ab 1e 40 f7 d1 c2 4e a3 f0 02 c0
       7.66765835540641 -2.3674989846424483
000160 8b 52 72 76 fa f1 0b 40 0f 59 2e 4a 90 5b fe bf
       3.4931535009039343 -1.897354402322495
000170 ee 08 d5 23 e2 49 ef 3f 22 99 41 22 fb e5 df 3f
       0.9777689647528669 0.4984119257482168
000180 f7 82 81 b2 b2 e9 18 40 d7 d1 f5 8a 8b dd de 3f
       6.22822073855854 0.4822720391305472
000190 2a 63 14 45 68 4a eb 3f 80 36 1a 17 0a b0 f6 bf
       0.852832922860306 -1.4179783728062887
0001a0 e6 39 62 94 49 17 fc bf aa e4 e6 14 5f e7 f7 3f
       -1.7556854053724407 1.4939871613008031
0001b0 c3 79 b8 67 96 4f f0 bf f2 79 5a e2 4e 26 05 40
       -1.0194305469118354 2.6437051471577826
0001c0 62 59 8d 14 29 eb fb 3f d3 ab 54 af ee b9 e4 bf
       1.7449122240846795 -0.6476968216351174
0001d0 91 13 fd a2 3c 85 06 c0 9b 89 34 6e 6f ff e9 bf
       -2.815057061527519 -0.8124310638852877
0001e0 57 0b 08 70 b1 7e ac 3f 7e d8 90 74 fc 10 f5 3f
       0.05565409176417429 1.316647010169191
0001f0 91 e6 17 41 1a 85 ef 3f d1 fb d3 64 46 c4 f1 3f
       0.9849978705744481 1.1104186953159465
000200 b9 81 72 76 bc e1 e2 bf 9c 7a 5c 33 85 70 db 3f
       -0.5900556863235159 0.42874269500490825
000210 7c 09 63 9d a2 e7 e3 bf 11 fc 9e 2b 6b b8 d4 bf
       -0.6220257829630067 -0.3237560201632173
000220 c7 b1 40 43 25 c2 fa bf 0d 00 15 19 a7 ae e9 bf
       -1.672398817735585 -0.8025699128993452
000230 b5 27 f7 b4 b9 3c b6 bf 7d 34 ba e8 e5 88 ee 3f
       -0.08686409633733556 0.9542111916977231
000240 b0 94 8d f5 3a e8 ef 3f e4 ec 89 3a 25 99 a4 bf
       0.9970984264333733 -0.04023090686401945
000250 44 17 0e f1 49 f3 d4 3f 9e fe 71 3c da 19 06 40
       0.3273491720250272 2.7626232836044684
000260 b4 f5 92 7f 67 32 03 c0 3b 78 9b 43 79 cc 18 40
       -2.399611469910008 6.199681335796465
000270 d3 27 09 1a 63 71 b6 bf 81 8a 8d 91 76 a1 eb bf
       -0.08766765008581894 -0.8634598582105611
000280 37 96 ee 71 bc 05 09 40 b6 e9 3f e5 2c ec f8 bf
       3.1278008366523653 -1.5576600031914558
000290 a8 5f 9a ae 14 95 04 c0 85 18 21 9a 96 88 fa 3f
       -2.572793354116545 1.6583467503237739
0002a0 05 17 b6 d5 6c b5 f2 3f f6 a7 60 f4 eb 00 f8 3f
       1.1692932460877625 1.5002250238417196
0002b0 74 7a 54 53 bf 2c fc bf 76 8d e5 62 96 fb f9 bf
       -1.76092464972285 -1.62392271644134
0002c0 37 cb ca 75 45 8e f3 bf f9 96 4d 57 d1 34 08 40
       -1.2222342110878353 3.0257899113229283
0002d0 e9 66 f6 89 a9 69 f7 3f e9 97 24 68 d2 28 ed 3f
       1.4632964505348645 0.9112331422845702
0002e0 1e 69 51 4b e9 1b 02 40 92 0f 56 75 10 da 00 40
       2.263628567144351 2.1064767043007544
0002f0 19 3c 0c 75 3b 0b f5 bf 1a 1c 8a 1f 9b 6a e3 bf
       -1.315242249696672 -0.606763421631402
000300 2d 64 79 c9 da a4 e7 3f 5f a5 e7 d3 18 5e f9 3f
       0.7388738570254013 1.5854728963407394
000310 94 7d 66 6a 75 0c ef 3f ea 43 1c f4 fb ec e0 3f
       0.9702708318836124 0.5289287345677824
000320 b5 87 d9 bb 1d 29 b1 bf 07 65 53 a6 d5 a2 d4 bf
       -0.06703363262343383 -0.32243863337278394
000330 ed 6d d8 b2 72 e6 d8 3f fe ed ab 2d ef 31 f7 3f
       0.3890654322183014 1.4496909889265903
000340 b3 8a 61 3f 8f a3 f9 3f e3 e8 76 38 c5 a3 fb 3f
       1.6024315334149548 1.7274830060619528
000350 29 fa ce 96 94 6a aa bf 66 20 2a fa 9f 67 00 40
       -0.05159439412044648 2.0505981010538106
000360 25 53 87 d6 10 54 72 3f 66 3c c1 c7 2d 79 e0 bf
       0.004474702619025083 -0.5147923375569803
000370 20 85 af 6c 97 10 d1 3f a6 f4 6a 41 b2 c7 f3 3f
       0.2666376649268205 1.2362539821035994
000380 14 33 e8 75 ca 18 03 c0 a4 e8 80 36 9f 3b 09 40
       -2.3871049128996535 3.154112268265708
000390 11 83 9c 59 6f 90 04 c0 b8 30 df 2d 98 7f e5 bf
       -2.5705248833550134 -0.6718254943785018
0003a0 c3 45 d6 f5 42 92 06 40 03 96 37 f0 72 3d ec bf
       2.8214167791381626 -0.8825010959378122
0003b0 e8 1a 41 f6 80 02 05 c0 de 09 bb 93 4d d4 f8 3f
       -2.6262225378626347 1.5518317957618062
0003c0 f7 13 39 49 2a 79 dc bf 6d 9e 6c 95 ee 31 e4 3f
       -0.4448953356807687 0.6310952108805857
0003d0 64 24 dd 5c 15 e4 10 c0 f0 16 d6 ab ef f2 0c 40
       -4.222737742421575 3.6186211991033517
0003e0 1b d6 5a f3 c1 2f 0d c0 c2 20 78 72 46 9c e5 bf
       -3.6483191501709036 -0.6753265605666672
0003f0 1f 62 eb ff 65 28 d0 bf d8 a3 d2 16 47 7a e1 3f
       -0.2524657248700652 0.5461764760740335
